model.pt (torch, 282002 bytes, 11 tensors)

weight f4 [256, 3]
00000000: 1fc0 9c3e 1493 88be 29e0 1fbe d1bb f63e
00000010: df37 a93c 608c 693e 7633 f13c fc6d 04bf
00000020: 5e15 3bbd 09fe 59be fd6a a33e 55c3 d4be
00000030: 447e da3e b58a 67bd 7559 17bf 27ff f73d
00000040: 87a8 8cbe ba46 83bc d405 99be 183a 22be
00000050: 714b 9bbe 91f8 bfbd 107b c03e ee3a 083f
00000060: 1208 3ebe c6e4 93be 1471 acbe 6090 a33e
00000070: 2d69 dabe 3b73 d33e f1c7 01bf 70b3 983e
00000080: 4080 143e 7928 9ebb 8eb1 f23e ccd5 43be
00000090: 0ba5 2fbe 43b2 1abe 294c d53e 67de 0b3f
000000a0: f705 b63e 21ca f8be e53c d4be 0e9a adbd
000000b0: bc82 d5be d2d9 113f 90d7 2c3e 4691 9b3c
000000c0: d87a 9abe e241 90bc 650b 0fbd 7181 adbe
000000d0: 617b 31be 141d f03b 4148 443e bb0c f8be
000000e0: eb0d fdbe cc00 d43e 7921 8f3e 5466 d13e
000000f0: 30f2 f8be ea29 c23e 338a 3bbe ae54 35be
00000100: 2911 c13e d87e ce3e 716c 9cbe ab86 90be
00000110: 7a7a d83e fcdb eb3d ae02 ff3e 6b2e eebe
00000120: 08c6 7d3e 7e1a b03c 5cb5 083f 41ef 8fbe
00000130: 8a50 6f3e 68b8 503e 93c7 0b3f e525 0c3f
00000140: eafb 663d 4f59 eabe b4a9 133e d2e5 b8be
00000150: 5194 08be e3c5 84be 720f 03bf 7a6e 10bf
00000160: 1223 56bd 8a0f 6cbe 10fc 16be 3875 e4be
00000170: f902 123f 422b b6be 0ef0 213e d031 b2be
00000180: 527c 973e ce4b 083e f6c8 863e b9b1 113f
00000190: af60 b1bc a4ec bb3e 31a0 ddbe b706 023f
000001a0: bd47 cc3c 6521 11bf 1d6b e03e 066d 2bbb
000001b0: 4457 29be aecd fa3e fab2 9a3a 8c5c babe
000001c0: 4fc2 88be 953d afbd ee7c 01bf a088 8f3e
000001d0: 7858 00be 6a57 daba a506 923e 5bf2 aebe
000001e0: cf7b 8b3d 39fb 233e 0859 08bf f23f efbe
000001f0: 0363 cabd 0408 94be 224c 04bf 2c52 a83e
00000200: a5e5 3dbe 6156 243e fbf7 0b3f d9b6 fa3e
00000210: 03d8 7c3e 57ea fd3c 44ec 933e ea47 25be
00000220: 75bb b6be c247 b93e 5193 b0be 3590 443e
00000230: cb30 553e 3660 f33d e26e 01bf e4c2 4c3c
00000240: 9195 a83c c2c7 8c3e 5694 d83e ebb2 973e
00000250: dd87 58bd 2547 073f 5703 42be 0efa 483e
00000260: 05f4 b3be 0284 97be e968 c2ba 0b67 c33e
00000270: 0c6e 143e 5930 cebd 01b3 16bb 9cf2 e3be
00000280: f7fc 563e 0506 20be a18c 003f f9a4 2e3d
00000290: 5a17 0a3f 7161 7e3d 0770 7fbe 34c9 f3be
000002a0: e66c 083f 7baa 093e b1c5 0b3f a6d6 143e
000002b0: 7fdb 563d c6f5 5e3e 339d fbbe 878e c9be
000002c0: 7706 5b3d 6c75 6e3e f228 ad3e 26ab fe3c
000002d0: 66bc 4f3e 8e37 fa3c 4f0b a13e 752b 933a
000002e0: 5816 533d 5823 e83e 2e82 c3be 2e39 013f
000002f0: b6ea 0dbe da84 e03e 9e75 edbd 8e9f a0be
00000300: 710d 5a3e 68a5 00bf 8d4d b4bd e9f7 41be
00000310: 7a98 52be 19fc abbe e3c5 473e c856 e1be
00000320: 7449 13be 8b53 9dbd bdd2 793e f4fb 9aba
00000330: 2ef8 253e 365a 3e3e e814 b13e 594c b6be
00000340: 5c5e 953d fcff c93e a66e 9bbe bfe9 ccbe
00000350: 2b5e 19be 26a3 febe 3f7c d53e fd17 a0be
00000360: 34b6 543e 9066 423d aa7f 083f 6205 27be
00000370: a4ae 333e 3e52 843e 712d 633e 51ee 0e3e
00000380: 6c44 2abe c1af 10bf fb9b bbbd 7cda bb3e
00000390: 2153 bbbe 6654 f43e bb3f 053e 9ebe c93e
000003a0: 49bb a73e b879 c53e aab4 af3e 7416 64be
000003b0: e68b 08be de16 15bf 5caf c5bd 6543 06bb
000003c0: 9e05 e63b 3c01 5fbe d758 a73d 0695 cc3e
000003d0: 6189 0bbf 7b86 ebbe b9cb 993e d53a da3e
000003e0: b24d 4d3e 3ae5 a13e b1ff 85bd c4f4 61be
000003f0: 6567 e4be b748 b2be ec1f 0b3f f19c 473d
0.30615327 -0.26674712 -0.15612854 0.48190168 0.020656524 0.22807455 0.029443484 -0.5173032
-0.045674674 -0.21288313 0.31917563 -0.41555277 0.42674458 -0.056528766 -0.59120876 0.12109213
-0.27472326 -0.016024936 -0.2988726 -0.15842474 -0.30330995 -0.09373582 0.3759389 0.5321492
-0.18557766 -0.28885478 -0.33680022 0.31946087 -0.42658368 0.4129885 -0.5069571 0.298244
0.14502048 -0.004826602 0.47401088 -0.19124526 -0.17152803 -0.15107064 0.41659668 0.54636234
0.35551426 -0.48591712 -0.4145271 -0.08476649 -0.41701305 0.5697299 0.16879106 0.01899017
-0.30171847 -0.01760954 -0.034922976 -0.33887818 -0.17332222 0.007327685 0.19168188 -0.48447213
-0.4942468 0.41406858 0.27955225 0.40898383 -0.48622274 0.37922603 -0.18314438 -0.17708084
0.37708405 0.4033115 -0.30551484 -0.28227744 0.42280942 0.11516568 0.49806732 -0.4651979
0.24782574 0.021497007 0.5340173 -0.28112224 0.23370567 0.20382845 0.546014 0.5474532
0.056392588 -0.45771262 0.14420205 -0.3611284 -0.13337828 -0.25932226 -0.5119544 -0.56418574
-0.05227954 -0.23052803 -0.14744592 -0.4462068 0.57035786 -0.35579878 0.1581423 -0.3480363
0.29587036 0.13310167 0.26325196 0.5691181 -0.021652548 0.3670398 -0.4328628 0.50791496
0.024936551 -0.5669158 0.4383172 -0.0026157512 -0.16537195 0.48985046 0.0011802607 -0.36398733
-0.26710746 -0.08556668 -0.5058125 0.28033924 -0.12533748 -0.0016658131 0.28520694 -0.34169278
0.06810724 0.16013803 -0.5326085 -0.46728474 -0.09882166 -0.28912365 -0.5167867 0.32875192
-0.18544634 0.16048576 0.54675263 0.48967627 0.24691777 0.030995531 0.28891194 -0.16140714
-0.35689893 0.3618756 -0.34487393 0.19195636 0.20819394 0.11883585 -0.5055982 0.012497637
0.020579131 0.27496153 0.4230067 0.2962869 -0.052863944 0.5284293 -0.18946587 0.19626638
-0.3514711 -0.295929 -0.0014832291 0.38164553 0.14495105 -0.10067815 -0.0022994878 -0.44521034
0.20994936 -0.15627296 0.5021458 0.0426378 0.5394188 0.062104646 -0.24945079 -0.47614443
0.53291166 0.1344394 0.5459853 0.14535007 0.05245542 0.21773443 -0.4914337 -0.39366552
0.053472962 0.2328698 0.338203 0.03108747 0.20286712 0.030544069 0.3145394 0.0011228161
0.05153498 0.45339465 -0.38185257 0.50477874 -0.13859066 0.43851358 -0.11594699 -0.3137173
0.2129419 -0.5025239 -0.08803854 -0.18942226 -0.20565978 -0.33590773 0.19509082 -0.4401152
-0.14383489 -0.0768195 0.24396797 -0.0011824355 0.16207954 0.185891 0.34586263 -0.35605124
0.07293388 0.39453113 -0.30357856 -0.40022084 -0.14977328 -0.49733847 0.41696355 -0.31268302
0.2077263 0.047461092 0.533198 -0.16310647 0.17547089 0.25843996 0.22185303 0.13958098
-0.16627663 -0.5651818 -0.0916061 0.36690128 -0.3658686 0.4772064 0.13012592 0.39403242
0.32760075 0.38569427 0.34317523 -0.2227419 -0.13334617 -0.5823802 -0.09652588 -0.0020486948
0.0070197126 -0.21777815 0.08171242 0.39957446 -0.545065 -0.46001038 0.3003824 0.4262301
0.2004917 0.31620198 -0.0654291 -0.22066027 -0.44610134 -0.34821102 0.54345584 0.048733655

bias f4 [256]
00000000: 1bb9 01be 8dbb c63d bbf2 ef3d 0ce4 fb3e
00000010: 7e84 cb3e 7901 043f 63cc 023f 1c78 c13d
00000020: a736 ecbe e3bc 0a3e db82 12bf 8fd9 093f
00000030: c963 653d e877 c23e 8cd9 16bf 236f 89be
00000040: c376 d4be 6b73 3d3e 12bf 8b3c 3128 c3be
00000050: 2f53 92be 6ea1 d23e 6d31 a1bd 6361 5abe
00000060: 88a7 903d ff45 8b3c fde7 be3e 7d0b 94be
00000070: 9a51 59be d40e 0fbf 0494 9b3e 0fc4 fe3e
00000080: 334e febd d367 eebc 6c44 413e c141 8e3c
00000090: dac7 ac3e 4ac0 4abe 0792 813d 3b9c 0fbe
000000a0: fb5c f6be 749e 223e 75a3 9bbe ebc4 a3be
000000b0: 5688 023e 3dc0 d03e 74a7 d3be b252 793e
000000c0: ae13 283b ab32 0c3f 06e3 743d d054 f03d
000000d0: 3b10 f73e 3257 a9bd 5bf8 d83e 3cfb 753e
000000e0: e878 123f 1d81 ce3e bfee 00bf 8e80 6ebe
000000f0: 37bc 0bbf 848f 90be ce69 db3e f8c7 2cbc
00000100: e71b a03d f14b 1b3e f80d 22bd e1ab f93e
00000110: ba62 ab3e 0eb8 2abe f65b f73d 9f83 d1be
00000120: ebf2 7cbe ddf0 1b3d 6ffc 26bd b059 b13e
00000130: 752c 3abe 8e72 c2be e16c d63e 4da4 7ebd
00000140: 711b 903e 14ed 173d 0274 05bf 2a35 d23e
00000150: f698 abbe 5a42 9dbe c872 f83e 1f48 543b
00000160: 9e7d 31bd 4be3 243e 499e efbe 091c 033f
00000170: 2202 91be 12d2 75be f6f1 09bf 15e7 0cbf
00000180: f772 053f ccb1 aa3c 80ad acbd f4b8 f53e
00000190: a9b3 c43e db50 ec3d 96bf 18bf 1c11 b2bc
000001a0: b9eb 55bc c51f 86be dc81 f53d 56dd 293e
000001b0: a138 ee3e c44e 2aba 8507 9abe 1665 61be
000001c0: 841e e7be d35a a53e b5a5 ca3e edff d0be
000001d0: b769 7ebe d2f0 423e 591f e73e c67f f03d
000001e0: 9060 093f 9e2a 0a3f b4d2 0fbf 903d 713e
000001f0: 4721 48be 2a02 d73e 487c 28be 1082 013e
00000200: ab23 1cbf 631f fabe 6932 0abe 1e25 94be
00000210: c1cf 8ebe 3e49 b4be 817d a33d 19a3 40be
00000220: e5a9 3a3e 8b6b be3e 86e6 8abd b435 c63e
00000230: c664 57be abc3 643e 1078 823e 2f28 e0be
00000240: c25e 04bf 8723 7f3e bdbd ed3e 683b 103f
00000250: 6a46 183e d50f 053f 68ff 01bf c1aa b33e
00000260: c319 7abe 4384 453e bcab 6a3e 80c9 013f
00000270: f499 203c 52bc 013f 3496 9bbe b9ea 00bf
00000280: 6278 323d 71e3 753c c1c0 003f 653f ccbe
00000290: 75dd 453e 2f96 4cbe 19e3 913e e7c7 0d3f
000002a0: 6a4f 813e 9776 b0be cf7f cbbe fa0a dc3e
000002b0: 55bc 15bf 564e 06bf 11ad 833e ef92 6bbe
000002c0: fc67 353e 2ff7 aabe cac8 8f3d e463 523e
000002d0: 11a4 3bbd fb23 4a3e 6a40 f73e e551 133c
000002e0: a5e9 d23d 2cd1 67be b7f9 41be 87af 373e
000002f0: e95a de3e a28a 5a3c 691b c6be e1ab c7be
00000300: af96 f4be ff43 8e3e c88c 13bf 77a5 c13d
00000310: 900a b9be 583e b43e 566b b73e 3e8c 3e3e
00000320: ae19 393e f0b5 5c3e 060e a7be eed4 9ebe
00000330: 603d 04bd 6d4c 073e ea0f c43e 2d5f 783e
00000340: f6cb c9be ba5b 04bf 1045 b5be d192 0abf
00000350: 4deb b13e 41f7 03bf 8774 d4be ed33 94be
00000360: 0677 8ebe d0bd e1be a38f 053f a29c 4d3e
00000370: 22dc e8be 8a79 ef3d e415 143e 638c 1e3e
00000380: 354a a03e a3c3 ebbe 86c1 c43e 6fa4 01be
00000390: 4ebb 62be cedd ed3e 1053 b2be e160 c9be
000003a0: 36ca 9abe 7576 37bd 7984 bdbe 6af7 c6be
000003b0: 3334 7a3e 06d3 6ebe 69b9 d43e 660f 173f
000003c0: 2718 02bf ea31 963e b6da 9dbe 1a1d fdbd
000003d0: f284 d23e 1f26 6f3e 3c6f bebd ea1f 01bf
000003e0: 32fc 183f c9b0 413e dc4a debe 5efe ac3d
000003f0: eb2d 823d 50ad 193c 32a3 f1be f902 3f3b
-0.12668268 0.09703741 0.11716219 0.49197423 0.3974952 0.5156475 0.5109312 0.09446737
-0.46135446 0.13548617 -0.5723092 0.53847593 0.056003366 0.37982106 -0.589257 -0.26842603
-0.41496858 0.1850106 0.017058883 -0.381166 -0.2857909 0.41138786 -0.07870755 -0.21326213
0.07063204 0.01700115 0.37286368 -0.28915015 -0.21222535 -0.55882 0.30386364 0.49758956
-0.12417259 -0.029102242 0.18873757 0.017365338 0.33746225 -0.19799915 0.06326681 -0.14024441
-0.48117813 0.15880758 -0.30398145 -0.31986174 0.1274732 0.40771666 -0.41338694 0.24347952
0.0025646496 0.54764813 0.05978682 0.11734927 0.4825457 -0.08268584 0.4237698 0.2402162
0.5721574 0.4033288 -0.503643 -0.23291227 -0.5458407 -0.28234494 0.4285416 -0.010545723
0.07817822 0.15165688 -0.039564103 0.48763946 0.3347376 -0.16671774 0.12078087 -0.4092073
-0.24702041 0.038071502 -0.040768083 0.3463874 -0.18181022 -0.37978023 0.41879943 -0.06216841
0.28145936 0.03709133 -0.5213014 0.41056186 -0.33515137 -0.30714685 0.4852507 0.003239162
-0.04333269 0.1610233 -0.4680045 0.51214653 -0.2832194 -0.24005917 -0.5388483 -0.55040103
0.5212855 0.020836733 -0.0843153 0.4799267 0.3841832 0.115388595 -0.59667337 -0.021736674
-0.013056689 -0.26196113 0.11987659 0.16588339 0.4652758 -0.00064967223 -0.30083862 -0.22011217
-0.4514047 0.32295856 0.3957955 -0.40820256 -0.24845015 0.19037178 0.45141104 0.11743121
0.5366297 0.5397128 -0.5618088 0.2355864 -0.19543944 0.4199384 -0.1645366 0.12647271
-0.60991925 -0.4885207 -0.13495792 -0.28934568 -0.2789288 -0.3521213 0.07982922 -0.18812217
0.18228872 0.37191424 -0.0678225 0.38712847 -0.21034536 0.22340266 0.25482225 -0.43780658
-0.5170709 0.24915896 0.4643382 0.56340647 0.14870611 0.5197728 -0.50780344 0.35091212
-0.2442389 0.19288735 0.22917074 0.5069809 0.00980233 0.5067798 -0.30388033 -0.5035816
0.043571837 0.01500784 0.5029412 -0.39892116 0.1932276 -0.19979165 0.28493574 0.5538315
0.252559 -0.34465477 -0.39745948 0.42977124 -0.58490497 -0.5246328 0.25717977 -0.2300527
0.17715448 -0.3339171 0.07020719 0.20545918 -0.045810763 0.19740288 0.48291332 0.008991693
0.102984704 -0.22638386 -0.18942915 0.17938052 0.43428734 0.013338717 -0.38692787 -0.3899832
-0.47771212 0.27786252 -0.5763669 0.09455388 -0.3614087 0.35203815 0.35824078 0.18608186
0.18076202 0.21553779 -0.32627887 -0.31021827 -0.032285094 0.13212748 0.3829339 0.24255057
-0.39413422 -0.51702464 -0.35404253 -0.54130274 0.34749833 -0.51549155 -0.41495153 -0.28945866
-0.27825183 -0.44090128 0.521723 0.20079282 -0.45480448 0.116931036 0.14461476 0.15483241
0.31306615 -0.46047696 0.38428897 -0.12660383 -0.22141764 0.46458286 -0.34828997 -0.39331725
-0.302324 -0.044790704 -0.3701513 -0.38860637 0.24433975 -0.23322687 0.41547707 0.5900787
-0.50818104 0.29334956 -0.30830926 -0.12359066 0.41117054 0.23354386 -0.0929856 -0.5043932
0.5975982 0.18915094 -0.43416488 0.08446954 0.063564144 0.0093797 -0.4719482 0.002914606

weight f4 [1, 256]
00000000: 6168 5dbd a7db 073d 766f 333d 7b95 713d
00000010: 931c dabc 46e0 473d 287c 123d 0baa b7bc
00000020: ca55 12bd 8d83 00bd edaf a7bd 8b10 253d
00000030: 6840 143b f76c 783d df51 9fbc 4ed1 ae3c
00000040: 9945 33bd 87b1 10bd dab3 433d 0c02 173d
00000050: 6dcd 87bd 60cf 01bd 1ea8 133c ed0b af3b
00000060: 03ea 803d a871 70bc cdf5 33bd 7ed0 94bd
00000070: 4818 84bd 4bc9 2b3d ef0c 2c3d dcbf 593d
00000080: 7880 ebbc 4e1e 17bd 70c2 e23c b1e9 b03b
00000090: 258d 943d cc6a 60bd 3724 09bd 969f 7abd
000000a0: 9e43 80bb 869e 6dbd 0787 99bd 44fa 783d
000000b0: 9e9d 573d 6c30 683d 60b3 36bd 8107 f93c
000000c0: 09ab 0d3d dcbb 513d 7cc7 1fbd ae70 4b3d
000000d0: bc0c 0bbd d4ae 013d 532d f2bc 1ceb 523d
000000e0: bdc9 1b3c c8c0 493d d2d3 273d 48f1 d9bc
000000f0: f61a 3ebd 9c4b 663d 6295 02bd 2d1e 5dbd
00000100: 87de 81ba f05f 06bc 31c9 55bd 3689 c0bc
00000110: 2a22 8d3c c5cd 1a3c f898 5bbc 6497 053d
00000120: 136a 2c3d c123 723d 2ae0 753c 72da 663d
00000130: b0ed 0bbd dfd1 573b 6a2b a03d 4439 9bbc
00000140: e81d 0ebd 9fbc fc3c cbaa 65bd 8bf4 c7bc
00000150: 3718 37bd e062 183d fb60 7b3c 6d7a e23c
00000160: e859 423c 6020 1d3d 3d51 ad3c 375d 30bd
00000170: 1d6f 3c3d 4284 38bd d62d 2abc 1dac f43c
00000180: 0e2a 593d 0ccd 823c 5ec0 613d 5715 1bbc
00000190: db26 debc 4eee d63c 081e 06bd af61 65bc
000001a0: acf9 3a3d 9bde 9c3c c33f 913a 0a4b 7ebd
000001b0: d0e7 a8bc 705c 113d a9a0 49bd e272 813d
000001c0: f9b4 f63c 5875 4ebd 44ec 21bd 46e2 6c3c
000001d0: 9cd8 1b3d 5c5f 1d3d dd49 8b3d 35f5 623c
000001e0: 2e61 0cbd 5b24 74bb b8d1 9bbc 99d8 2e3d
000001f0: 3e39 c2bc 875f 773d e28b 49bd 9d0e dbbc
00000200: 7dd3 63bc 5d39 4f3d 4025 89bc 9abb 09bd
00000210: f3bd 8c3c 29ee 9fbc 67ed 0b3c 8466 66bd
00000220: 3fc1 2abc eea2 2fbc c986 d0bb 951c 533d
00000230: 0aeb 223c 2266 12bc 3fa7 36bd 1b01 a6bd
00000240: 8b27 c5bb 5e60 853d 248c 323c 3c43 103d
00000250: b04c e3bc 89af 2cbd 19d8 063d fa4a 1dbc
00000260: 2f1f 283d bbe1 3d3d 95e3 a93d 4f62 533c
00000270: 5089 93bc 2d12 583c 0fab b6bd 3c8d 9bbc
00000280: 0a1d f93b a89f 05bd 8133 72bc 4c3a 493d
00000290: 3347 963c 4651 843d 38fb e4bb 12d4 d23b
000002a0: b3c9 ce3b 1845 543d cd51 35bd b620 103d
000002b0: d865 1dbd f20b 81bd 5f62 29bd e29b cdbc
000002c0: b8a2 4abc 06f7 343c 1559 2dbc 6aea 7e3d
000002d0: e8dc 5c3d 6c42 333d 735d 3bbc bb64 8bbd
000002e0: a288 ce3c 269e c03b 3779 653d 0be1 eb3a
000002f0: 71a1 7bbc ea2c 8c3d be9f 84bd a966 5d3b
00000300: a8c0 483d f600 b43d e460 b8bc e864 b13b
00000310: f3ba 163d ba78 9cbc 4721 87bc 798b f13c
00000320: d177 4b3d 5fda c8bc ae72 22bd adf1 ff3c
00000330: 68e3 2b3c 7cbb cc3c 173f 98b9 3431 0a3d
00000340: 54da 9bbc 4edd 59bd 7980 53bd 1ab1 dabc
00000350: 78c6 0dbd dbcf 98bd 54a6 7ebc 96e9 a03a
00000360: d52a 2e3d bb8b eb3c 271a a53d e9d5 b3bc
00000370: c2b8 1ebc f616 39bc 9fdf 1dbc 46f2 4b3d
00000380: 88f3 1abd d621 3a3d 982c 093c 6fab 6ebd
00000390: 8018 66bd c68f b23d d3be 023d bb52 823b
000003a0: 51c1 b4bc 1229 83bc b448 d33c 2f25 d2bc
000003b0: ea0e 68bd 84fc 20bd 1aea 86bd 1288 9c3d
000003c0: b711 ebbc 725f c5bb 7340 553d 6b10 bfbc
000003d0: d7a1 c6bc d647 14bd 5e72 99ba 879a f33c
000003e0: 3bfc c23c 930f be3b 5d43 0bbc 568d 0bbd
000003f0: 8494 013d 060d 203d 8d46 12bd c1a3 a23c
-0.05405462 0.03316846 0.04380747 0.058980446 -0.026624953 0.04879787 0.035762936 -0.02241995
-0.035726346 -0.031375457 -0.08187852 0.04029898 0.0022621397 0.060650792 -0.019448219 0.021340039
-0.043767545 -0.035325553 0.04777894 0.036867186 -0.06630979 -0.03169191 0.00901225 0.005341998
0.06294634 -0.014675535 -0.043935586 -0.07266329 -0.06449944 0.041940015 0.042004522 0.053161487
-0.028747782 -0.036894135 0.027680606 0.005398952 0.07253484 -0.05478935 -0.033481803 -0.06118735
-0.0039143106 -0.058012508 -0.074964575 0.060785547 0.05264055 0.056686804 -0.04460466 0.030399086
0.03458694 0.051204547 -0.039008602 0.049668007 -0.03394769 0.03166087 -0.029562628 0.05149375
0.009508547 0.049256116 0.040973492 -0.02660431 -0.04641243 0.05622445 -0.031880744 -0.053983856
-0.0009908237 -0.008201584 -0.052193824 -0.023502927 0.017228205 0.009448473 -0.01340317 0.03261508
0.042093348 0.05911613 0.015007058 0.05636067 -0.034162223 0.003293149 0.078207806 -0.018948205
-0.03469649 0.03085166 -0.056071084 -0.0244086 -0.044700827 0.03720367 0.015342946 0.027646268
0.011862256 0.038360953 0.021156901 -0.043057647 0.046004403 -0.045048006 -0.010386905 0.029867226
0.053018622 0.015966915 0.055115096 -0.009465537 -0.027118137 0.02623668 -0.032743484 -0.01400034
0.045648262 0.019149115 0.0011081625 -0.06208328 -0.02061835 0.035488546 -0.049225483 0.0632074
0.030115591 -0.050404876 -0.03953196 0.014458245 0.03804837 0.03842102 0.06801198 0.013852407
-0.034272365 -0.0037253115 -0.0190209 0.042687032 -0.023708936 0.060393836 -0.04920567 -0.026740367
-0.013905403 0.050591815 -0.016741395 -0.033626176 0.017180419 -0.019522743 0.008540488 -0.05625011
-0.01042205 -0.010719998 -0.006363724 0.05154093 0.009943733 -0.008935483 -0.044593092 -0.081056796
-0.006016677 0.06512521 0.01089767 0.03522037 -0.027746528 -0.04215959 0.03292093 -0.009600395
0.041045364 0.04635785 0.08295361 0.012901857 -0.018009812 0.013187927 -0.089193456 -0.018988244
0.0076023387 -0.032622963 -0.014782787 0.04912786 0.018344497 0.06460814 -0.0069879554 0.006433972
0.0063106655 0.051823705 -0.044267464 0.035187446 -0.038427204 -0.063011065 -0.04135358 -0.025098745
-0.012367897 0.011045223 -0.010580321 0.062235273 0.05392161 0.043764517 -0.011435854 -0.06806322
0.025211636 0.0058782278 0.056023803 0.0017996145 -0.015358315 0.06844504 -0.06475781 0.0033783114
0.049011856 0.08789246 -0.022507139 0.0054136403 0.036799382 -0.019100536 -0.01649536 0.029485451
0.049674813 -0.02451819 -0.03966015 0.03124317 0.01049123 0.024991743 -0.00029038705 0.03373833
-0.019025005 -0.05318957 -0.051636193 -0.026695777 -0.034613103 -0.0746152 -0.015542585 0.0012276645
0.042521317 0.028753152 0.08061629 -0.021952586 -0.009687604 -0.011296978 -0.009635835 0.049791597
-0.037829906 0.045442425 0.008372448 -0.05826896 -0.05617571 0.08718829 0.031920265 0.0039771474
-0.022064837 -0.016010795 0.025791503 -0.025652496 -0.05665485 -0.039303318 -0.0658762 0.07643141
-0.02869497 -0.006023341 0.052063417 -0.023323258 -0.024247093 -0.03620132 -0.0011707058 0.02973677
0.023801913 0.0058001964 -0.008499947 -0.034070335 0.031635776 0.03907492 -0.035711814 0.019853475

weight f4 [3, 1]
00000000: bb4e 4cbf 849d 4abf bde8 6d3e
-0.79807633 -0.791466 0.23233314

bias f4 [3]
00000000: 48a6 183f 026b 673f 8e93 973e
0.59628725 0.90397656 0.29604763

weight_ih_l0 f4 [256, 3]
00000000: 2d6b 0e3d e140 83bd 0434 83bc ff87 b13c
00000010: adca 0b3d 5a1b 353d 9ad0 a7bc d2fd 163d
00000020: 403d 3abd 6b5d 2abd bfec 8ebd 78c0 343d
00000030: 65a8 7b3d 1135 003d 3f61 803a 9bf2 eb3c
00000040: bbba 23bc c5c7 393d 4aa8 84bb 2231 8e3d
00000050: 2a5a 04bd eadf 8bbd f7f9 35bd 1cc3 b03c
00000060: 512a 8ebc 0e4a a2bd 87c1 3f3d bc89 5b3b
00000070: 923c 91bc fe00 58bd f458 dbbc 59c6 893b
00000080: 1038 da3c 566e 263d 5a36 c93c c4a3 25bc
00000090: cfeb 543d 3c0d 713d 0c38 5d3a 68d9 103c
000000a0: fe0d 953b fb42 8bbc 9dac e7bc 0f88 9dbd
000000b0: d932 fe3c e81f a83d 2840 fc3c 1e90 4ebd
000000c0: 45a0 853d 8b04 a2ba 127a a13c b0c5 573d
000000d0: 2d56 183d 9e16 06bd 1212 c7bc d631 833d
000000e0: 3048 97bd 7095 823d 2924 183d 0bc5 ff3c
000000f0: ec0c 8ebd f682 e13b e21e 8a3d 966c a73c
00000100: 41b8 033d a739 8a3d 9d1c a4bd 4957 133c
00000110: 7989 633d cc5e 91bb 21e7 d33c 0b2b 8cbd
00000120: 6936 4e3d 8570 ce3c ea7c fcbc 4056 553d
00000130: 9b2c 75bc 2ea5 46bd cb26 20bd 5ccb 0d3d
00000140: 7ebb e4bc 3b95 8e3c 4041 143d e0eb 68bd
00000150: e97a c03c 55d3 a13d 42b1 093d 2b43 433c
00000160: d39d 4fbc fb10 933c 938c 55bd 75ec e2bb
00000170: 91a2 e43c 5b7e 87bd edec 5ebd ab39 a03d
00000180: b537 2f3d 599a b9bc b62f 73bd 3fb8 353d
00000190: 08b8 ac3c 036c 793d 33e7 1b3b 8b07 e93c
000001a0: 98cd 463d bf54 973b 6377 753c b12c 59bd
000001b0: 5cc8 ab3c d7ae 44bd d0ed 673d 0587 c23c
000001c0: d3b0 35bc 7d66 86bd 8267 a43c 79d9 10bd
000001d0: d91e 823c a606 c2bc babf cdbc 3053 613d
000001e0: 28b6 97bd 452b 98bd 1c91 493c b8e0 38bd
000001f0: 51cd bc3c 908e 433d afe4 c8bd f09d 0dbd
00000200: d197 703c ebd1 3d3d e084 59bd 2545 333d
00000210: 2627 29bd a578 f63c b4c0 91bc 33af 90bc
00000220: 8308 adbd 6772 aa3c 417f 07bd 8fe7 a1bc
00000230: e286 80bd fe41 6ebd 6318 92bd 2091 0e3d
00000240: b2b8 dcbc c732 43bd 1be6 e73c 80bf 3fbd
00000250: e939 3f3c c077 3b3d fffb 8c3c ee8a 87bc
00000260: 31b1 bc3b 2ed9 9f3c 430d e3bb b6f7 763c
00000270: bd34 4fbd 4d30 de3c 7180 933d 7c38 2b3d
00000280: dcc9 b43c dbb1 4bbd c54a 28bc 6501 9dbd
00000290: d4fe fcbc 0bd2 f53b a09e 3b3c b97c fa3c
000002a0: 1faf 18bd 17b1 1cbd afc9 adbc 5d52 92bd
000002b0: a5af 0bbc cbd6 6f3d 2647 673d bc39 31bd
000002c0: d514 da3c 063e a1bd 17dc 06bb bf7d 893d
000002d0: 0996 e0bc 4f8d 2f3d 417b 103d 23fa 13bc
000002e0: 2e8e 31bd 7327 713a 9617 b83c 855a 163d
000002f0: 6493 85bd 4ee7 e83d 5999 2d3d 32cc 0f3c
00000300: c42c 7d3d 3fff 203d 61ad 233d 2633 053d
00000310: a39f ad3d a805 fdbc 5eb4 073c c507 933d
00000320: b473 133d 154f c73c 21b0 47bd fffb a03c
00000330: e421 76bd ab7c 88bd e7ee e93c 5ab1 33bd
00000340: 22b8 4fbb 9aa4 a03d 00bd 42bb 9c48 3dbd
00000350: 7a0b 8ebd a07a af3c d732 77bd 6527 52bd
00000360: 84b1 16bd df17 32bd d11d b7ba 195a 0bbc
00000370: 6c7e ccbc b182 dc3b 9687 873c c85b 143d
00000380: 1317 42bd f6a8 ee3c 5b5d 0dbd 969f eb3c
00000390: d3a7 35bd 8283 2ebd 6f95 3c3c b25d 8f3c
000003a0: 1afb 43bd ec50 42bc 16d5 c23b 5790 4a3d
000003b0: f804 67bd 2dca 9b3d 62ed 0a3c 1e5c 6a3c
000003c0: 7b25 a13d 42bb 8fbb 5588 a1bd cec5 3ebd
000003d0: 8271 4bbc 00a0 ad3c b39e 113d da9b 7cbd
000003e0: caa0 52bc e92f 95bd 0629 893c a3c3 c13c
000003f0: 0705 1fbd 6879 f4bc 3082 33bc 49d2 e33b
0.03477018 -0.06408859 -0.016016014 0.021671293 0.034128834 0.044215538 -0.020485211 0.036863156
-0.04546857 -0.041592997 -0.069787495 0.044128865 0.06143989 0.031300608 0.0009794607 0.028802207
-0.0099932505 0.04535653 -0.004048382 0.06942965 -0.03231255 -0.068298176 -0.04442784 0.02157741
-0.017354162 -0.07924281 0.04681542 0.0033498844 -0.017729077 -0.05273532 -0.026775815 0.004204553
0.02663806 0.04063257 0.02456205 -0.010109846 0.051982697 0.058850512 0.00084388326 0.008840896
0.004548787 -0.016999712 -0.02828055 -0.07691967 0.031030105 0.08209211 0.03079231 -0.05043041
0.065247096 -0.0012360973 0.019711528 0.052678764 0.03719156 -0.032736413 -0.024300609 0.0640599
-0.073868155 0.06376159 0.03714386 0.031221887 -0.069360584 0.006882067 0.06744172 0.02043752
0.03215814 0.067492776 -0.0801327 0.008992978 0.055551026 -0.0044363495 0.025867047 -0.06844147
0.05034486 0.025200138 -0.030821282 0.052084208 -0.014964248 -0.04849737 -0.039099496 0.034617767
-0.027921434 0.017405143 0.03619504 -0.056865573 0.023496108 0.079016365 0.03361631 0.01191787
-0.012671906 0.017952433 -0.052136015 -0.0069251605 0.027909549 -0.06615897 -0.05442517 0.07823499
0.042777736 -0.022656607 -0.059371673 0.044365164 0.021083847 0.060894024 0.0023788929 0.02844598
0.048535913 0.004618257 0.014982077 -0.053021137 0.020969562 -0.048018303 0.05662328 0.023746023
-0.011089521 -0.06562517 0.020068888 -0.035363648 0.01588385 -0.02368481 -0.025115836 0.055010974
-0.074077904 -0.07430128 0.012302663 -0.045136184 0.023047121 0.04774338 -0.09809243 -0.03457445
0.014684633 0.04634277 -0.053105235 0.043767113 -0.0412971 0.030086825 -0.017792083 -0.017661666
-0.08448889 0.020806504 -0.033080343 -0.019763736 -0.06275727 -0.058168404 -0.07133558 0.03480637
-0.026943538 -0.047655847 0.028307965 -0.046813488 0.011671522 0.0457685 0.017210005 -0.016545739
0.0057584275 0.019512739 -0.006929071 0.015073707 -0.050587405 0.027122641 0.07202233 0.041801915
0.02206891 -0.049730163 -0.010271733 -0.076662816 -0.03088323 0.0075018457 0.011451393 0.03057705
-0.037276383 -0.038254824 -0.021214334 -0.07144616 -0.008525764 0.058554452 0.056464337 -0.04326795
0.026621262 -0.07873158 -0.002057796 0.06713437 -0.027415292 0.04285937 0.035273794 -0.009031805
-0.043348484 0.0009199299 0.022472184 0.03670742 -0.06522253 0.11372243 0.04238257 0.008776711
0.06181027 0.03930592 0.03996027 0.032519482 0.08477714 -0.030886486 0.008282749 0.07179216
0.035999015 0.024329701 -0.048751954 0.019651411 -0.060090914 -0.066644035 0.0285563 -0.043870308
-0.0031695445 0.07843895 -0.0029714704 -0.046211824 -0.06935783 0.021420777 -0.06035122 -0.0513071
-0.036790386 -0.043479796 -0.0013970678 -0.008505368 -0.024962626 0.006729447 0.016544145 0.036220342
-0.047385287 0.029133301 -0.03451286 0.02876262 -0.044349503 -0.042605884 0.011510237 0.017500732
-0.04784689 -0.011860114 0.005945812 0.04945406 -0.056401223 0.07606921 0.008479448 0.014304189
0.07868477 -0.0043863365 -0.078873314 -0.04657536 -0.012417199 0.021194458 0.035551738 -0.06167207
-0.012855718 -0.07284529 0.016743194 0.023652857 -0.038823154 -0.029843047 -0.010956332 0.006952558

weight_hh_l0 f4 [256, 256]
00000000: f2c5 9b3d 6330 25bd d750 463d 4746 67bc
00000010: 3238 893c c600 303d 16ae be3c 8900 f7bb
00000020: 6372 df3c 0484 eb3c 8c28 45bd 895f 20bd
00000030: 7214 253c 90b1 513c 2656 e9bc a89b b33c
00000040: 78ee b5bc b1c6 3dbd f1ab 813d de2e c73c
00000050: 6ac8 60bd 6a23 37bd b5c9 163c d678 50bd
00000060: 121f ddbc 355d 96bc c695 9b3d 5716 18bd
00000070: ded7 d93c 994c 57bd 5d1c 9a3c 205f 5dbb
00000080: 93e3 0c3d ec71 9abc 3c20 2c3d e5b2 183d
00000090: dbcf dbbb da5f 133c 521f b8bc d91a 7bbd
000000a0: 4322 50bd cc8f 45bd 332b 06bd 6c13 443b
000000b0: f847 45bc 15b6 0bbc e378 5fbd 2dde 033d
000000c0: 1a1b 983c 5b0b 8fbd 6aff ae3c cd23 133d
000000d0: dcf8 383d 0e53 24b9 fb10 8ebd 3612 85bd
000000e0: 94f2 be3c 75ab 473b d451 bbbc 0bc8 94bd
000000f0: d108 093d d303 04bd e9a1 993d 1fad 0bbd
00000100: f7d1 5e3b 1f08 16bd 1a1c 583d 33f3 053d
00000110: fe65 b73c 29a7 153d bd7e 2abd adc4 8e3d
00000120: b98b 24bd dfdc 77bd e2c8 e23c 78e5 e93c
00000130: 0c37 8bbd 53a0 11bd f5b8 72bd 0499 b1bc
00000140: 578d fa3c 5d2a 303d 9fb5 503d fa50 8bbd
00000150: e659 23bc 09ce 5f3a e9c6 3dbc 311b 38bc
00000160: 4a59 ffbc bbbe 43bc 58e7 e1bb b75d b43c
00000170: a7e0 8abd 7027 50bd 96c3 2cbc c792 5a3d
00000180: 6ec7 713c fdee f73c 1964 80bd 2974 d3bc
00000190: c6b5 d7bc dbd2 44bd 8776 623c bfaf 42bd
000001a0: cd17 223d be59 343d 4933 e1bc 011c 923d
000001b0: a072 1ebd fa8b b13c 875c 0c3d db8c 1fbd
000001c0: 4fbc fe3b 080d 48bd 3cfc 01bd 11a4 4cbc
000001d0: e4a3 fa3c 6a73 193d 8a2a 773d 0b42 173d
000001e0: 5967 0ebd 84ef dd3c a5c4 463d 1ba4 71bd
000001f0: c9f2 593d 2838 94bc 4cab e8bb e173 bf3b
00000200: 018d 2f3d 3739 8ebd d949 863d 23f5 373d
00000210: d3b5 c93c 9669 14bd f46d 03bc d326 dc3c
00000220: 5e6e 6a3c 956c 163d bb31 383d fc62 56bd
00000230: 4d05 29bd 390a 0c3d 1a01 673d 697b 343d
00000240: 4329 0e3d 8c5d de39 2a71 4c3a 9d33 433d
00000250: 6f7c 04bd 4df8 d93c 5b0d 953c b3fe 25bd
00000260: 3600 503d 614b 31bd 9cdd 2ebd 7f1b 743d
00000270: 8178 673c a5bc 28bd 9905 943c 78c5 14bd
00000280: cd9a 30bd 129c ee3b 469f 30bc df5b fdbc
00000290: 4239 0bbd 8511 a7bc 9afb 7a3d c2f9 423d
000002a0: 67a8 80bd f0e5 cabb 1071 903b 9ba1 753c
000002b0: afcd 083d 0057 043d 2dc2 c0bc e5f3 30bd
000002c0: f67d 9cbc e4cc adbc 8778 5a3d f297 edbc
000002d0: 6f3f 44bd 2fbd 133d 589b b63b 4eaf 08bc
000002e0: 2e61 80bc b794 0b3c 3082 0e3d 94bd 0f3d
000002f0: aa77 8cbc c422 673d e94f 98bd 472e f93c
00000300: d3bc 913d 03ab 8c3d e1b6 2bbd 77a8 8bbd
00000310: 6d94 17bd 4716 e23c 241a 1ebc 9ffa fe3b
00000320: 4662 6c3b 4437 2e3d 4d45 47bd fff7 39bd
00000330: 7ad7 813d eaa8 ccbc 18db 4c3c 8b6f 16bc
00000340: 28c3 89bd 197f 5c3d c6c8 86bc 6114 0abd
00000350: e4b8 1bbd a8d5 8cbd dfe1 813d 1a90 3cbd
00000360: e6a1 9dbd 1180 f13c d50e 183d 56bd febc
00000370: 145e 78bd 5307 96bc cc3a 4e3c 43de 4d3d
00000380: 4570 16bd c248 f63c 0533 883c d0ad de3c
00000390: bc23 093d a9fb 623d 54f8 c63a 0214 e93c
000003a0: e7d6 5f3c f7c9 103d 6a52 c8bc aea0 1dbd
000003b0: a1e5 fd3c e25e 083d 7385 08bc 19af 0e3d
000003c0: e4bc a2bb 2dd2 5bbd c8c4 493d 4217 fe3c
000003d0: 9d8d 8ebc 7317 5cbc d936 4c3d a64d 90bd
000003e0: 8a06 85bc 2443 b43c c715 2a3d e66a 353d
000003f0: 945e 313a fb1e 7cbc b921 1ebd 8b9f 44bb
0.076061144 -0.04032935 0.04841694 -0.0141158765 0.016750429 0.042969488 0.02327637 -0.0075379056
0.027276224 0.028749473 -0.04813437 -0.03915361 0.010075675 0.012798682 -0.028483462 0.021924809
-0.022208437 -0.046332065 0.06331623 0.02431434 -0.05487863 -0.044711508 0.009203364 -0.050896488
-0.026992355 -0.018354991 0.075969264 -0.03713068 0.026592191 -0.052563284 0.018812353 -0.0033778623
0.03439672 -0.01885315 0.04202293 0.037279982 -0.006708128 0.008995021 -0.022475872 -0.0613049
-0.050813925 -0.04823284 -0.03275604 0.0029918803 -0.0120410845 -0.008527298 -0.054558646 0.032194305
0.01856761 -0.06984588 0.021362025 0.035922814 0.045159206 -0.00015671199 -0.069368325 -0.06497614
0.02330903 0.0030467187 -0.022866167 -0.07264718 0.033455674 -0.03223021 0.07501585 -0.034100648
0.003399966 -0.03662884 0.052761175 0.032702636 0.0223875 0.03653637 -0.041624773 0.06971107
-0.040172312 -0.060513373 0.027683679 0.028551802 -0.06797609 -0.035553288 -0.05925842 -0.021679409
0.030584974 0.04300915 0.050954457 -0.068025544 -0.009970164 0.00085374765 -0.011583068 -0.011236952
-0.031170506 -0.011947329 -0.0068940334 0.022017343 -0.0678113 -0.05081886 -0.010544678 0.053362634
0.01475702 0.030265326 -0.06269092 -0.025812225 -0.026331794 -0.04805265 0.013822204 -0.047530886
0.03957348 0.044030897 -0.027490275 0.071342476 -0.038683534 0.021673191 0.03426793 -0.03895269
0.007773913 -0.048840553 -0.03173469 -0.012490288 0.030595727 0.037463583 0.060343303 0.036928218
-0.03476653 0.027091749 0.04852738 -0.058994394 0.053210054 -0.018093184 -0.0071004983 0.0058426713
0.04285908 -0.069445066 0.06557054 0.044911515 0.024622833 -0.036233507 -0.00802182 0.026873982
0.01430854 0.036724646 0.0449693 -0.052340493 -0.04126482 0.034189437 0.056397535 0.044063006
0.03470732 0.00042412838 0.0007798845 0.047656644 -0.03234523 0.026607657 0.018194845 -0.040526103
0.05078145 -0.043284778 -0.042691812 0.059596535 0.014127851 -0.04119553 0.018069075 -0.036321133
-0.04311638 0.0072817886 -0.010780161 -0.030927597 -0.033990152 -0.020394096 0.061275102 0.04760147
-0.0628212 -0.0061919615 0.0044080094 0.014992143 0.03339928 0.032309532 -0.02353009 -0.043201346
-0.019103032 -0.021215864 0.0533376 -0.029003117 -0.047912057 0.03606909 0.0055727176 -0.008342577
-0.015671339 0.008519343 0.034792125 0.035092905 -0.017146904 0.05642964 -0.07437117 0.030417575
0.071160935 0.068685554 -0.041922454 -0.068192415 -0.037006784 0.027598513 -0.009649787 0.007781341
0.0036069318 0.042533174 -0.048650075 -0.045402523 0.06339927 -0.024982888 0.012503408 -0.009181867
-0.06726676 0.053832147 -0.016453158 -0.03371084 -0.038018122 -0.06876689 0.063419096 -0.046035863
-0.07696895 0.029480012 0.03712352 -0.031096142 -0.060636595 -0.01831404 0.01258726 0.050260793
-0.036728162 0.03006399 0.01662589 0.02718249 0.033481345 0.055415783 0.0015180209 0.028451923
0.013662077 0.03534886 -0.02445336 -0.038483314 0.030993285 0.033293612 -0.008332598 0.034834955
-0.004966365 -0.053667236 0.04925993 0.03101695 -0.01740151 -0.013433325 0.049856994 -0.0704606
-0.01623847 0.022004671 0.041524675 0.0442914 0.00067661074 -0.015388246 -0.03860638 -0.0030002322

bias_ih_l0 f4 [256]
00000000: 3172 35bd 1e28 7ebd 027e 953c ab13 1bbb
00000010: 08fe 3a3d e12f 7c3c c43f 803c 8613 f43c
00000020: e3e1 1b3d c46b 823d 4480 7abd faaa 60bd
00000030: e2ce cf3c ef2c 713b 194b 0e3b dee8 4c3d
00000040: 2e66 443c 157a 13bd 6789 ac3c 8f39 f8bc
00000050: 5815 843c 76c8 b4bc 851c 323d 004e c13c
00000060: 72f6 2c3d 10f3 66bd a143 4d3d f318 cabb
00000070: 9967 ebbc ac3a 8dbd fb30 a2bb 632a b33b
00000080: f0e4 1fbd a279 df3b d242 0dbd 9b82 083d
00000090: ddd4 51bd 81f0 86bc f33e 353d 93d8 5fb9
000000a0: e320 5f3d 8c2b 843b 9f8d 2b3c a814 373d
000000b0: e0d4 57bd 66f0 3b3d 0276 113d 932d fe3c
000000c0: 29ab 4e3d cf63 f3ba 7c7a 493d ac2a 3fbc
000000d0: 7328 1d3d 9720 1c3d 6099 89bc 3266 553c
000000e0: 237f 21bb 74e6 a9bc 1702 11bd 90c9 4d3c
000000f0: 1bfb 83bd 959f 6dbd 62eb 273d 26a3 ee3b
00000100: 7914 8abd 949e 623c 6fe5 27bd 6bc7 2ebc
00000110: 0871 79bd 66ff 53bd bd4e 2f3d 826c 7abd
00000120: 3c16 533d 8c0c b7bc eb8f dbbc 7a22 2d3d
00000130: 7d60 b8bc 3030 313d 2caf 8cbc 8599 7bbd
00000140: e1d0 74bd 84fd 843c 3e90 88bd 3056 13bc
00000150: a66d 01bd 0d79 353d e115 f4bc 784e 6e3c
00000160: 5941 243d 64bd 9ebc 5d2b 273d 7d54 713d
00000170: ea20 99bc 3598 9e3c 7768 6e3d 6f7a 1fbd
00000180: 6af0 fb3a 6327 2cbd 89c5 c1bb 5b4a f33c
00000190: 5c61 103d bc5f 01bd 8033 58bd a19e 7b3d
000001a0: 7ebc 16bd 2e65 3ebd 406b 103d 806a 843d
000001b0: 5bdf 53bd becf 38bc 11eb b6bb 328d 743c
000001c0: ff08 14bd 202f e03c a95a c43c 0eeb 4b3c
000001d0: 5d95 403d 968c 713d 58f3 ddbb d41e 31bd
000001e0: 3eb8 153d 203d 363c bc4e 9ebc 66da 243d
000001f0: 76b1 803b 76f0 823d d52e 163d 6673 1a3d
00000200: b1c3 0c3d 7c12 83bd 7168 cbbc 2858 c83c
00000210: 34a2 84bc 5a3c 2abd 898c 103d 76d5 37bd
00000220: f8cc 693c aa06 ab3c d78f c73c c947 19bd
00000230: a085 0036 937d 073c 892d 45bd e69c dbbc
00000240: 98be fabb 04d5 c1ba 1d2e 9b3b fe7d 323d
00000250: ca08 1abd b69b 973b 35c0 643b 3fe2 1dbd
00000260: 304b d13c 6752 f1bb 9a2c de3c 0cb3 e7bc
00000270: 6246 e339 3ba7 08bd c7af c8bb e655 c6bc
00000280: 42c0 63bd c756 c13c e5d1 0dbc 6778 a2bc
00000290: 838f f4bc 055b 82bc f3ee 8dbc 1ebf c73b
000002a0: f1f2 303d 0e49 e43c 67c3 d43c 28a5 0cbd
000002b0: ab64 cebb 368a 26bd 4bf9 ddbc beb4 2cbd
000002c0: 8c56 44bd 45ee 2c3d 33b4 60bd 25ea 73bc
000002d0: 5a06 0cbd d487 52bd 85ff 783c 7b6e 0e3d
000002e0: 4070 febc e60f edbb 01f7 d23b ff31 993b
000002f0: 3d8e 4a3b d908 0a3d 057e 3dbd f921 f3bc
00000300: 95d9 e73c 5bd6 4dbd 9c40 603c 6b57 a2bc
00000310: cb14 58bd 9c78 21bd 5884 0ebd ba08 7339
00000320: 8ed0 743c b711 963c 189f 4d3c 977c 3abc
00000330: e40d d93c 0822 3c3d d13e 2b3d d551 943b
00000340: 5870 f0bc 1534 c3bb ad0e b73c 6b24 b3bc
00000350: 0a82 b1b9 8e0c b6bc b625 2fbc 7049 bcbc
00000360: 3f4a 3e3d ac9f 323d 77a4 903c e45f dcbc
00000370: 5fce fdbc 2959 1e3c 2b26 143c a12e 12bc
00000380: 62c2 0fbd 8e7d 07bd e8a1 de3c 6a3f 1bbd
00000390: 19cc 0ebd e005 36bb 6bb8 86bc 40d3 5cbd
000003a0: 8bc2 82bd 04a7 41bd eb0a 86bb 2f5c dcbc
000003b0: ebb6 b0bb d09b 513c 47f8 2abc 83df 47bd
000003c0: e4df 063c e52d 14bd 460e cc3c bbb1 9c3b
000003d0: 8708 393c 2199 3b3c 1a2c 87bc 13ac c7bb
000003e0: 233d 0e3a 36d9 153d df42 a13c c433 5dbc
000003f0: cc72 b3bb d4db e3bc e4a9 753c f65e 89bc
-0.044298355 -0.062049977 0.018248562 -0.0023662846 0.04565242 0.015392275 0.015655406 0.029794466
0.03805722 0.06368211 -0.06115748 -0.054850556 0.025367204 0.0036800464 0.0021712242 0.050026767
0.011987252 -0.0360051 0.021061612 -0.030300884 0.016123459 -0.022068243 0.04348423 0.023596764
0.042227216 -0.056384146 0.050113324 -0.006167525 -0.028735923 -0.068959564 -0.0049496866 0.0054676994
-0.03903669 0.0068199197 -0.034487553 0.03332768 -0.051228393 -0.016472103 0.044249486 -0.00021347617
0.054474723 0.0040335115 0.010470777 0.044697434 -0.052693248 0.04588356 0.03551293 0.03102759
0.0504562 -0.0018569174 0.049189076 -0.011667889 0.038368654 0.038117018 -0.016796768 0.013024854
-0.002464243 -0.020739771 -0.035402384 0.012560263 -0.06444379 -0.058013517 0.040995963 0.0072826324
-0.06742186 0.013831753 -0.04099029 -0.010667662 -0.06089881 -0.05175724 0.0427997 -0.061138637
0.051534876 -0.02234485 -0.026802024 0.042269208 -0.022506947 0.043258846 -0.017173372 -0.061425705
-0.059769515 0.016234167 -0.06668137 -0.008992717 -0.03159871 0.044304896 -0.029795589 0.014545076
0.040101383 -0.019377418 0.04081284 0.058918465 -0.018692452 0.019359687 0.058205094 -0.03893512
0.0019221429 -0.04202975 -0.0059134406 0.029698541 0.0352491 -0.03158544 -0.05278349 0.061430577
-0.036800854 -0.04648321 0.03525853 0.06465626 -0.05172668 -0.011279998 -0.0055822213 0.014926242
-0.03614139 0.027366221 0.023969011 0.012446178 0.047017444 0.058971964 -0.0067733936 -0.04324229
0.03655266 0.011122972 -0.019324653 0.040247343 0.003927405 0.063935205 0.036665756 0.03770771
0.034366313 -0.0640001 -0.024830075 0.024456099 -0.016190626 -0.041561462 0.035290275 -0.044881307
0.01427006 0.020877201 0.02436058 -0.037421975 1.9151266e-06 0.008269685 -0.04813913 -0.026808213
-0.007652115 -0.0014788215 0.0047357217 0.043577187 -0.03760604 0.0046267165 0.0034904603 -0.038545843
0.025548548 -0.0073645595 0.027120877 -0.028283618 0.00043349253 -0.03336261 -0.00612447 -0.024210881
-0.055603273 0.023600949 -0.008656 -0.019832803 -0.029853588 -0.015912542 -0.017325854 0.006095781
0.043200437 0.027866866 0.025972081 -0.034337193 -0.0062986217 -0.040659152 -0.027096411 -0.042164557
-0.0479341 0.04221942 -0.05485935 -0.014887367 -0.034185745 -0.051399067 0.015197639 0.03477333
-0.031059384 -0.0072345613 0.0064381366 0.0046751495 0.0030907535 0.033699844 -0.04626276 -0.029679285
0.028301993 -0.050253253 0.013687279 -0.019817075 -0.052754205 -0.039421663 -0.03479418 0.00023177537
0.014942301 0.018318994 0.012550138 -0.011382244 0.026495881 0.045930892 0.041807953 0.0045263567
-0.029350445 -0.0059571364 0.022345865 -0.021867951 -0.00033856957 -0.022222783 -0.010690143 -0.022984236
0.046457525 0.043609306 0.017656548 -0.026901193 -0.030982194 0.009664812 0.009042303 -0.00892225
-0.035097487 -0.033078723 0.027176812 -0.037902273 -0.03486261 -0.0027774498 -0.01644536 -0.0539124
-0.063847624 -0.04727842 -0.004090657 -0.026899425 -0.0053928993 0.012793496 -0.0104351705 -0.04879714
0.008232091 -0.03617658 0.02490915 0.0047819293 0.011293537 0.011450083 -0.016500521 -0.006093511
0.000542598 0.0365841 0.019685207 -0.013501111 -0.0054763313 -0.027814783 0.014994118 -0.016768914

bias_hh_l0 f4 [256]
00000000: 9cc2 05bd 03ec 0c3d a80a e9bc e643 8f3d
00000010: 05c4 e13b e875 9bbb 71df a7ba f3b6 2c3c
00000020: 5bed 603c 29bf 623d 0c09 183d 00f5 46bb
00000030: 7c7c 14bd e02c 5b3d 39ff 3cbd 3fa4 77bd
00000040: 35fe dbbb 27c9 f0bc 8141 0d3d 516e d9bc
00000050: 2604 843c c10d 9d3c 362b a4bc 29e9 1fbd
00000060: 8c3c 1d3d 1262 9b3c ddc7 1fbc def3 d4bc
00000070: b901 2c3c daa8 53bc fd5e 9c3c 25e6 583d
00000080: d2fd 10bd 7003 4ebd d415 71bc 006d 493d
00000090: 47c5 823d d193 e2bc 5d32 c43b cce6 0abd
000000a0: abde 173d 65e9 0d3d 64c6 c23c 4e87 92bc
000000b0: 3e2b 61bd 2aaa 45bd 98b0 883d 1f92 2fbc
000000c0: dc2f 333d 7047 9f3b f32a 5a3d 7769 6d3c
000000d0: c72d 1ebd b60a 053d e28a 543c 7005 143c
000000e0: 910b 61bc 9c99 06bc d5a9 213d 4f8d 4ebb
000000f0: b2ba 413d 9d80 52bd 0df8 63bd 19b5 acbc
00000100: f8fe c63c 85f1 2a3d 37a4 b3bc 27b9 ed3c
00000110: 14a3 173d cd1a 073c 64af 74bc ba3c 513d
00000120: 4906 713d 81b0 62bd 454b 403d d389 103c
00000130: af3e 1fbd 41b7 20bd 009c e4ba b0f5 043d
00000140: c4b7 383d 1466 3d3c 8020 033d 4721 4d3d
00000150: 3397 b33c 29a7 723d 99b3 f5bc 0943 1bbd
00000160: 457a 32bd 5f88 cf3c 4542 273c d043 16bd
00000170: e56c 4ebd ed82 46bd 6d5b 47bd ae4b 25bd
00000180: 3037 62bc d3c8 dabc c10c 0d3d a3a9 8b3c
00000190: e95d f93b c034 933c e717 473d f2eb 06bc
000001a0: 56d8 393d 2730 11bd ec14 803a e064 5f3d
000001b0: e42f a8bc 5f34 0fbd 8536 dabc 0ee6 73bc
000001c0: c5dd 48bd 973c 333d 3e0e 6cbd b042 853b
000001d0: a824 3dbd 9521 a6bc b9da bb3c 706c f7bc
000001e0: c209 1dbd e2b7 cdba c2a7 043c 08a0 4fbc
000001f0: 3570 f9bb ae25 793b 8a9a 00bd c74a f1bc
00000200: f8ea 2b3c 20ec 9f3c 3672 3b3b 62ea e239
00000210: 49ab 293c cc33 c0bc 45f7 c83c 5a44 8f3d
00000220: bb48 563d 444e 2e3c 84da 13bd 7afa 5ebd
00000230: ffbf a13c 6a63 6ebd c949 ea3b dfc7 2bbd
00000240: 479b 8439 f287 e23b 5efc cc3b e32c fa3b
00000250: e299 473d 67af b93a b81a 8f3a 353d 77bc
00000260: ced8 3cbd 1bc2 e23c 284f 0abd fa13 dc3c
00000270: 6244 333d a2ad 0fbd 3668 aabc 794e cabb
00000280: 0fc9 7db9 23f7 773d aab4 ef3c eefa 2bbc
00000290: 25b5 b0bb 758b 0bbd 59c8 17bd 6324 60bc
000002a0: 34c9 20bd 24f9 093c e370 5ebc 309c 26bd
000002b0: 52d7 413b 5b42 62bd 69db 58bd e101 1cbd
000002c0: 1f84 07bc c8d4 eb3c 7c55 0bbd 3bf7 d03c
000002d0: aad9 3bbd 6d90 293b 52e1 203a 7c87 933c
000002e0: a196 053d 8ac3 ea3c dffe 153d fdf7 ca3c
000002f0: 173f 39bc cd61 24bc 0d73 16bd 37da 7b3c
00000300: 24e6 ce3c 783d 0ebd 30ba f93b 2cc6 eebc
00000310: 4f79 02bd 7eec 373d a6b9 a9bc 55ab 14bd
00000320: fedc 8fbd 391d 33bb bd07 8fbd 43f5 803c
00000330: 6fbe 393c b478 9dbc b8c9 083d ff29 bfbc
00000340: 7791 15bd 4f75 dcbb f59f ce3c d4d9 1dbd
00000350: 78e9 41bd 89ea 42bd 9e26 1bbd 3778 10bd
00000360: 2ae1 dabc 2723 d4bc bab9 803c cbef 03bd
00000370: f850 9dbc dfe1 343c 78b4 9a3b 1202 fa3a
00000380: 24de 2e3c 422d 053d 55f0 6b3b 4044 c139
00000390: 9509 9bbc beb2 12bd 8c3e d63c 77c6 b43c
000003a0: 0e2e a33c 1231 fdbc d111 353d a500 7e3d
000003b0: dc7a 4abc ff37 ba3c f45b 9e3c e80b 743c
000003c0: aaec 17bc e5fb ad3a acda 223d 754a 6e3c
000003d0: 5321 96bd 3b12 6f3d f27a 0b3d 4470 683b
000003e0: 23eb d13c b55c 9e3c 8b7f 5d3d 0b1e 9dbc
000003f0: 04b2 9abb 68ba 883a b742 adbb ace1 80bc
-0.032656297 0.034404766 -0.028447464 0.069953725 0.0068898224 -0.00474428 -0.001280768 0.010541665
0.013728465 0.055358086 0.037118003 -0.0030358434 -0.03625153 0.053509593 -0.046141837 -0.06045937
-0.0067136534 -0.029392792 0.034486298 -0.02654186 0.01611526 0.019171597 -0.020040136 -0.03904072
0.03838782 0.018967662 -0.009752241 -0.025995191 0.010498458 -0.012918675 0.019088263 0.052953858
-0.035398312 -0.050296247 -0.014714677 0.049176216 0.06385284 -0.027658375 0.005987449 -0.03391151
0.037077587 0.03464641 0.02377624 -0.017886784 -0.05497288 -0.048257984 0.066743076 -0.01071599
0.043746814 0.004860811 0.053263616 0.014490477 -0.038617875 0.032480918 0.012972565 0.0090344995
-0.013735668 -0.008215334 0.039468605 -0.0031517332 0.047297187 -0.051392186 -0.05565648 -0.021082448
0.0242915 0.041734237 -0.02192889 0.029018952 0.037020758 0.008246136 -0.0149343945 0.051083304
0.058843885 -0.05534411 0.046946783 0.008821922 -0.03887814 -0.039237265 -0.0017441511 0.03246087
0.045097128 0.011559982 0.032013416 0.050080564 0.021922683 0.059241448 -0.029992865 -0.037905727
-0.043573637 0.025333581 0.010208671 -0.036685765 -0.05039682 -0.048464704 -0.048671175 -0.040355377
-0.013807103 -0.026707089 0.03443599 0.017048663 0.007610072 0.01796949 0.04860678 -0.008234965
0.04537233 -0.035446312 0.000977186 0.05453956 -0.020530649 -0.034962054 -0.026637325 -0.014886392
-0.04903962 0.043758955 -0.05763077 0.0040667877 -0.046177536 -0.020279685 0.022931444 -0.030203074
-0.038339384 -0.001569506 0.008096637 -0.012672432 -0.007612253 0.0038016844 -0.03139738 -0.029454602
0.010493033 0.019521773 0.002860201 0.00043280708 0.010355779 -0.023462199 0.02453197 0.06995459
0.052315455 0.010638777 -0.036097065 -0.05443809 0.019744871 -0.058200277 0.007149909 -0.04193866
0.00025292693 0.0069131786 0.0062556705 0.0076347454 0.04873074 0.0014166654 0.0010917997 -0.0150902765
-0.0461052 0.027680447 -0.033766896 0.026864994 0.043766387 -0.0350777 -0.020801645 -0.0061739055
-0.0002420286 0.060538422 0.029260952 -0.010496838 -0.005392688 -0.034068543 -0.0370563 -0.01368055
-0.039254382 0.008421216 -0.013576719 -0.040676296 0.0029577804 -0.055239063 -0.05294362 -0.03808773
-0.008271246 0.028787985 -0.03401707 0.025508514 -0.045861878 0.0025873438 0.0006137091 0.01800894
0.032614354 0.028657693 0.036620017 0.024776453 -0.011306546 -0.010033083 -0.036730815 0.015371851
0.025256224 -0.03472659 0.007621072 -0.02914723 -0.03185397 0.04490327 -0.020718407 -0.036296207
-0.07024573 -0.002733065 -0.06983898 0.01574195 0.011336907 -0.019222595 0.0333955 -0.023335455
-0.03651568 -0.0067278515 0.025222758 -0.038537815 -0.047341794 -0.04758695 -0.037878625 -0.035270896
-0.026718695 -0.025895668 0.015713561 -0.032211106 -0.019203648 0.01104018 0.0047212206 0.0019074103
0.01067308 0.032513864 0.0036001403 0.0003686268 -0.018925468 -0.035814993 0.026152872 0.022067292
0.019919422 -0.030907188 0.044206444 0.062012333 -0.0123583935 0.02273178 0.019330956 0.014895417
-0.009272734 0.0013273923 0.039759323 0.014544119 -0.07330575 0.058366995 0.034052797 0.0035467306
0.025624817 0.019331316 0.054076713 -0.019179365 -0.004720928 0.001043153 -0.005287494 -0.015732609
