model_amplitude.pt (torch, 561470 bytes, 15 tensors)

weight f4 [8, 8]
000000 05 9a 42 3e 18 31 b1 3e f3 01 2d bd 7c 4b 33 bd
       0.19004066 0.34607768 -0.042238187 -0.04377316
000010 fa e8 00 bd 34 07 c7 3d 8a 82 41 3e 40 79 3c 3e
       -0.031472184 0.09718171 0.18897453 0.18405628
000020 a0 ac 9f be a1 cf 18 3d 97 bf f6 bd 50 bf 6a bd
       -0.3118639 0.037307385 -0.120482616 -0.057311356
000030 43 f8 b5 be 33 c8 2d be 6f 55 13 be d3 47 c0 3d
       -0.3554097 -0.16970901 -0.14388059 0.093886994
000040 c5 cc 9d 3e 41 b1 f8 bd b7 c8 73 3e 3d 01 9b 3e
       0.3082029 -0.121431835 0.23807035 0.30274382
000050 81 cf 71 bd 43 13 52 be e8 b9 c1 bd 03 4a 14 3c
       -0.05903578 -0.2051516 -0.09459287 0.009050849
000060 68 de 9d be d1 25 ba 3e 99 ff 64 be 77 b2 70 3e
       -0.30833745 0.36356977 -0.22363128 0.23505579
000070 9a ce b9 3e 3e 4f b3 3e df b2 84 3e a1 16 97 bd
       0.36290437 0.35021394 0.25917718 -0.07377363
000080 f9 3b a8 3e 2a 85 05 3e 97 b6 14 3e dc 76 9d 3e
       0.32858256 0.1303908 0.14522777 0.30754745
000090 71 0a 95 3e cf 7c 77 3d d1 b8 b7 3e 6d 88 6d 3e
       0.2910953 0.06042176 0.3588319 0.23196574
0000a0 10 f5 13 be b4 29 3b 3e fc f0 b1 3e ad df c2 bd
       -0.14448953 0.18277627 0.3475417 -0.09515319
0000b0 34 b9 13 3e 86 55 08 3e 9b ab 7c bc 87 8f 82 be
       0.14426118 0.13313875 -0.015421773 -0.25500128
0000c0 9f 3b b7 3e 41 c1 d6 bd 64 b7 8e be 96 8e c8 bc
       0.35787675 -0.10486079 -0.2787429 -0.024482053
0000d0 bf a8 a7 3e ad 4c 31 3e af ad 9e 3e 57 81 2d be
       0.3274593 0.17314406 0.30991885 -0.1694387
0000e0 df cf 50 be 36 e5 73 3c 26 47 31 be fb 76 a5 3e
       -0.20391797 0.014886191 -0.17312297 0.32317337
0000f0 93 b7 ef bd 8f 33 c4 bd 16 0a 8d be b5 bb 77 be
       -0.11704936 -0.095801465 -0.27546757 -0.24192698

bias f4 [8]
000000 3b 5b ae 3d 64 20 20 3e 1f a7 a8 3b e7 fb a6 be
       0.085134946 0.15637356 0.0051468755 -0.3261406
000010 ff 8e 90 be 08 6b 0c bc 6f 10 c9 3d e4 c7 9b 3e
       -0.28234097 -0.00857044 0.098175876 0.30425942

weight_ih_l0 f4 [256, 8]
000000 41 63 76 bd f5 16 68 bb 65 e4 74 bc 56 09 2b bd
       -0.06015325 -0.0035414074 -0.014947032 -0.04175695
000010 ed 2b 1d bd a6 ec e9 3c cd 8b 20 3d a3 cf 7d 3d
       -0.03837197 0.028555226 0.039195824 0.061965596
000020 7b 2d df bc 25 7c 1d bd fe 60 f5 bc a4 69 85 bb
       -0.027243366 -0.03844847 -0.029953476 -0.0040714312
000030 8b ef 95 3d bb c1 6a bb 83 11 00 3d dd cf 4a bd
       0.0732108 -0.0035821039 0.0312667 -0.04951464
000040 3d a0 dd 3c 4c 02 0a bd 04 07 d7 bc 6b 43 b4 bc
       0.027053947 -0.033693597 -0.026248462 -0.022004804
000050 b8 f3 86 3d 72 b0 cd 3c 33 65 90 3d 9b 29 87 bd
       0.065894544 0.02510855 0.07050552 -0.065997325
000060 91 9a 50 3c e8 a9 0b 3d 01 e3 61 bd 57 f7 6f bd
       0.012732164 0.034097582 -0.05514813 -0.05858549
000070 21 6f 5d 3c a8 9b 45 3d 3d a0 fa bc ce 54 91 3d
       0.013515265 0.04824415 -0.030593986 0.07096253
000080 04 05 97 3c 32 31 96 bc cc bc c7 bc e9 ba 2a bd
       0.018435009 -0.018334005 -0.024382018 -0.041682158
000090 89 df 87 3d 1a 8f 46 bd 52 ee fb 3c 2d 60 4a bd
       0.06634433 -0.048476316 0.030753288 -0.049408127
0000a0 d4 d4 56 bd eb 68 be 3c da cb c4 3c 53 73 8e bd
       -0.052449062 0.023243388 0.024022985 -0.0695559
0000b0 71 d6 5d bd 7a b2 6f 3c ad 94 b2 b8 26 20 8d 3d
       -0.054159585 0.0146299545 -8.5153944e-05 0.068908975
0000c0 1c 85 b6 bc f3 21 ba 3c b2 ff 0c bb 47 6b 1d 3d
       -0.022280268 0.022721266 -0.002151471 0.038432386
0000d0 cf fb ff 3c a5 9e cf 3c ad bd 6d 3c 33 a5 38 bd
       0.031248001 0.025344202 0.014510554 -0.04507942
0000e0 65 b3 ad 3c e3 3f 70 bd 6b 63 5e 3b 4b 7a ad 3c
       0.021203706 -0.058654677 0.003393377 0.021176478
0000f0 4c 7e 05 3b cd 85 bc 3c 70 c0 4d 3d d9 ac ba bc
       0.0020369468 0.02301302 0.05023235 -0.022787498
000100 8f e9 68 bd 00 83 5b bc 1a 1d 97 3a 8b 0e 5b bd
       -0.056863364 -0.013397932 0.0011529059 -0.053480666
000110 0c 08 35 bd 44 6c 3c bd 11 06 ad 3b 87 7a 4e 3c
       -0.044197127 -0.046001688 0.005280264 0.012602455
000120 19 12 d5 bb 7c 79 94 bd b5 0e 1b 3c c9 85 36 3c
       -0.0065024015 -0.07249734 0.009463956 0.011140295
000130 8c 10 84 3d ce 04 d8 bc b6 29 07 3d c8 98 20 3d
       0.064484686 -0.026369479 0.032998763 0.039208204
000140 74 2f 80 bd 44 a7 2e ba 74 49 93 3b 6d 40 6c 3c
       -0.06259051 -0.0006662498 0.0044948403 0.014419657
000150 30 26 84 bd 4d 30 99 bd 73 fb 46 3d 6d 5e 5e bd
       -0.06452596 -0.07479916 0.048579644 -0.05428927
000160 3b d8 83 39 4b 6f 30 bc c0 75 1a bd df bc 80 3c
       0.0002514737 -0.010768722 -0.03770995 0.01571506
000170 9e f1 d3 bc 34 e0 40 bc de fa 9f 3c c3 ec 20 bd
       -0.025872048 -0.011772204 0.019528802 -0.039288294
000180 87 5f 49 3d 7f 7f 20 3d 72 35 8b bd d8 d6 5e bc
       0.049163368 0.03918409 -0.06797303 -0.013601027
000190 31 12 82 bd 64 8e 54 bd ac 31 c4 bc 6b 92 5d 3d
       -0.06351126 -0.051893607 -0.023949467 0.054094713
0001a0 c2 ee 8b 3d 30 22 ef bc 62 22 25 3d 35 2b 82 bc
       0.06832649 -0.029191107 0.040315993 -0.015889743
0001b0 a7 da 4c bb c9 a9 59 3d bd 77 5e 3d 87 bd ce 3c
       -0.0031258257 0.053140435 0.05431341 0.025236858
0001c0 8f aa ed 3c b5 df a7 3a 18 e3 87 3c fc 16 6f 3d
       0.029011993 0.0012807759 0.016587779 0.05837153
0001d0 35 23 38 3c ca 38 40 3d cd ea 20 bd 02 86 8d bc
       0.011238863 0.04692916 -0.039286423 -0.017275814
0001e0 0f 87 20 3d 60 5c 2d 3d 95 8e ff 3c 08 2f 53 bd
       0.039191302 0.042324424 0.031195918 -0.051558524
0001f0 45 70 41 3d bc ad 6b bc db 13 8b 3d 92 b4 1b bd
       0.04722621 -0.014384683 0.067908965 -0.038014002
000200 aa 55 93 bc 68 c6 0e 3d 97 c6 19 bd dc 34 f7 3c
       -0.017985184 0.034857184 -0.037542906 0.030176573
000210 13 48 72 3d 32 32 80 3c 80 d0 33 bb 89 4d 21 bd
       0.059150767 0.015648935 -0.0027437508 -0.039380584
000220 b9 a1 0b bc 3b 1c 20 bc 0f fd 31 bd a3 5f 68 bd
       -0.008522444 -0.009772356 -0.043454226 -0.05673183
000230 77 6b 58 bd b8 a0 b3 3c 6e 0a 41 bd ea f1 0d 3d
       -0.05283686 0.021927223 -0.047129087 0.034654535
000240 cb eb 64 bd df be 0c 3d e6 5e 51 3d 54 3b 50 bd
       -0.055888932 0.034361716 0.051115893 -0.05083783
000250 c5 2b 66 bd 74 73 07 bd 71 e6 52 3c 24 e0 41 bd
       -0.056194086 -0.03306909 0.012872324 -0.047332898
000260 31 f0 1c bc 68 11 48 bd 6c f8 cd 3c a9 49 95 bc
       -0.0095787505 -0.048844725 0.02514287 -0.0182236
000270 d6 34 ae bc f9 9b 5e bc d6 a0 95 bd 6b 5e 59 bd
       -0.021265429 -0.0135869915 -0.07306068 -0.05306856
000280 62 db 9f 3b 00 e7 d8 bc d8 66 b9 3b e8 cd 6e 3a
       0.0048784474 -0.026477337 0.005658012 0.0009109662
000290 dc d8 7e bd 21 7c a9 bd c2 27 a3 3c aa 09 73 3d
       -0.062218532 -0.08275629 0.019916419 0.05933539
0002a0 d0 1c 6f bc df f5 21 3d 2a e6 85 3d 1a cc 09 bd
       -0.014594272 0.03954112 0.06538041 -0.033641912
0002b0 bc 1c 26 bd 7f 96 6f 3d 66 07 c3 bc bf d8 95 3c
       -0.040554747 0.058493134 -0.023807239 0.01829183
0002c0 e7 d9 12 bd 83 31 70 3c 4d 7e 45 bd 1a eb 04 bd
       -0.03585234 0.014660242 -0.048216153 -0.032450773
0002d0 6e 4c ad 3c 96 5f 60 bc ae 35 1b bd 89 9f b0 bc
       0.021154609 -0.013694664 -0.03789299 -0.021560447
0002e0 10 fb 82 bd 23 5e 8c 3c 51 06 04 bd 26 ef 7c bd
       -0.063955426 0.017134732 -0.032232586 -0.061751507
0002f0 80 b1 88 3c d9 64 cf bc 44 02 05 3d ff 2b a4 bc
       0.016686201 -0.025316643 0.032472864 -0.02004051
000300 14 b7 31 3d 37 e9 25 3b f9 dd 2c 3c 25 9f 6d bc
       0.043387488 0.0025316009 0.010550969 -0.014503275
000310 7c 83 d6 ba 09 14 8f bb 41 3c ac 3c d1 b3 ac 3c
       -0.001636609 -0.004366402 0.021024825 0.021081837
000320 f4 5b 85 3a 45 f7 44 3d de 8f 9e bc 9e de 3e 3c
       0.0010174499 0.048087377 -0.01935571 0.011649756
000330 7b c8 80 bc b9 cc ad 3b ae 68 94 3c fa 1d 3f 3d
       -0.015720597 0.005303946 0.018116321 0.046659447
000340 e5 cc f8 bc df ab 6f bd ba f1 d0 bb 45 77 0a bd
       -0.030371139 -0.05851352 -0.0063764723 -0.03380515
000350 9c c1 ad bc 9c 44 2b bd 1a 10 b5 3b 96 4a 37 bd
       -0.021210484 -0.041813478 0.005525601 -0.044748865
000360 c9 ee 38 3c ae 6d 18 bd cd 62 46 bc f7 19 de 3c
       0.0112874 -0.037213974 -0.012108517 0.02711199
000370 80 dc 79 bd fd c0 8c bd ba 81 10 3d b3 f5 05 3d
       -0.0610013 -0.06872747 0.035279967 0.03270502
000380 d3 df 67 bc 3d 44 29 bd a4 6d fa bc 76 eb 0c 3d
       -0.014152485 -0.041324843 -0.030569859 0.03440424
000390 fc b5 0b 3d 30 eb 69 bd bf d0 07 bd e1 28 44 3c
       0.0341091 -0.057109058 -0.03315806 0.011972637
0003a0 e0 11 93 bd d3 d8 17 3d d6 f3 87 bb dc 6b 5c bd
       -0.07181144 0.037072014 -0.0041489406 -0.0538138
0003b0 7b 74 e2 bc db 52 82 3c b8 a8 8a bd 7a 78 87 3d
       -0.027643433 0.01590865 -0.06770462 0.06614776
0003c0 ff 30 77 3d 57 09 c0 3c 1b 69 56 3d 08 97 27 bd
       0.06034946 0.023441954 0.05234633 -0.04091552
0003d0 c0 81 5e 3d ae c5 97 ba fc 35 36 3d 4b bc 35 bd
       0.054322958 -0.0011579299 0.044485077 -0.044369023
0003e0 2d 30 1f bc 3c 83 49 3c 37 39 1d 3c 92 29 3d bc
       -0.009716076 0.012299355 0.009596161 -0.011545556
0003f0 65 f9 ea bc eb e8 68 3b c1 ff ba bc da 9c ec bc
       -0.028683374 0.003553922 -0.022827031 -0.028883386

weight_hh_l0 f4 [256, 256]
000000 cc 47 ee bc 75 d5 06 bd 06 95 8d bd dc 33 14 3d
       -0.02908697 -0.032918412 -0.069131896 0.03618227
000010 cf e3 10 bd 52 f3 47 bc c9 2e 35 3d dc d4 f0 bc
       -0.035373505 -0.012204008 0.04423407 -0.029398374
000020 dc f1 42 3d fb a6 1e bd dc 0a dd 3b 81 e3 ac 3c
       0.047593936 -0.038733464 0.0067456793 0.021104576
000030 51 c4 30 bd 9d fa 1f 3d a2 fa 6e 3d 89 06 95 bb
       -0.043155972 0.039057363 0.05834449 -0.004547898
000040 38 81 4a bc 7b ce 30 bc ab 09 10 bd c0 ef 33 bd
       -0.01235991 -0.010791416 -0.03516547 -0.043929815
000050 1a c9 9c bc 4b a5 ea bc 5d 36 74 bd 86 f2 83 bd
       -0.019138861 -0.028643271 -0.059622157 -0.06442742
000060 b5 cc 22 bb 8f 02 30 3d c5 cf 82 3d 56 e2 30 3d
       -0.0024841253 0.04297119 0.06387285 0.0431846
000070 38 ab 05 bd 96 38 eb bc 0d 3d 0d 3d 49 02 ec 3c
       -0.03263399 -0.028713506 0.03448205 0.028809683
000080 6a 67 57 3d c7 1d c2 3c 3c 55 29 37 0d d4 51 3d
       0.052588858 0.02369584 1.009303e-05 0.051227618
000090 34 62 fb bb 21 97 d9 bc 4d 83 18 bd 17 6a 0f 3d
       -0.007671619 -0.026561322 -0.037234593 0.035013285
0000a0 3f 0b 16 3d 29 b8 20 bd 06 a8 93 bc 48 bd 15 3d
       0.03663182 -0.03923813 -0.018024456 0.036557466
0000b0 bd 1c 68 3d 4a 37 3a 3d 3d d7 dd 3c c2 e2 25 bd
       0.056668032 0.045462884 0.027080173 -0.040499456
0000c0 e5 e3 c7 bc 4d 71 02 bd c7 a1 51 3d 3e 80 7a 3c
       -0.02440066 -0.031846333 0.051179674 0.015289364
0000d0 e0 98 63 3d 8f 70 4a bd 29 fa ea bc fd 93 3e bc
       0.055565715 -0.04942375 -0.028683739 -0.011631963
0000e0 81 01 1e bc 8c 81 3e 3d a8 ca 82 ba e9 ba 04 bd
       -0.009643913 0.046510264 -0.0009978609 -0.032404814
0000f0 88 a4 56 bd 39 02 2d bd 23 0c 01 bd 65 18 07 bd
       -0.052403003 -0.042238448 -0.031505715 -0.03298225
000100 2e 50 0a bd 53 0c 41 3d 70 c3 ef bc 86 f9 8c 3c
       -0.03376787 0.047130894 -0.029267997 0.017208826
000110 86 64 97 3c 0a 45 b0 bc 3b 8c 32 3c b6 a7 46 3c
       0.01848055 -0.021517295 0.010897691 0.012124946
000120 04 97 7e 3a 3e da 92 bd f7 00 11 bd 5c 26 3f bd
       0.0009711834 -0.07170533 -0.03540131 -0.04666744
000130 ee b0 08 bc e0 94 ac 3c 9b 22 d1 bb d9 eb 83 3c
       -0.008342965 0.021067083 -0.006382299 0.016103672
000140 42 82 5e 3d 9b d5 6e bd e0 ba 83 bc c2 39 45 3d
       0.054323442 -0.05830918 -0.01608032 0.048150785
000150 14 fc 15 3d 59 a6 12 3d eb 8d 07 3b 75 a6 41 bd
       0.036617354 0.035803173 0.0020683955 -0.047277886
000160 a1 3c 7b bb 4a 8d e6 3c 2f cf 35 bc a4 eb f9 3c
       -0.0038335698 0.028143544 -0.01109676 0.03050787
000170 25 c5 69 bd 07 b6 ef bc 53 f7 d5 3c a1 1a 9f bc
       -0.057072777 -0.029261602 0.02611891 -0.019421877
000180 dd a7 af 3b 0c 82 ce bc 76 d8 f8 bc 1c 7b c0 bc
       0.005360587 -0.025208496 -0.030376654 -0.023496203
000190 16 e0 88 3c 45 4f 2c 3d 7a 37 6c 3d 84 41 6e 3d
       0.016708415 0.042067785 0.057670094 0.05816795
0001a0 92 a1 6a 3d 58 44 54 3c ad ef 78 3d d8 fe 63 bd
       0.05728299 0.012955748 0.060775448 -0.05566296
0001b0 78 85 22 3d ae 80 18 3d 91 77 76 3c 51 77 24 bd
       0.039678067 0.037232094 0.015043155 -0.04015285
0001c0 96 f0 e8 3c 92 29 5f bb 50 5b 56 3c 05 b5 06 38
       0.028435033 -0.0034051877 0.013083294 3.2116677e-05
0001d0 99 9f 83 3b ea c5 19 bc fb c9 1a 3c 74 cf 26 bc
       0.0040168283 -0.009385565 0.00944757 -0.010181297
0001e0 e9 09 92 3c 46 04 59 bd 95 dd b7 bc a5 31 99 3c
       0.017826991 -0.05298259 -0.022444526 0.01870043
0001f0 88 98 b6 3c db 7f 07 bd 37 c0 1b 3b 90 c4 86 3c
       0.02228953 -0.033080917 0.0023765692 0.01645115
000200 2b b7 17 3d 0c ae 47 bd f9 8f 0c bd cd ff 27 bd
       0.037039917 -0.04874997 -0.03431699 -0.041015435
000210 a8 cc 0c 3d ac a1 c8 bc 30 64 f4 bb 3b f8 0f bd
       0.034374863 -0.024491154 -0.0074582323 -0.03514884
000220 f9 57 59 bb f9 22 c0 bc 8e cd 8a 3c 34 b4 2f 3c
       -0.0033164008 -0.023454176 0.01694372 0.010724116
000230 76 62 30 3c 10 59 65 3d 0e af 5a bd 40 e8 e9 bc
       0.010765662 0.05599314 -0.0533896 -0.028553128
000240 39 7f 01 3d b1 93 c8 3c 2c a3 4d bc 2e 80 17 bd
       0.03161547 0.024484487 -0.01255111 -0.036987476
000250 62 fe 90 3c c9 0b ae bc 65 5b bb 3c 5e e6 87 3c
       0.017699424 -0.021245854 0.022870729 0.01658934
000260 51 c3 1c 3d a8 77 80 3d 25 ef c0 bc 50 99 44 bd
       0.038272206 0.062728226 -0.023551533 -0.047997773
000270 1c 54 a8 3c 15 f2 25 bc 2f 62 3b bd 9b d4 d2 3c
       0.020547919 -0.010128518 -0.045747932 0.025736144
000280 97 c6 25 bd 26 ec a3 bc 38 89 bb 3c ec 4f 19 3d
       -0.040472593 -0.020010065 0.02289258 0.037429735
000290 4a 2e 5e 3d 2d a6 97 bc 33 25 7c bd 53 9c 07 bc
       0.054243363 -0.018511856 -0.061558913 -0.008277017
0002a0 cb 3c 6d 3c 77 29 52 bc 27 d9 29 bd 5c 4f 7a bc
       0.014479826 -0.012827269 -0.04146686 -0.01527771
0002b0 ed 83 80 3d b8 8d 05 bc f6 8e 55 bd 98 dd b4 bc
       0.06275163 -0.008151464 -0.05213829 -0.02207832
0002c0 e3 59 51 3d e5 18 ee 3c b7 06 0a 3d 5c 34 83 3c
       0.051111113 0.029064605 0.03369781 0.016016178
0002d0 b2 ee d5 3b e9 bb 3e bd 05 54 44 3d 39 59 4d bd
       0.006528699 -0.046565924 0.04793169 -0.050133917
0002e0 c6 9e 34 bd e6 4b 71 bc 9b 9b d7 b9 6b e5 05 bd
       -0.04409673 -0.014727568 -0.0004112393 -0.032689493
0002f0 4b 3f 08 3c b1 d7 5c bd 94 a3 12 bd 0b 46 ac 3c
       0.0083158715 -0.053916637 -0.03580053 0.021029493
000300 60 82 19 3d 97 58 50 bc 1b e1 1b 3d 4e 53 53 3d
       0.03747785 -0.012716434 0.038056474 0.051593117
000310 8c 54 56 3d f9 37 55 3d dd 1f 0d bb 87 d6 29 3d
       0.052326724 0.052055333 -0.0021533885 0.041464355
000320 69 da 78 bb ee 6b 7b bd 7e f1 c5 3c 90 da 5d bd
       -0.003797198 -0.061382227 0.024163004 -0.054163516
000330 fe a4 06 bd 91 fa af bc 00 a9 54 bd c1 7c 85 bc
       -0.032872193 -0.021481784 -0.051918983 -0.016294839
000340 7c 0c 6d bd ff 41 0b bd 1d cb 39 bd 7b 12 e6 bb
       -0.057873234 -0.033998486 -0.04535972 -0.007021246
000350 ef 82 ba bc bf 76 24 bd f1 9f 23 bd 35 c7 d6 bc
       -0.022767512 -0.040152308 -0.039947454 -0.026218036
000360 46 9c 53 3d 4f 79 46 3d 2d 77 49 bd 8d 3b 1e 3c
       0.051662706 0.048455533 -0.04918592 0.009657753
000370 a0 3d 4d 3d 22 60 f7 3c 5e fb 34 3d f7 1f 25 3d
       0.0501076 0.030197207 0.044185035 0.040313687
000380 ec 5f 87 bc 5e 6d 2c 3d 23 ef 4f bd 1c c0 21 3b
       -0.016525231 0.04209649 -0.050765168 0.0024681157
000390 90 c4 0a 3d 54 47 9b bc 17 99 1c 3d 47 df bd bc
       0.033878863 -0.01895491 0.038231935 -0.023177756
0003a0 72 63 17 bd 14 0c 6d bc 3e 49 6c 3d 55 23 6c 3d
       -0.036960073 -0.014468212 0.057687037 0.057650883
0003b0 4c 11 39 ba e5 7a 7e 3d e5 99 e8 bb 5e 2d c8 bc
       -0.00070597674 0.06212892 -0.007098424 -0.024435695
0003c0 c6 db 04 3d 68 c3 72 bd cb d8 4b 3d a4 79 db bc
       0.032436155 -0.059268385 0.049767297 -0.026791401
0003d0 ed ee 64 bd 7c f1 eb bc 96 ea 4a 3d 85 8b 7d 3d
       -0.05589192 -0.028801672 0.049540125 0.061900634
0003e0 b5 21 73 bc 5e e4 c2 bc 32 48 1d 3d 98 33 d2 bc
       -0.014839579 -0.023790535 0.03839893 -0.025659367
0003f0 f7 50 cc bc 3c fa 6a 3d 41 97 68 3d 34 f2 54 bd
       -0.02494095 0.05736755 0.056784872 -0.051988795

bias_ih_l0 f4 [256]
000000 7b 2b 07 3d b0 d6 34 bd 6a e8 56 3d 85 df c8 ba
       0.03300045 -0.044150054 0.05246774 -0.0015325403
000010 40 f5 ee 3c ae bb 51 bd d4 ff c2 3c 06 e6 73 bc
       0.029169679 -0.051204376 0.023803629 -0.014886385
000020 4f e6 11 bd ae 9f 13 bd 64 0b fc 3c e5 9d 49 3d
       -0.03562003 -0.036040954 0.03076715 0.049222846
000030 03 7b ab 3c 6c b5 32 3d 5a aa 3f bd 49 7f 50 3d
       0.02093268 0.04363005 -0.04679332 0.05090264
000040 74 26 4b 3d 22 23 26 3c 76 db ba 3a 6c 17 10 ba
       0.04959722 0.010140212 0.0014256078 -0.0005496654
000050 e2 f6 61 bd b9 44 27 39 a5 c1 39 3d 8f c3 37 3d
       -0.055167086 0.00015951962 0.04535069 0.044864234
000060 ff 21 30 bd c6 a9 d7 3b fe c7 b5 bc 21 79 a8 3c
       -0.04300117 0.006581518 -0.02219009 0.020565571
000070 23 c2 00 3d 32 d8 1c bd 42 f9 3c 3d 02 9c c4 bc
       0.031435143 -0.038292117 0.04613615 -0.024000172
000080 7c 1b 88 3a f2 8f fc bc 5b 7d 10 ba e8 92 3c bd
       0.0010384168 -0.030830357 -0.00055118435 -0.04603854
000090 5b bf 0f bd b2 b5 77 bc 6f 17 3e 3d f3 61 2b 3d
       -0.0350946 -0.015119003 0.046409067 0.04184146
0000a0 63 f3 ec bc c8 f4 e1 bc 42 6e ad ba 07 a5 0c bd
       -0.02892465 -0.027582541 -0.0013231712 -0.03433707
0000b0 a1 a2 8a bc 73 e2 3d bd a4 9b 36 bc b9 3f 43 bd
       -0.01692325 -0.046358537 -0.011145506 -0.047668193
0000c0 89 46 11 bc 6d 07 ca 3c e7 79 ff 3c f7 94 75 3c
       -0.008866915 0.024661744 0.031186057 0.014989129
0000d0 e0 17 ef bb 12 22 12 3d d0 cf 78 3d 30 b5 1d bd
       -0.0072965473 0.035677023 0.06074506 -0.038502872
0000e0 3b a4 c6 3c dc 3a 34 bc 8d 1c 3e bc 25 17 54 bd
       0.024248233 -0.011000361 -0.011603487 -0.051779885
0000f0 9b 93 fb 3c 72 0d db 3a ff fe 16 3d 26 69 80 bc
       0.030710032 0.0016712381 0.036864277 -0.015675139
000100 0e 98 63 3d f5 86 16 3d a3 af 24 3d 17 41 6b bb
       0.055564933 0.0367498 0.040206563 -0.003589695
000110 0c 01 12 bd 95 fb 0a bd c5 65 83 3c e5 25 23 bd
       -0.03564553 -0.033931334 0.016039738 -0.03983106
000120 08 f7 95 bc ad 6b 32 3d b6 34 d3 3b 67 76 6c 3d
       -0.01830627 0.04355972 0.0064454926 0.057730105
000130 96 dd 06 bd c3 bd a5 bc 1d 62 51 bd 80 9c df 3b
       -0.032926165 -0.020232087 -0.05111896 0.006824076
000140 62 e1 54 3d 07 d7 03 3c 89 6d 7a 3d c3 b1 ff 3c
       0.051972754 0.008046872 0.061139617 0.031212693
000150 cb 2a d9 bc f9 db 0c 3b 20 e2 58 3c ec a5 c8 bc
       -0.026509663 0.0021493419 0.013237506 -0.02449318
000160 e5 2a 51 3b 27 e7 5e 3d bd 7b 13 bd 77 0b 1b bd
       0.0031916436 0.054419663 -0.036006678 -0.03785273
000170 22 c5 ae 3c eb 67 0c bc 18 25 51 bc 34 f0 b5 bc
       0.021334235 -0.008569698 -0.0127651915 -0.022209264
000180 c7 bc 4d 3c 48 69 9c 3c fd 86 69 3c 08 8d 70 bd
       0.012557215 0.01909317 0.014253375 -0.058728248
000190 f6 1f c6 3c 1e 02 a6 bc e8 71 64 bd fc 0e b2 bc
       0.024185162 -0.020264681 -0.055772692 -0.02173566
0001a0 10 7e 03 bd eb ec 14 3c f2 fe 63 bc 7d 5c fe 3b
       -0.032102644 0.009089689 -0.013915764 0.0077624903
0001b0 22 8d ff bc c8 cf 40 3d bb 4e 17 3d 96 13 4e bd
       -0.031195227 0.047073156 0.036940318 -0.050311647
0001c0 aa 70 66 bd 16 ef 06 bd f7 b3 a2 3c 1f 23 7a 3a
       -0.05625979 -0.032942854 0.019861205 0.00095419766
0001d0 83 e3 d0 bc 2b a8 21 3d 09 56 a4 bc 81 f6 58 3d
       -0.025499111 0.039467018 -0.020060556 0.05296946
0001e0 89 e3 5f bd 4d b8 45 bd 91 11 2e bd 2b 82 2a 3d
       -0.054660354 -0.048271466 -0.04249722 0.041628044
0001f0 b2 44 09 bc 1d 6a 25 bc ea fe 00 3c 59 c4 03 3d
       -0.008378195 -0.0100961 0.007873276 0.032169674
000200 d5 09 4f bd 96 be 07 bd a6 d7 f6 bc 38 c6 2e 3b
       -0.050546486 -0.03314074 -0.030132126 0.002666844
000210 dc b0 ba 3a 54 c6 13 3b 39 9b 1d 3d 34 a4 24 bd
       0.0014243382 0.0022548633 0.03847811 -0.04019566
000220 e5 a1 09 bd 90 87 68 3d 8d b7 4a 3d 5b ee 01 bc
       -0.03360166 0.056769907 0.049491454 -0.0079303635
000230 9e b9 77 bd b9 d3 76 3d a3 7b 0c bd 9a 2b f6 bc
       -0.060479753 0.06026051 -0.034297597 -0.030050088
000240 43 dd a2 3c a0 bf 8e 3c 4a ea 68 3d 30 83 03 3d
       0.019880896 0.017425358 0.05686406 0.032107532
000250 12 16 b8 3b 81 1f 9a 3c 7a fa 38 3b 0f b0 5f 3d
       0.0056178654 0.01881385 0.0028225468 0.054611262
000260 1d 52 5d 3d c5 11 14 bd 7c d6 fa 3c 06 3d 0f 3c
       0.054033387 -0.03614976 0.030619852 0.008742576
000270 9a 40 5c bd 84 da 39 ba e8 e1 90 bc 6c ec 8d 3c
       -0.053772546 -0.00070897513 -0.017685845 0.017324649
000280 b7 33 e0 3c a4 97 23 bd ea 1e 78 bd 29 ee 2a 3d
       0.02736841 -0.039939538 -0.060576357 0.041731033
000290 b1 5a 57 bd d7 a3 3c bd bf fa aa 3c 1a 69 1b bd
       -0.052576724 -0.046054687 0.020871518 -0.03794203
0002a0 37 69 01 bd 62 4b b8 bc ae c4 cc bc 32 ea 98 b9
       -0.03159448 -0.022496883 -0.024996128 -0.00029166188
0002b0 ef c9 3d bc 3b af 5a bd 1c 9c 8b bc 03 b1 37 bd
       -0.011583789 -0.05338977 -0.017042212 -0.044846546
0002c0 77 89 03 bd 64 dc 3e 3c c3 52 64 3c 27 29 1e bd
       -0.03211352 0.011649225 0.013935748 -0.038613465
0002d0 bd c7 35 3d 9a c7 54 3d e2 c8 53 3d 2a fa ec 3c
       0.04437994 0.051948167 0.05170525 0.028927881
0002e0 49 ef 3c 3c 77 c0 ad 3a ac 2f 2c bc dd c4 6b bd
       0.011531659 0.0013256212 -0.010509413 -0.05756079
0002f0 a5 4e 56 bd 8b 72 1f 3c fe 6c 9a 3b 9b 34 53 bd
       -0.052321095 0.009731899 0.0047127 -0.05156384
000300 47 f7 bf bc 18 70 c2 bb f0 c2 09 3d 16 7b 38 bc
       -0.02343334 -0.005933773 0.033633173 -0.011259815
000310 df 97 4e bd 73 bd 68 3c e1 94 c9 bc c9 98 01 bd
       -0.050437804 0.014205324 -0.024607124 -0.031639848
000320 ac 78 41 3b 4a 5e fe bb 79 6f 73 bc 99 9e 0d bd
       0.002952139 -0.007762705 -0.01485812 -0.03457508
000330 a2 04 60 bd c5 34 c6 3a f2 0c 19 3c bc 62 c9 bc
       -0.05469192 0.0015121928 0.009341465 -0.024583213
000340 09 5a 49 3d cd 3e 6d bd f9 3c 4d bc ac 4b 58 bc
       0.04915813 -0.05792122 -0.012526744 -0.013201635
000350 c4 08 fd bb 5a 69 d8 3c 90 42 46 bd c2 0a 3f bc
       -0.007721992 0.026417423 -0.048403323 -0.01166028
000360 e2 8f 92 3c e9 99 fb bc 06 51 3d 3d 06 e1 25 3d
       0.017890874 -0.030713039 0.046219848 0.040497802
000370 f9 af 94 3c 0f 30 9e ba 6d 58 f6 bc e2 57 5a bd
       0.018150317 -0.0012068766 -0.030071462 -0.053306468
000380 c4 a4 f4 bc 82 04 6d 3d b2 b3 ef bc a4 7d fb 3c
       -0.029863723 0.057865627 -0.02926049 0.030699559
000390 c3 a4 79 bc 95 c9 67 3d 69 02 b5 3c 82 50 23 bd
       -0.015237036 0.056588728 0.022095876 -0.0398717
0003a0 8d 4f 5c 3d e6 27 84 3c 33 2d 06 bd 8a 99 09 bd
       0.053786803 0.016132306 -0.03275795 -0.033593692
0003b0 6e 76 8d 3b 55 4a 81 bd 49 eb dc 3b e5 73 4d bd
       0.0043170964 -0.06313006 0.0067419154 -0.050159354
0003c0 c6 c1 49 3d ff 51 56 3d 68 9e af 3c 73 00 6d bc
       0.049257062 0.05232429 0.021437839 -0.014465439
0003d0 b7 4c 6d bd 07 3f 34 b9 3e e5 3d 3d ad b5 36 3a
       -0.05793449 -0.00017189617 0.0463612 0.0006969821
0003e0 f5 bd b5 3c aa 9e 00 3c 38 d5 25 bd 98 85 4b 3d
       0.022185305 0.007850328 -0.040486544 0.04968795
0003f0 97 aa 2a bb 9e 02 5c bd 4e a5 a2 bc 81 35 25 3c
       -0.002604162 -0.053713433 -0.019854214 0.010083557

bias_hh_l0 f4 [256]
000000 17 f6 80 bd 92 2f 32 3d 0a da 43 bd 16 e1 1e 3c
       -0.06296938 0.043502398 -0.04781536 0.009697219
000010 69 01 9e 3c 03 2c 16 3d fa 68 4f bc 36 e8 25 bd
       0.019287782 0.036663067 -0.012659306 -0.040504657
000020 2a 37 47 3d e2 f7 da 3c 1e cb 9b bc 4e d0 6b 3d
       0.048636593 0.026729528 -0.019017752 0.0575717
000030 4f fa bd ba ff 4f 38 3d f7 f3 0c bc 36 6e 98 bb
       -0.0014494153 0.044998165 -0.008603088 -0.00465181
000040 3e 11 73 bd 79 29 6d 3d f9 a2 fa 3c 1f 4d d9 3c
       -0.059342615 0.05790088 0.03059529 0.026526032
000050 ef fc f3 bc 5f 0b d7 3c 2a ed 67 bc 6e bd 20 3d
       -0.029783694 0.02625054 -0.014155665 0.039243154
000060 48 8d 4a 3d 28 12 4e bd 90 4c 0d 3c f9 d6 fc 3b
       0.049451143 -0.050310284 0.008624211 0.0077160564
000070 46 c6 69 3d 41 90 15 bd 6c 63 5a 3d 94 ca 18 3d
       0.057073854 -0.036514524 0.053317472 0.03730257
000080 82 88 5b bd fc 12 fd 3b 34 53 36 bd 26 cb 16 bc
       -0.05359698 0.0077232104 -0.044512942 -0.009203708
000090 72 3e 0a bd 42 fd 7e 3d cb 86 5c 3d ef ed 36 3b
       -0.03375096 0.062253244 0.053839486 0.0027912816
0000a0 dd 7c 4e bd ea 0b e9 3c 27 7d 98 3b 04 a4 07 3d
       -0.050412048 0.028448064 0.004653591 0.033115402
0000b0 0f 12 09 bd 68 fb bc bc 37 a3 5c bd 38 11 30 bd
       -0.033464488 -0.023069099 -0.05386659 -0.04298517
0000c0 4a 27 6c 3d 39 a0 89 bc 14 a1 2b bd 4d d2 27 3d
       0.057654656 -0.016800033 -0.041901663 0.040972043
0000d0 b7 59 9d 3c 46 2f 1d bd a2 07 de 3c 8f d0 3b 3d
       0.019207818 -0.03837516 0.027103249 0.045853194
0000e0 10 e9 44 bd f6 9b 18 bc a9 49 2e 3d 9a f4 3c bd
       -0.04807383 -0.009314528 0.042550717 -0.046131708
0000f0 3d 1a a2 3a 3e 1b 36 bc 2d c0 38 bd df 7d 49 bc
       0.0012367439 -0.0111148935 -0.045105148 -0.012298076
000100 ea 9b 2d bc 36 bf 4d 3d ab 8b 56 bd 4f 93 18 3d
       -0.010596255 0.05023118 -0.05237929 0.03724986
000110 ec 81 30 bb 17 1a 91 bc 35 7b 7f 39 d8 d6 17 bd
       -0.0026932908 -0.017712636 0.00024364593 -0.037070125
000120 9c ba 73 bd 79 be bd bc d2 12 07 3c 99 65 0a bd
       -0.059504136 -0.023162114 0.008244233 -0.033788297
000130 03 da 3e 3d 61 36 14 bd 23 52 6b bd 00 ce 14 bd
       0.04659463 -0.036184672 -0.05745138 -0.03632927
000140 d5 5d 5b 3d 33 90 6a bd e3 a3 e7 bc ef bd 3b bd
       0.053556282 -0.057266425 -0.02827639 -0.04583543
000150 c4 5e c0 bc 3b eb 6d bd b1 10 be 3b a3 7a 52 bc
       -0.023482688 -0.05808566 0.0058003296 -0.012846622
000160 a2 57 64 bd c0 5d 3e 3d 07 90 19 3d d8 3f 20 3c
       -0.055747636 0.046476126 0.03749087 0.009780847
000170 12 ce 61 3d 22 6a 51 3d e4 5a 14 3d e3 f1 47 3d
       0.055128165 0.051126607 0.036219493 0.048814666
000180 1a db 76 bd 42 44 0d 3b 07 a0 77 bd 57 b4 50 bd
       -0.060267545 0.0021555577 -0.06045535 -0.050953235
000190 ee 60 17 bd 19 fd 82 3d c7 fa 3f 3c 42 21 02 bd
       -0.036957674 0.06395931 0.011717505 -0.03177
0001a0 f7 b2 c6 3c 94 01 62 3d 0c 31 70 bc f4 1e 28 bd
       0.024255259 0.055177286 -0.014660131 -0.041045144
0001b0 1e ef ec 3b db 14 43 3d f5 6e 09 bc 38 9c aa 3c
       0.0072306534 0.04762731 -0.008388271 0.020826444
0001c0 75 ea 74 bc 22 d2 4f 3c de eb 3b bc 73 3e 03 3c
       -0.014948477 0.012684377 -0.011469809 0.0080104945
0001d0 60 7e 41 bc d0 c1 07 3d 6e 05 8d 3c b1 39 30 bd
       -0.011809915 0.03314382 0.017214503 -0.04302377
0001e0 79 ec ba bc 00 2a e0 bc 9a e5 a7 3c bd c9 07 3d
       -0.022817837 -0.027363777 0.020495225 0.033151377
0001f0 1e de f7 3b d7 21 bd bc af eb 0b 3d 89 7e 62 bd
       0.00756432 -0.023087425 0.034160312 -0.055296455
000200 36 87 3d bd 17 c6 a7 bc 60 46 58 bc 36 c1 05 bd
       -0.046271525 -0.020480199 -0.013200372 -0.032654963
000210 09 b7 7a 3d e1 f8 12 3d 37 35 10 bb 48 c8 d8 bc
       0.061209712 0.03588188 -0.0022004375 -0.026462689
000220 1d 19 cb bc cf 26 31 bd b6 5d 2c bd a4 fd c4 3c
       -0.024792248 -0.0432499 -0.042081557 0.024046727
000230 f3 23 ba ba de 5b 86 bc 8d 45 b3 bc c2 6a 37 3d
       -0.0014201388 -0.016401228 -0.02188375 0.044779547
000240 d8 64 10 3d 9f 3d ae bc d2 b5 31 3d 64 a4 54 3c
       0.035252422 -0.021269618 0.043386288 0.012978647
000250 c5 4b 0d bd f4 8b 42 bc de 41 04 3c e5 9d f4 bc
       -0.034496088 -0.011874188 0.008072345 -0.029860446
000260 e5 81 5d 3d 18 8a 04 3c 4c eb 9a bc 24 78 94 3c
       0.054078955 0.008089565 -0.018911026 0.018123694
000270 6f 21 42 bd 97 90 a7 3c 38 87 d3 3c a0 dd 4b bd
       -0.047395166 0.020454688 0.025821313 -0.049771905
000280 a9 d2 d6 bc f4 97 5a bc 1b 7a 50 3d f7 6a 37 3d
       -0.026223497 -0.0133418925 0.0508977 0.044779744
000290 f3 7a 5d bd b1 d2 27 3d 32 c7 0f 3d 89 48 cd 3c
       -0.05407233 0.040972415 0.035102077 0.025059002
0002a0 42 05 1e 3d cb d7 50 bd 4c 26 71 3d 1f d2 9c bc
       0.038579233 -0.050987046 0.058874413 -0.019143162
0002b0 46 16 ac ba bb 8d 70 3d a5 03 3f bd b2 3c 55 bc
       -0.0013129197 0.058728915 -0.046634335 -0.013014959
0002c0 f0 1a 93 bc 0d 9b 03 bc 37 dc 14 bd 9b 84 60 b9
       -0.01795718 -0.008032572 -0.036342826 -0.00021411704
0002d0 8e 73 58 3c 60 68 6d bd c4 d9 58 3c 69 27 09 bd
       0.013211144 -0.057960868 0.013235513 -0.03348485
0002e0 b1 74 66 bc 49 07 28 bd 6b 6d 73 bd ea 52 32 3d
       -0.014065907 -0.041022573 -0.05943052 0.043536104
0002f0 ac 4a cd 3b a8 fe 33 3a ad 27 86 bb 75 6e 26 3d
       0.006265005 0.0006866255 -0.004094085 0.040632684
000300 55 b7 0b 3c a0 9c 3f 3d 60 70 42 3d 73 61 3c bd
       0.0085275965 0.04678023 0.04747045 -0.045991372
000310 56 c6 a7 bb 0d 31 15 bd 00 67 ca bc 55 7c 0d bd
       -0.005120079 -0.03642373 -0.024707317 -0.0345424
000320 6b 76 c1 bb 29 27 45 bd 53 cc 70 bd da c6 c7 bc
       -0.005904009 -0.04813305 -0.05878861 -0.024386812
000330 ec 14 31 bd 34 53 f0 bb eb 5a 2e bd 1b 6a f1 bc
       -0.043232843 -0.0073341373 -0.042567175 -0.02946954
000340 97 c7 30 bc 0b c6 2b 3d 10 04 0f bd d5 21 16 3d
       -0.010789773 0.041936915 -0.034915984 0.03665336
000350 6e 6e 86 3c b3 13 70 bd 25 dc 62 3d e9 8a 4a 3d
       0.016410079 -0.058612537 0.055385727 0.04944888
000360 40 0b 50 bd 90 0b 58 bd 4b 4c aa 3b 45 a0 f2 bc
       -0.05079198 -0.0527454 0.005197083 -0.029617438
000370 eb 72 56 bb 2a 3b 83 3b 9e 23 06 3d 95 37 44 3d
       -0.0032722305 0.0040048556 0.03274881 0.04790457
000380 ca 55 cb 3c 1e c0 e1 bc 78 c1 3a 3d c4 55 92 bc
       0.02482118 -0.027557429 0.045594662 -0.017863162
000390 b8 79 60 3c 18 02 6f 3c 72 f1 d4 3c ab 2e cf 39
       0.013700895 0.0145879015 0.025994036 0.00039516887
0003a0 2e 17 d9 3c 60 c9 40 bc d8 8d 2b bd 4f 36 49 bc
       0.02650031 -0.011766762 -0.04188332 -0.012281015
0003b0 4a 2d 60 3c 0f 74 17 3d 9f 94 12 3d 67 0a dc 3c
       0.013682673 0.036975916 0.035786267 0.026860429
0003c0 c7 8e da 3c ff 26 c1 bc ba 84 ea bb ce b5 58 3d
       0.02667941 -0.023578165 -0.0071569355 0.052907757
0003d0 d0 fe be bc 87 33 87 bc ff 82 4b bd b4 b5 4e bc
       -0.023314863 -0.016504062 -0.049685474 -0.012616564
0003e0 84 a3 ac bc b3 4d 44 3d 2b 33 fb bc e5 6f 54 bc
       -0.021074064 0.047925662 -0.030664047 -0.012966131
0003f0 da 25 45 bd bc 90 50 3d 4b 7c 05 3d e5 b7 5f 3d
       -0.0481318 0.05091928 0.032589238 0.054618735

weight f4 [1, 256]
000000 03 9e 92 3c 52 bc 9c bd 1a 04 9a 3b 71 3b 15 bc
       0.017897611 -0.07653107 0.004700196 -0.00910841
000010 48 85 84 38 71 25 2a 3d 0f 2b 34 bd 41 77 39 3d
       6.319076e-05 0.041539613 -0.043986376 0.045279745
000020 a0 50 33 3d 2a 1e 9d bc cc d0 7a 3c cd b8 2d bb
       0.043778062 -0.019179422 0.01530857 -0.0026507855
000030 15 5b 01 3d a7 ad 82 bd 1d dd b8 3b 54 53 4c bd
       0.031581003 -0.06380778 0.005641593 -0.049884155
000040 99 e8 d5 bb bf 20 80 3d b0 39 63 bb 1f 3d 19 3d
       -0.006527972 0.06256246 -0.0034671836 0.037411805
000050 19 aa 72 3d c8 82 6d bd ba e1 3d bc 64 f6 50 3d
       0.05924425 -0.05798605 -0.011589462 0.051016226
000060 ae 51 16 3d 95 17 b9 bb 51 d2 5e bd 9a c3 35 3d
       0.03669899 -0.005648563 -0.054399792 0.044375993
000070 c5 b1 96 ba da 9d 9a 3b e2 73 c9 3c a3 12 8b 3d
       -0.0011497071 0.0047185244 0.02459139 0.06790664
000080 14 cc 87 3c 1e 0e 7c bd 50 f6 64 3d 4e 44 d6 bc
       0.016576804 -0.0615369 0.055898964 -0.026155617
000090 ec 3a 81 bd 2f d3 aa bc dc c0 59 bc 90 3a 9a b9
       -0.063100666 -0.020852653 -0.01329061 -0.000294168
0000a0 9c 33 93 bd 24 18 83 3d a0 ab 14 3d 7c cf 9a bd
       -0.07187578 0.06401089 0.036296487 -0.07559106
0000b0 ff 42 93 3c b5 53 8a 3d c5 e6 d3 3c a0 ab 40 3c
       0.017976282 0.06754247 0.025866875 0.011759669
0000c0 0e eb c6 3c 3d 4b 33 bd e7 ce b5 3b dc ea f1 3b
       0.024282005 -0.043772925 0.0055483463 0.0073827337
0000d0 97 50 3e 3d db 1f 19 3d b1 14 47 bd ac fd 7c bb
       0.046463575 0.037383895 -0.048603717 -0.0038603349
0000e0 55 ae 73 3d 26 a9 0a bd 8e 6c c6 3c d5 9a 82 bc
       0.059492428 -0.03385272 0.024221685 -0.01594297
0000f0 3a b5 85 bc fd 82 0c 3d 74 85 38 bd 86 61 59 3d
       -0.016321767 0.034304608 -0.045049146 0.05307152
000100 70 0b 11 bd 2d c1 3c 3d a1 6e 3c bd b5 5b 6e bd
       -0.0354113 0.046082664 -0.04600394 -0.058192927
000110 ca f8 81 3d 75 5e f8 3c 98 fb 96 3c ed 2a a4 bb
       0.06346281 0.030318478 0.018430516 -0.00501
000120 45 85 33 3d 08 8e 12 3d 1c 3c 01 bd 71 21 fc bc
       0.043828268 0.035779983 -0.031551465 -0.030777665
000130 22 41 4b 3d 10 74 0f bb ae b7 32 bd 08 54 81 bd
       0.049622662 -0.0021889247 -0.0436322 -0.06314856
000140 3d 2a 43 3d bf a5 1d 3d 7e e3 a3 3c ee 88 7d 3d
       0.047647703 0.038488146 0.020005938 0.061898164
000150 1f 41 66 bd 14 ca 62 3b 4a a4 56 3d 3b ce 52 3d
       -0.056214448 0.0034605311 0.052402772 0.051466208
000160 25 2b 0f 3d d6 5b 68 bd 2b fa 89 bd 64 d0 06 bd
       0.034953255 -0.056728207 -0.06737169 -0.03291358
000170 55 48 96 3b ea 75 ba 3c c3 21 29 3d b9 dd d1 bc
       0.0045862594 0.022761304 0.041291963 -0.02561842
000180 75 36 9c 3d 97 84 a4 3c d7 38 6d bd 49 09 fb 3b
       0.07627574 0.020082755 -0.057915535 0.007661019
000190 31 a9 c4 3c 01 1c aa bc 6c 65 13 bd a8 99 cf bb
       0.024006458 -0.020765306 -0.035985395 -0.006335456
0001a0 ad be c6 3c ed 1d 75 3d d2 81 c9 3c 2a 66 fa 3c
       0.024260843 0.059842993 0.024598036 0.030566294
0001b0 18 8b ef 3c 57 a4 33 3c 65 d8 63 3d 19 06 58 bd
       0.02924113 0.010964475 0.05562629 -0.05274019
0001c0 fe ad 45 bd ed 4d 8b bc 6a fe a0 3c 63 61 8f 3c
       -0.048261635 -0.017004931 0.019652564 0.017502492
0001d0 5f 0d 4e bc 1a 7c 6b 3d 08 d7 79 3c dc a6 4c 3d
       -0.01257643 0.0574914 0.015249021 0.049963817
0001e0 80 0d 48 bd b5 b8 58 bd d5 23 5d 3d 14 81 5e 3d
       -0.048841 -0.052910525 0.05398925 0.054322317
0001f0 91 89 fa 3b 3d 7e 87 bd 68 18 90 3d 7f 2a 0d 3c
       0.0076457937 -0.06615875 0.07035905 0.008616089
000200 26 e1 47 bc 56 be 21 3d 6e 6f 71 bb 42 49 09 3c
       -0.012199676 0.03948816 -0.00368401 0.008379282
000210 55 17 2d 3d b1 d5 4d 3d 59 15 cf bc b8 81 1a 3d
       0.04225858 0.05025262 -0.025278734 0.037721366
000220 cf 13 29 3d 4f d7 30 3d 2e f8 02 bc 52 be 8f bd
       0.041278657 0.043174084 -0.007993741 -0.070187226
000230 12 81 30 3d 50 c7 35 3d 74 66 4b 3d 8a 50 45 3d
       0.04309184 0.044379532 0.049658254 0.04817251
000240 ed 60 58 3d 06 11 88 bd 04 a9 62 3c 49 84 43 bd
       0.05282681 -0.06643872 0.013834242 -0.04773358
000250 ce ee 17 3d 52 6f 09 bd 2e 92 08 bd cd d8 85 bd
       0.037092976 -0.03355343 -0.033342533 -0.06535492
000260 ea b7 1c 3c 0a cc 2e 3d 92 1c 82 bd a3 dc 96 3c
       0.009565333 0.042675056 -0.063531056 0.018415755
000270 3f cd 60 bd 48 91 66 bd 31 b0 8e 3c 64 79 4a 3d
       -0.054883238 -0.056290895 0.017417999 0.049432173
000280 b3 09 8a bb d9 d1 4d b8 af d6 1f 3c 1c 91 38 3d
       -0.004212582 -4.9071245e-05 0.009755774 0.045060262
000290 63 6b 53 3d 64 c7 f9 3c d2 1b 26 bd 15 d0 10 3d
       0.051616084 0.030490585 -0.040553875 0.035354692
0002a0 ad af 00 bd 85 65 c2 bc c5 7d a1 3c c6 97 92 3d
       -0.031417537 -0.023730049 0.019713292 0.07157855
0002b0 83 57 0f bd f1 46 cb bc 11 f1 36 bb 3b 47 c3 bc
       -0.034995567 -0.024814101 -0.0027914683 -0.023837676
0002c0 e0 65 39 3d 9a 58 e2 3c ad fc d4 3c 81 82 86 bd
       0.04526317 0.02763014 0.025999391 -0.065678604
0002d0 18 be ea bc 4d 5d 8a bd 9e 02 6e 3d 34 c1 08 bd
       -0.028655097 -0.06756077 0.058107965 -0.033387378
0002e0 8a 76 48 bd f5 81 cd 3c 8e 82 69 3d 23 87 0c bd
       -0.048941173 0.025086382 0.057009272 -0.034308564
0002f0 e1 23 23 bc 11 c0 3e bd 5a 1c 1a bb ca 6c 81 bb
       -0.009957285 -0.046569888 -0.0023515434 -0.0039497362
000300 47 9b c2 3b ed 45 0c bd f3 5e 8e bd ab 16 86 3d
       0.0059389207 -0.034246374 -0.06951704 0.06547292
000310 d3 34 8c 3c 59 d3 d6 3b ea 88 03 bd 8d 48 30 bd
       0.017115032 0.0065559563 -0.032112993 -0.04303794
000320 01 e0 0c bd a5 f0 68 3d 4c 5a 7e 3d fb 1e e2 3c
       -0.034393314 0.05687012 0.062097833 0.027602663
000330 15 82 0b 3c 3f c6 82 3d 58 7c 05 3c 50 46 2d 3d
       0.008514901 0.06385469 0.008147322 0.042303383
000340 a9 d2 50 bc 13 42 91 3d 1e d4 ab 3c be f1 35 3d
       -0.012745538 0.07092681 0.020975169 0.044419996
000350 65 3b 89 bd db 1b 89 bc 0c 49 06 bd 75 5e 4e 3d
       -0.06700782 -0.016736915 -0.032784507 0.05038305
000360 df de 94 3d c7 13 86 bc 9c 6a 4b 3d 22 63 79 3c
       0.07269072 -0.016366852 0.049662217 0.015221389
000370 87 55 df 3b 9b e1 49 3d 10 d6 ba bc 11 67 76 bc
       0.0068156156 0.04928742 -0.022807151 -0.015039221
000380 fd 14 6c bd 74 a0 31 bd a6 08 92 3c f5 0a 13 3d
       -0.057637203 -0.04336591 0.01782639 0.03589912
000390 81 a8 41 bc 12 4d 2f 3d 41 55 66 bd d1 db a5 3c
       -0.01181996 0.04279811 -0.05623365 0.020246418
0003a0 2d d9 77 bd d0 d4 3c 3d e3 e6 1b 3c 1d 8f 8d bd
       -0.06050985 0.04610139 0.009515497 -0.06912062
0003b0 3f 05 0d bd 97 a7 ae 3c 82 ce 3f 3c 7a e8 0c bd
       -0.03442883 0.021320147 0.01170695 -0.034401394
0003c0 5c 10 77 bd 3e 22 85 bd 85 28 21 bd 4e ea 7c bc
       -0.060318336 -0.06500672 -0.039345283 -0.015436722
0003d0 93 ff 86 3d 76 91 96 3d 5d dc 4f bd 0e 01 0a bc
       0.06591716 0.07351963 -0.050747264 -0.008423103
0003e0 66 08 2c 3d 52 ef 36 3d a7 e6 41 bd 3f 48 92 bd
       0.042000197 0.044661827 -0.047339108 -0.07142686
0003f0 09 2b 80 bd e3 66 e3 bc b1 36 9f 3d d7 04 7f 3b
       -0.06258208 -0.027759021 0.077741034 0.0038912797

weight f4 [8, 1]
000000 69 37 d6 3e f2 4f 54 3f 58 23 98 3e 76 15 79 3f
       0.4183915 0.82934487 0.29714465 0.9729837
000010 1b 3c fe be cb 5f fe 3e ee c6 0e bf e8 59 11 bf
       -0.49655232 0.4968246 -0.5577229 -0.5677781

bias f4 [8]
000000 46 d8 93 3e 36 22 8a be f2 15 63 be 29 82 4b 3f
       0.2887594 -0.26979226 -0.2217634 0.79495484
000010 70 05 5b 3f d6 c7 46 bf d3 1b 18 3e 47 90 15 bf
       0.8555517 -0.77648675 0.14854364 -0.58423275

weight_ih_l0 f4 [256, 8]
000000 52 8c 69 bd 44 b6 51 bd 77 eb 49 3b 52 02 80 bd
       -0.057018586 -0.051199213 0.0030810514 -0.062504426
000010 2b 1d 56 3d 35 4e f3 3c 9c c9 39 bd f4 3d c7 bc
       0.05227391 0.029700378 -0.045358285 -0.024321534
000020 ab e0 85 3b 58 a9 57 bd a7 b4 83 bd 07 30 5b bd
       0.0040856204 -0.052651733 -0.06430941 -0.0535126
000030 ff 68 e6 bc f0 6e 9d 3c f6 83 b9 bc 43 f0 0e bc
       -0.028126238 0.019217938 -0.022645932 -0.008724275
000040 eb 34 a8 3a 78 1d 7d 3d d5 19 aa 3c dc 6d 3a bd
       0.0012833154 0.06179568 0.02076427 -0.045514926
000050 2a 83 25 3b 8b 78 62 bb 34 8b 62 bd ad 7d 4f 3d
       0.0025255182 -0.0034556712 -0.055308536 0.050656963
000060 6a 11 3e bd 9a e4 12 bd a4 26 49 3c f7 a4 5d bd
       -0.046403326 -0.035862543 0.012277279 -0.0541124
000070 5b 4c 66 3d c7 22 c4 3c b9 f7 e5 3c 80 e4 1d bd
       0.056225162 0.023942364 0.028072225 -0.038547993
000080 f2 d6 42 3d de b9 c5 3c 1c 3d 3b 3c a4 8b c4 3c
       0.04756827 0.02413648 0.011428144 0.023992367
000090 aa 47 f2 bc 82 7d 52 3c 91 62 5b 3d ff ec ec bc
       -0.029575188 0.012847306 0.053560797 -0.028921602
0000a0 39 c7 ca 3c 58 60 99 bc d3 83 26 3d be 3d de 3c
       0.0247532 -0.018722698 0.04065306 0.02712905
0000b0 22 0e 1c bd c0 00 ed bc da cf a3 3b c0 aa b0 bb
       -0.038099416 -0.028931022 0.004999143 -0.0053914487
0000c0 34 35 00 3d ad ff ac 3c 58 57 1a 3d 60 62 16 bc
       0.03130074 0.02111801 0.037680954 -0.009178728
0000d0 8f 82 02 3d 52 cd 04 bd e9 cc 0f bd 5a cb 16 bd
       0.03186279 -0.03242237 -0.035107527 -0.036815025
0000e0 fd c0 7e 3d 29 64 36 3d 3c 7a b0 3c 44 99 16 bd
       0.062195767 0.044529114 0.02154266 -0.03676726
0000f0 31 d0 21 3d 3e 8e 0d 3d 3a 00 15 bd e5 e8 a5 3c
       0.039505187 0.03455948 -0.03637717 0.020252654
000100 03 e0 4e 3b 56 64 39 3d 8e bf 3a bd d4 cb 19 bc
       0.0031566627 0.045261703 -0.045592837 -0.009386975
000110 62 c3 89 3c 8b 09 19 bd 5a 6a d3 bc af 5b 4f 3d
       0.016816799 -0.037362617 -0.025807548 0.050624546
000120 d8 ca 23 bd 59 7f 8e bd 41 35 45 3d 97 b1 e1 bc
       -0.03998837 -0.069578834 0.04814649 -0.027550502
000130 48 c4 13 3d ae c0 d5 bc 64 ed 6b bc d6 7c 49 3d
       0.03607586 -0.026092853 -0.01439986 0.04919132
000140 d9 46 52 3d 40 d2 5a bb 3f 52 91 bb aa e3 58 b9
       0.051337097 -0.003338948 -0.0044348533 -0.00020684177
000150 56 4b 5b bd 34 29 21 3c 63 dd 97 bb 12 2d 75 bd
       -0.053538643 0.009836484 -0.0046345457 -0.059857436
000160 eb f5 03 bd ad 89 fd bc fc 81 e6 3c 43 21 7c 3d
       -0.032216948 -0.030949438 0.028138153 0.06155516
000170 84 1f 43 bd b5 84 cb 3c a4 a7 f4 3b 1f 43 3a 3d
       -0.047637478 0.024843553 0.0074662734 0.045474168
000180 4a 0d 61 3d ca 7d 4b 3d 01 53 31 bd cb 94 11 3d
       0.054944314 0.04968051 -0.04329205 0.03554229
000190 3e 34 06 bd 8b 06 37 3c 98 77 dc 3c 04 62 4f 3d
       -0.032764666 0.011170994 0.026912495 0.050630584
0001a0 1b 79 5c bd 89 e9 03 bd ac 25 39 bd d5 99 2e bd
       -0.053826433 -0.03220514 -0.045201942 -0.042627174
0001b0 d4 1a 16 3d e6 eb d6 3c 5e a9 72 3d 6e ec 60 bd
       0.03664668 0.026235532 0.059243552 -0.054912977
0001c0 ec fa 5e bd 47 13 58 3d d1 89 f1 bc 0f 12 8c bc
       -0.054438516 0.05275276 -0.029484661 -0.017098455
0001d0 a8 33 13 3d b4 7b 27 bd 71 a0 84 bd 7f ff f1 3c
       0.035937935 -0.040889457 -0.06475914 0.029540775
0001e0 ae 41 5c bc 82 54 52 3d 65 6d 3a bc 69 f1 98 bc
       -0.013443394 0.051350124 -0.011378621 -0.0186698
0001f0 b0 58 9c bb 19 e7 a8 bc 28 82 04 3a 3f da 6e bd
       -0.0047713146 -0.020618008 0.0005054795 -0.058313604
000200 87 01 d3 3c 9d 95 58 bd 08 d1 9a 3c 44 53 65 3d
       0.025757564 -0.052877057 0.018898502 0.05598761
000210 d9 93 dd 3c f2 e5 d1 3c 51 82 ad bc 79 1d 6d 3d
       0.027048038 0.025622342 -0.021180304 0.057889435
000220 c7 36 62 bd 2c 78 48 3d e1 0b d8 3c c0 cd 96 bc
       -0.05522802 0.04894273 0.026372852 -0.018408656
000230 86 ff 1b bc d8 b3 6b bd 0f c5 84 bc a9 56 17 3d
       -0.009521371 -0.05754456 -0.016207246 0.03694788
000240 6d 0d 9e 3c df b2 34 3c 70 22 ad bc 8d 68 1f 3d
       0.019293511 0.011028974 -0.021134585 0.038918067
000250 1b bf 68 bd 1a 2c 6c 3d 76 16 42 bd 16 c6 cd bb
       -0.056822877 0.057659246 -0.0473847 -0.006279717
000260 4b f4 79 bd bf 96 8e bd 67 42 87 3c 86 80 67 bb
       -0.06102399 -0.06962346 0.016511155 -0.0035324409
000270 b6 85 9d bc 51 2a a4 bc f2 d7 03 3d 15 ba 74 3d
       -0.019228797 -0.02003971 0.032188363 0.059747774
000280 69 d8 ec 3b 40 b3 dd 3c 08 a3 0c 3c 0f 0e 67 bc
       0.0072279465 0.027063012 0.008583792 -0.014102473
000290 ab fe 67 bd 67 5c a1 bc 41 f3 f2 bc 65 51 8a bc
       -0.056639355 -0.019697381 -0.029657008 -0.016884515
0002a0 01 51 ca bb 69 11 5d bd 6c 73 81 bd f0 96 02 3d
       -0.006174207 -0.05397168 -0.06320843 0.031882226
0002b0 59 93 02 bc 50 ff cc bc 88 57 80 3c 0a 04 88 bc
       -0.007969701 -0.025024086 0.015666738 -0.016603488
0002c0 c2 38 30 3c 8a 12 d1 bc 99 51 4b bd 08 86 14 3d
       0.01075572 -0.025521535 -0.049638364 0.036260635
0002d0 2a 9d 86 bb 2a cf b5 3c f4 4b 38 bd 36 e1 ae ba
       -0.004108091 0.02219351 -0.04499431 -0.0013342265
0002e0 82 9d 8d 3c 79 a9 54 bd 32 2c 42 bd e5 0e 26 bc
       0.01728702 -0.051919434 -0.04740543 -0.010135387
0002f0 3f 0d f1 3c a6 75 10 3d fb aa b6 3c 1c 97 31 3d
       0.029425262 0.03526845 0.022298327 0.043357
000300 9a 12 05 bd b2 2f 2c 3d 2a 57 90 3c 28 02 d2 bc
       -0.032488443 0.042037673 0.017619688 -0.025635794
000310 b4 fe bc bb e9 ee 4b 3d 77 bd 89 3d 7d 3a 30 bd
       -0.0057676677 0.04978839 0.06725591 -0.04302453
000320 41 33 66 bd 77 9c 19 3d 8e 58 45 3d 78 d7 61 bd
       -0.056201223 0.037502732 0.048180155 -0.055137128
000330 6c 8c 46 3d e1 fd 16 3c 35 53 2e 3d fe fa 2b bd
       0.04847376 0.009215803 0.04255982 -0.04198741
000340 69 a2 df bb 55 d3 05 bd e3 c7 26 bc 1f 86 35 3d
       -0.0068247807 -0.032672245 -0.010179493 0.04431736
000350 73 48 6e bd 85 d4 5b 3c ce 30 3b bd 44 dc 47 bd
       -0.05817456 0.013417368 -0.04570084 -0.048794046
000360 f9 e7 c0 bc 4d 24 40 3d d2 2f c6 bb cf 3c 05 3c
       -0.023548113 0.04690962 -0.006048181 0.008132174
000370 89 11 4a 3d f8 d0 02 3d e9 88 25 3d 9a 87 6d 3d
       0.04933313 0.03193757 0.04041377 0.057990648
000380 f7 c8 8f 3c 15 57 ec bc 06 4c 37 bd d4 cf 30 bd
       0.017551882 -0.028850118 -0.044750236 -0.04316695
000390 f5 a0 54 bd 4d c6 37 3d e8 ae 45 3c 2a bc 1f 3d
       -0.051911313 0.04486685 0.012065627 0.038997807
0003a0 ca cc b1 bc 0b a6 01 3d cd 66 63 bc f3 4d 7d 3c
       -0.021704096 0.03165249 -0.01387949 0.015460479
0003b0 78 ea b7 3c 6a 29 2d 3d ab 99 69 bd 78 02 c4 bc
       0.02245067 0.042275824 -0.057031315 -0.023926958
0003c0 bf 53 fc bb d6 cd eb 3c aa aa 8a bb 85 c1 57 bd
       -0.007700413 0.028784674 -0.0042317705 -0.05267479
0003d0 c6 a3 36 3d f3 c7 e8 bc 3c 1e 8e 3d 7d 8d bc bb
       0.04458978 -0.028415656 0.069393605 -0.0057541714
0003e0 f0 c8 cb bc d2 cf d6 3b 07 47 53 3c c8 b0 d2 bb
       -0.024876088 0.006555536 0.012895352 -0.0064297654
0003f0 56 e8 64 bd f7 1d cc 3c 70 7b d1 bb df 51 7d bd
       -0.055885635 0.024916632 -0.0063928887 -0.061845656
