model.pt (torch, 30098 bytes, 11 tensors)

weight f4 [256, 3]
0	0x3dab6026	0.08367948
1	0x3f2a1e2b	0.6645228
2	0x3eae9976	0.34101456
3	0x3ee45b5e	0.44600958
4	0x3e207a36	0.1567162
5	0x3f489c86	0.78363836
6	0xbd71966f	-0.058981355
7	0xbe220450	-0.15821958
8	0xbf0cdd4b	-0.55025166
9	0x3f1b9194	0.6076901
10	0x3ee8c3c4	0.45461857
11	0x3f4842ec	0.78227115
12	0x3deaaeca	0.114591196
13	0x3ec25144	0.37952626
14	0x3ef4240d	0.47683755
15	0xbc152581	-0.00910318
16	0xbe8f19f1	-0.2794948
17	0xbec225d2	-0.3791948
18	0xbddd74f3	-0.10813322
19	0x3f1f3669	0.621924
20	0x3f241b9e	0.6410464
21	0x3ed943dd	0.42434588
22	0xbed87544	-0.42276967
23	0xbed9d702	-0.4254685
24	0xbf1bf5e4	-0.60922074
25	0xbe816e0d	-0.25279275
26	0xbd0e3320	-0.034716725
27	0xbf453f75	-0.7704995
28	0xbe829d60	-0.25510693
29	0xbf038fd3	-0.51391333
30	0xbe8cf33e	-0.2752933
31	0xbe133c0b	-0.14378373
32	0xbe82fe03	-0.2558442
33	0x3e507423	0.20356803
34	0xbe6a40ef	-0.22876333
35	0x3f38e508	0.72224474
36	0xbe99b4c1	-0.30020717
37	0xbee9ce1f	-0.4566507
38	0xbd7da669	-0.06192628
39	0xbecd6ead	-0.401235
40	0x3f121c17	0.5707411
41	0x3ef35b5f	0.47530648
42	0xbe9d02e8	-0.3066628
43	0xbe4b3b43	-0.19846825
44	0xbf0ef410	-0.5584116
45	0x3eb767fc	0.3582152
46	0x3f131ffc	0.5747068
47	0x3dfde66a	0.123974636
48	0x3d7ca1bb	0.061677676
49	0x3ee00ff7	0.4376218
50	0x3d0f39d8	0.034967273
51	0xbec3e92e	-0.3826384
52	0xbe80feb1	-0.25194314
53	0xbe0f5d76	-0.14000496
54	0xbf47787b	-0.77918214
55	0xbec2070f	-0.3789601
56	0xbe34e9e4	-0.17667347
57	0xbd9d8549	-0.07691438
58	0x3ee076b8	0.43840575
59	0x3eca331a	0.39492112
60	0xbd6b9467	-0.057514574
61	0x3df72129	0.12066872
62	0xbf16708b	-0.58765477
63	0xbf4c506b	-0.7981021
64	0xbe0edc17	-0.13951145
65	0xbde66609	-0.112499304
66	0x3f10600c	0.56396556
67	0xbe24ede9	-0.1610638
68	0x3f1b8814	0.60754514
69	0xbefb2104	-0.49048626
70	0x3e8d15d2	0.2755571
71	0xbecc0d38	-0.39853835
72	0x3ec625c5	0.3870069
73	0x3ecec4a6	0.40384406
74	0x3f309911	0.6898356
75	0xbe6537ee	-0.22384617
76	0xbdc31346	-0.095251605
77	0xbefb14b8	-0.49039245
78	0x3d9acf92	0.07559122
79	0xbeea622f	-0.45778033
80	0xbed46a0e	-0.41487163
81	0xbf3f0c67	-0.746283
82	0xbf080e85	-0.53147155
83	0x3de601dc	0.112308234
84	0x3f2698a5	0.6507667
85	0x3efaf1ff	0.49012753
86	0x3f15840b	0.58404607
87	0xbf459cce	-0.7719239
88	0xbf078cf6	-0.52949464
89	0xbee7df08	-0.45287347
90	0xbe5175e6	-0.20455131
91	0xbf1cb3c4	-0.612118
92	0xbd9067b4	-0.0705103
93	0x3f19ae7b	0.6003186
94	0x3ea42775	0.32061353
95	0x3e4187cc	0.18899459
96	0x3eb9c0cb	0.36279902
97	0xbd8680cc	-0.06567535
98	0x3eca0594	0.3945738
99	0xbe458cc3	-0.19291978
100	0x3e83975f	0.25701424
101	0x3f28e287	0.65970653
102	0xbad60861	-0.0016329401
103	0xbebf8de8	-0.37412953
104	0xbe5cba6b	-0.21555488
105	0x3eed24cd	0.4631714
106	0xbe3e317a	-0.18573561
107	0x3ed82a2f	0.42219684
108	0xbcc0e452	-0.023546372
109	0xbe4bc749	-0.1990024
110	0x3f14e312	0.5815898
111	0xbf3de90f	-0.74183744
112	0xbc8d9f6d	-0.017287934
113	0xbe8effc3	-0.27929506
114	0xbf3fe79f	-0.749628
115	0xbe3be846	-0.18350324
116	0xbf07581a	-0.5286881
117	0x3ea37a7c	0.31929386
118	0x3e30881a	0.17239419
119	0x3f3c0563	0.7344572
120	0xbd2f903e	-0.04286217
121	0x3ed90f32	0.42394406
122	0x3e9bd563	0.3043624
123	0xbe9bd144	-0.30433095
124	0xbf2bd903	-0.6712801
125	0xbf3f68a0	-0.7476902
126	0x3e75c49b	0.2400078
127	0x3f2a7abf	0.66593546
128	0x3f3113de	0.6917094
129	0xbe94f71e	-0.29094785
130	0x3e95c3cb	0.2925094
131	0xbf0b5226	-0.54422224
132	0x3ee6bfb7	0.45068142
133	0x3e060aea	0.13090101
134	0x3ec95331	0.39321283
135	0xbedd483c	-0.43219173
136	0x3d2e6a8f	0.04258209
137	0xbe2d39ce	-0.16916582
138	0xbf1ea7d7	-0.61974853
139	0xbe310f09	-0.17290892
140	0xbeadfb54	-0.3398081
141	0xbea5c9d1	-0.32380536
142	0x3dffa255	0.12482134
143	0xbe8f394b	-0.279734
144	0xbde5ec73	-0.1122674
145	0x3f23a7df	0.63928026
146	0x3f4ce6ff	0.8003997
147	0xbf3d7d79	-0.7401958
148	0x3d6be511	0.0575915
149	0xbdbe8b77	-0.093039446
150	0xbdd994ac	-0.1062406
151	0x3e9be30a	0.30446655
152	0xbf0dbd33	-0.5536682
153	0x3e9ac6fc	0.30229938
154	0xbf29f3cc	-0.6638763
155	0xbef39a76	-0.47578782
156	0xbe56574d	-0.2093174
157	0xbeadd035	-0.33947912
158	0xbe41939b	-0.18903963
159	0x3e1bada9	0.15202965
160	0x3f0e1fb4	0.55517125
161	0x3ea8d468	0.32974553
162	0xbf39c39d	-0.7256411
163	0xbf19ec03	-0.6012575
164	0xbcf32b82	-0.029683832
165	0x3df75286	0.12076287
166	0xbdb6f661	-0.08933712
167	0xbf46c185	-0.7763904
168	0xbdf3201e	-0.1187136
169	0xbf155ecb	-0.5834777
170	0xbe378b56	-0.17924246
171	0xbf211255	-0.629186
172	0x3e4dfc53	0.20115785
173	0xbf35ac1b	-0.7096574
174	0x3ea2803c	0.3173846
175	0x3dc5bfbf	0.09655713
176	0x3f0b4507	0.544022
177	0xbe3b0d4c	-0.18266791
178	0xbd85c795	-0.06532208
179	0x3f248a59	0.642736
180	0xbf498618	-0.78720236
181	0xbe34123c	-0.17585081
182	0xbe49d62f	-0.19710611
183	0xbef1c644	-0.47221577
184	0xbe6ca70d	-0.231106
185	0xbf1fda68	-0.62442636
186	0xbf3d18fa	-0.73866236
187	0x3ed7fbde	0.42184347
188	0x3dcc7ef3	0.09985151
189	0xbe490e99	-0.19634475
190	0xbedc177d	-0.4298667
191	0xbee8a935	-0.45441595
192	0x3e3764d5	0.17909558
193	0xbef972f8	-0.48720527
194	0xbeac77f5	-0.3368527
195	0x3e20c7a1	0.15701152
196	0xbee482ad	-0.44630948
197	0xbea06f65	-0.31334987
198	0xbe6926fb	-0.22768776
199	0x3eb19567	0.34684297
200	0x3e30babc	0.17258734
201	0xbf124c1c	-0.57147384
202	0xbe22e8f0	-0.15909171
203	0x3e7f56a7	0.24935399
204	0xbe81768f	-0.25285766
205	0x3ecf03c4	0.4043256
206	0x3f087f12	0.53318894
207	0xbe7e6dda	-0.24846593
208	0x3dac9a0f	0.08427822
209	0x3eac1c6d	0.33615437
210	0x3f13275c	0.5748193
211	0x3f14eccd	0.5817383
212	0x3e167dfa	0.14696494
213	0xbe9d66c5	-0.3074247
214	0x3f05990e	0.5218667
215	0xbe1b845d	-0.15187211
216	0xbf3f5bd5	-0.747495
217	0xbeb96c1e	-0.362153
218	0xbf31b329	-0.69414
219	0xbd8db04c	-0.069183916
220	0xbf3a67d1	-0.7281466
221	0xbf08c76c	-0.53429294
222	0x3f2bbeb0	0.6708784
223	0x3f02194b	0.50819844
224	0x3dc43fa5	0.09582452
225	0x3f4f315e	0.80934703
226	0x3e3692e0	0.17829466
227	0x3f3533c4	0.70782113
228	0x3f1847fa	0.5948483
229	0x3e9401f7	0.2890775
230	0x3f088927	0.5333428
231	0x3eb2645b	0.3484219
232	0x3dd6d423	0.104896806
233	0x3e075d52	0.13219193
234	0xbe9a825f	-0.3017759
235	0x3cae1ac8	0.021253005
236	0xbedf74f7	-0.43643925
237	0x3e6c6d1d	0.23088498
238	0x3f131316	0.57451
239	0x3ec95263	0.3932067
240	0x3e4ac169	0.19800343
241	0xbe839c6c	-0.25705278
242	0xbd1114d8	-0.03542027
243	0x3e7a4728	0.24441206
244	0x3e119eb8	0.14220703
245	0xbe2ca681	-0.16860391
246	0xbedaab1a	-0.42708665
247	0xbf253c8e	-0.64545524
248	0xbe87b010	-0.26501513
249	0xbeffd1f2	-0.49964863
250	0x3ea66ea1	0.32506278
251	0xbee74d80	-0.45176315
252	0xbf42cbec	-0.7609241
253	0xbeefd0ec	-0.46839082
254	0xbf16ad37	-0.58858055
255	0xbc91b1c0	-0.017784953

bias f4 [256]
0	0x3c831955	0.01600329
1	0xbe7e728f	-0.24848388
2	0x3e4d3c17	0.20042454
3	0xbec38c3a	-0.38192922
4	0x3dc914cb	0.09818419
5	0xbf08809a	-0.5332123
6	0x3f0322c5	0.5122493
7	0x3c5d03cf	0.013489678
8	0x3ee7c8e5	0.45270458
9	0x3e17d488	0.14827168
10	0x3e9146ce	0.28374332
11	0x3d42eb74	0.047587827
12	0x3eb1c5aa	0.34721118
13	0x3ea620de	0.3244695
14	0xbf0b6d82	-0.5446397
15	0xbea903a2	-0.33010584
16	0x3dd87a3e	0.10570191
17	0xbe8bffd7	-0.27343628
18	0xbe52be02	-0.20580295
19	0x3ee31603	0.4435273
20	0xbed09ada	-0.40743142
21	0xbefcff3a	-0.49413472
22	0xbdad4842	-0.08461048
23	0xbf0fceca	-0.5617491
24	0x3cf2882f	0.029605953
25	0xbde26e09	-0.11056144
26	0xbd57eab7	-0.052714076
27	0xbdf6cd2a	-0.12050851
28	0x3e959411	0.29214528
29	0xbdce0cde	-0.10061048
30	0x3e3bbda0	0.18334055
31	0xbe8fccfc	-0.28086078
32	0x3eea1d59	0.45725515
33	0x3e9daec9	0.30797413
34	0x3e06d1fa	0.13166037
35	0xbe793ceb	-0.24339645
36	0xbe5e3c69	-0.21702732
37	0x3de0f9c5	0.1098514
38	0xbd724719	-0.059149835
39	0x3ed7c237	0.42140362
40	0xbeaef19e	-0.34168714
41	0xbdafa29e	-0.08575939
42	0x3ecf3aab	0.40474448
43	0x3ef83d2e	0.48484176
44	0xbe1483cb	-0.145034
45	0x3aeada8e	0.0017917918
46	0x3e96f02e	0.29480118
47	0x3efbbf8c	0.49169576
48	0xbe154a55	-0.14579137
49	0xbeded54c	-0.43522108
50	0xbec0e3a3	-0.37673673
51	0xbeaad0c6	-0.33362406
52	0xbe88c55c	-0.26713073
53	0xbea1f1e4	-0.3162986
54	0xbe22f57e	-0.1591396
55	0xbe6f1436	-0.23347554
56	0xbd21f0fd	-0.039536465
57	0xbe61fa36	-0.22068104
58	0xbd092753	-0.033484768
59	0x3eca395c	0.39496887
60	0xbee1a68f	-0.44072387
61	0x3db03dc0	0.08605528
62	0xbedde635	-0.43339697
63	0x3ebdee55	0.37095895
64	0xbe2bbcb9	-0.1677121
65	0x3e5257eb	0.2054135
66	0x3ef84526	0.48490256
67	0xbef55cf9	-0.47922495
68	0xbe8d4682	-0.27592856
69	0xbe256b54	-0.16154224
70	0x3bacb375	0.0052704164
71	0xbf01b221	-0.5066243
72	0xbecc9ffc	-0.39965808
73	0x3f0194c3	0.5061762
74	0x3d10bc33	0.03533573
75	0x3dd0a40c	0.101875395
76	0x3e9ab197	0.30213615
77	0x3f0342a7	0.5127358
78	0xbd0b72ef	-0.034045156
79	0xbe016d46	-0.12639341
80	0x3edc6433	0.43045196
81	0x3ea56af1	0.32308152
82	0x3ee8a32c	0.4543699
83	0xbeaa33ee	-0.33242744
84	0x3ea3bb49	0.31978825
85	0x3f0b2dec	0.54366946
86	0xbec405ba	-0.3828562
87	0xbe31c718	-0.17361104
88	0xbe06d5ab	-0.13167445
89	0xbe947ad9	-0.28999975
90	0xbefe2ccb	-0.4964355
91	0xbe0ccba9	-0.13749565
92	0x3ebf14bd	0.3732051
93	0x3d907852	0.07054199
94	0x3db33f6b	0.087523304
95	0xbc2620b5	-0.010139634
96	0x3e0e95fd	0.13924403
97	0xbe95e9be	-0.29279894
98	0x3ed466f1	0.41484788
99	0xbe93105d	-0.28723422
100	0x3ebdb067	0.37048647
101	0xbe7a186a	-0.24423376
102	0xbdbf1e15	-0.093319096
103	0x3edce66b	0.43144545
104	0xbda72dca	-0.081630304
105	0x3d89b356	0.06723659
106	0xbe90a746	-0.2825262
107	0x3e8e72bc	0.2782191
108	0xbe96f016	-0.29480046
109	0xbdff49ed	-0.12465272
110	0x3d32e87d	0.04367875
111	0xbec3f6a6	-0.38274115
112	0xbe42310d	-0.18964024
113	0x3ed7925d	0.42103854
114	0x3e1ec4b9	0.15504731
115	0xbe3ee617	-0.1864246
116	0x3e999d1c	0.30002677
117	0xbb4fe1ae	-0.003172021
118	0xbef84eee	-0.4849772
119	0xbe0a4e97	-0.13506542
120	0xbd3c2825	-0.045936722
121	0xbed37f1e	-0.4130792
122	0x3de2a7f2	0.11067189
123	0xbec43ee7	-0.3832924
124	0x3ef2a716	0.473931
125	0xbcac95c9	-0.021067517
126	0xbe51f7f4	-0.20504743
127	0xbe846e73	-0.25865516
128	0xbed0fe36	-0.40818948
129	0xbbd1b45c	-0.0063996743
130	0x3d8b5d93	0.06804957
131	0x3dfe8e80	0.124295235
132	0xbc28dcee	-0.01030658
133	0xbecc0ef4	-0.39855158
134	0x3dddf8cf	0.10838472
135	0x3ec1160f	0.37712142
136	0x3eb53e9d	0.35399333
137	0xbe8d3a3f	-0.275835
138	0xbeac1ed5	-0.33617273
139	0xbe33ba9b	-0.17551653
140	0x3ec7ca87	0.39021704
141	0x3f0689e2	0.5255414
142	0x3ec5059e	0.38480848
143	0x3e6c31dc	0.23065895
144	0xbedf11e9	-0.43568352
145	0x3ede999b	0.43476567
146	0xbd990349	-0.0747133
147	0xbeb38e58	-0.35069537
148	0xbd7323be	-0.05936026
149	0x3d7b5fc7	0.061370637
150	0xbed7bc70	-0.42135954
151	0x3eb07e75	0.3447148
152	0xbefb4eba	-0.490835
153	0x3ee9948d	0.45621148
154	0xbf166401	-0.58746344
155	0xbee10e6a	-0.4395631
156	0xbd1e060b	-0.03857998
157	0x3f0243c3	0.50884646
158	0xbec94960	-0.39313793
159	0x3d494051	0.049133603
160	0x3bb90992	0.005646893
161	0xbecee3cc	-0.4040817
162	0x3c78a66b	0.015176396
163	0xbe67a989	-0.22623266
164	0x3ef3350c	0.4750141
165	0x3f0f9e5d	0.5610102
166	0x3e5e4d70	0.21709228
167	0xbdd3091f	-0.10304474
168	0xbefafc28	-0.49020505
169	0xbe8e069a	-0.27739412
170	0xbd96cd53	-0.07363381
171	0xbd4c10ee	-0.049820833
172	0xbe4af66c	-0.19820565
173	0xbdca5615	-0.098797
174	0x3e982e9f	0.2972307
175	0x3d8d67c5	0.06904558
176	0x3dfc01f8	0.12305063
177	0x3e747a6d	0.23874827
178	0x3e97a408	0.29617333
179	0x3edb02c6	0.42775553
180	0xbede1ac7	-0.43379804
181	0xbf06f2bb	-0.5271413
182	0x3ebecb60	0.37264538
183	0x3e8aec6c	0.271335
184	0xbe8faa0a	-0.28059417
185	0x3d059f9b	0.032622915
186	0x3e4c85c4	0.19972903
187	0xbed3580f	-0.4127812
188	0x3ef6b5b8	0.48185515
189	0x3d196252	0.03744728
190	0x3ed2d253	0.4117609
191	0x3e799164	0.24371868
192	0x3d55ab06	0.052165054
193	0xbe3c6193	-0.18396597
194	0x3e8c0027	0.27343866
195	0x3ed742fd	0.42043296
196	0x3efdbaa4	0.49556458
197	0x3f0b3639	0.5437961
198	0xbeb8888e	-0.36041683
199	0xbe0e2c2d	-0.13884039
200	0xbe1e151a	-0.15437737
201	0x3d818919	0.063249774
202	0xbe903cc9	-0.28171375
203	0x3ea119a0	0.31464863
204	0xbe789c98	-0.24278486
205	0xbe97aa53	-0.29622135
206	0xbec50fe9	-0.384887
207	0xbbf644df	-0.0075155343
208	0x3ed43df1	0.41453508
209	0x3e84b177	0.25916645
210	0x3ef1242d	0.47097912
211	0x3ef58487	0.47952673
212	0x3ec0df00	0.37670135
213	0xbee934f8	-0.45548224
214	0xbe358beb	-0.17729156
215	0xbf11eeda	-0.57005084
216	0xbe156fa5	-0.1459337
217	0x3eb22008	0.34790063
218	0x3ef8a8f4	0.485664
219	0xbee89237	-0.45424053
220	0xbbd0511d	-0.0063573257
221	0xbe6a1caf	-0.22862504
222	0xbed8681b	-0.42266926
223	0x3f06ffb7	0.5273394
224	0xbf0c7c2a	-0.5487696
225	0x3efeedff	0.49790952
226	0x3ebd7516	0.37003392
227	0x3e6fc467	0.23414765
228	0xbf020ad0	-0.5079775
229	0xbed28a86	-0.4112131
230	0xbd9b0cff	-0.07570838
231	0xbc881d9f	-0.016615687
232	0xbeb34513	-0.35013637
233	0x3eed92ee	0.4640116
234	0xbefeed9a	-0.4979065
235	0x3edeb5b8	0.43498015
236	0xbe586ab2	-0.21134451
237	0x3eea590a	0.45771056
238	0xbdf50e36	-0.11965601
239	0xbefe424b	-0.49659953
240	0x3e642557	0.22279869
241	0x3f059584	0.5218127
242	0x3ebb77b4	0.36614764
243	0x3dbe70b0	0.09298837
244	0x3f0c62fa	0.54838526
245	0xbefba94c	-0.491526
246	0x3ed9d52c	0.4254545
247	0xbdf81325	-0.121130265
248	0x3e2141a0	0.1574769
249	0x3da6037e	0.08106135
250	0x3e011a25	0.1260763
251	0x3e221b6a	0.1583077
252	0xbec43ac5	-0.38326088
253	0x3e6eeb7c	0.23332018
254	0x3ed80e06	0.421982
255	0x3da9abe6	0.0828474

weight f4 [1, 256]
0	0xbe67b917	-0.226292
1	0xbe0d760e	-0.13814566
2	0x3de969f2	0.113971606
3	0xbe144fbc	-0.14483541
4	0xbe0c317f	-0.13690756
5	0x3d1ab1bc	0.037767157
6	0xbdbe5df8	-0.09295267
7	0x3d89ccda	0.067285255
8	0x3dce5d21	0.10076357
9	0x3e28c741	0.1648226
10	0x3da7ac8f	0.0818721
11	0xbe3ef873	-0.18649463
12	0x3ccd49e9	0.025059657
13	0xbd2663be	-0.040622465
14	0x3c8f0e29	0.017462807
15	0xbdad0099	-0.084473796
16	0xbe072156	-0.1319631
17	0x3df772d7	0.12082451
18	0x3e34479e	0.17605445
19	0xbdd95b9e	-0.10613178
20	0x3d26f059	0.040756557
21	0x3dfe6d8c	0.12423238
22	0xbe2c99bc	-0.1685552
23	0x3d91db49	0.071219034
24	0xbe397df8	-0.1811446
25	0x3df8eb89	0.121543
26	0x3dc918cc	0.09819183
27	0x3e1dce76	0.1541079
28	0xbe4526ef	-0.19253133
29	0x3e218a69	0.15775456
30	0x3d9ac40b	0.075569235
31	0xbe0c31bf	-0.13690852
32	0xbcd6ea3f	-0.026234744
33	0xbdd6f845	-0.104965724
34	0x3d4edd10	0.05050379
35	0xbd5236d7	-0.05132183
36	0xbd21c0de	-0.039490573
37	0x3e27ae4a	0.1637508
38	0x3e438cd5	0.19096692
39	0xbe041532	-0.1289871
40	0xbcfe471b	-0.031039765
41	0x3e3e4dde	0.18584391
42	0xbdca701e	-0.09884666
43	0x3c5aafef	0.01334761
44	0xbdd2de8e	-0.10296355
45	0x3e683660	0.22676992
46	0x3ded7153	0.115938805
47	0x3ce268a3	0.027637785
48	0xbe0f90a0	-0.14020014
49	0x3dbdf11a	0.09274502
50	0x3d6fc967	0.05854168
51	0x3e0311e1	0.12799789
52	0x3cd737a6	0.026271652
53	0xbd8615d9	-0.06547136
54	0x3e0c0c4f	0.1367657
55	0x3de34274	0.11096659
56	0x3dc1b080	0.09457493
57	0x3e3c2c1e	0.18376204
58	0xbe3ea884	-0.18618971
59	0xbd1322a5	-0.03592171
60	0x3e093276	0.13398156
61	0x3e4d47ff	0.20046996
62	0x3d2e1ce6	0.04250803
63	0x3ddba278	0.10724348
64	0x3d90e917	0.07075708
65	0x3d8fb9fb	0.07017895
66	0xbcec4062	-0.028839294
67	0x3cb15272	0.021645758
68	0xbcb8f349	-0.022576945
69	0xbbb13bae	-0.0054087257
70	0xbe5c2b5d	-0.21500917
71	0x3a969084	0.0011487161
72	0x3e1f1c5c	0.15538162
73	0x3ddfe427	0.109321885
74	0xbe309940	-0.1724596
75	0xbe46dbe4	-0.19419819
76	0xbdc61f28	-0.09673911
77	0xbdaf21ba	-0.08551355
78	0x3e184ca7	0.1487299
79	0xbdee6f00	-0.11642265
80	0x3bad0c57	0.005281012
81	0xbca9569e	-0.020671185
82	0x3dbe08a1	0.092789896
83	0x3dacda9f	0.08440136
84	0x3e29a31d	0.16566129
85	0xbd2d086d	-0.042244364
86	0xbd9643d3	-0.07337155
87	0x3de857b5	0.11344854
88	0x3d8db57a	0.069193795
89	0x3c7a0fe8	0.015262581
90	0xbc3b9576	-0.0114492085
91	0x3e29f710	0.16598153
92	0xbe353a47	-0.17698012
93	0x3dd50895	0.104020275
94	0xbe1f6ad5	-0.15568097
95	0x3e43b916	0.19113573
96	0x3dd2da7c	0.10295579
97	0xbde7ebad	-0.113242485
98	0x3d73c880	0.059517384
99	0xbda94915	-0.082658924
100	0x3df98636	0.12183802
101	0x3e240c69	0.16020359
102	0xbe6ba621	-0.23012592
103	0x3db8a3a2	0.090155855
104	0xbe0bc577	-0.13649546
105	0xbe6620d9	-0.22473468
106	0xbdc33a1c	-0.09532568
107	0x3dc472d0	0.09592211
108	0xbdff73f7	-0.124732904
109	0xbe04d2bd	-0.12971015
110	0x3e8040d6	0.25049466
111	0x3e12b9c2	0.14328673
112	0x3e2b36aa	0.16720071
113	0xbe13342e	-0.14375374
114	0x3d78a965	0.060708422
115	0xbdadf667	-0.08494263
116	0x3e06f2db	0.1317858
117	0x3e4d1678	0.20028102
118	0xbdae20aa	-0.08502324
119	0xbdc4b773	-0.09605303
120	0xbe1bfb8b	-0.15232675
121	0xbdaeab3d	-0.08528755
122	0x3e25159a	0.16121522
123	0xbda6e0cf	-0.081483476
124	0xbb9a964d	-0.0047176243
125	0x3e27f23c	0.16400999
126	0x3cddab7f	0.027059315
127	0xbd8196ca	-0.06327589
128	0x3d3e9084	0.04652454
129	0x3e458018	0.19287145
130	0x3e5c4778	0.21511638
131	0xbe3b4fc9	-0.18292154
132	0x3e0a5506	0.13508996
133	0x3c88f1b6	0.01671682
134	0x3e4dc646	0.20095167
135	0x3c1f3320	0.009716779
136	0xbd842d2a	-0.06453927
137	0x3da7034b	0.08154925
138	0xbd4b24f0	-0.049595773
139	0x3d2307f8	0.03980252
140	0x3db2af38	0.087248266
141	0xbc9a5e4a	-0.018843789
142	0x3e033689	0.12813772
143	0xbdba1bba	-0.0908732
144	0x3d396f94	0.045272425
145	0xbdb616b8	-0.08891052
146	0xbe305bfa	-0.17222586
147	0xbe01ab91	-0.12663104
148	0x3e6007d3	0.21877985
149	0xbe6b30d9	-0.22967853
150	0x3d8fb8bd	0.07017658
151	0x3d482879	0.048866723
152	0xbdbfc942	-0.09364559
153	0x3d345822	0.044029362
154	0x3d340f2e	0.04395979
155	0x3de42d60	0.11141467
156	0x3e30f56e	0.17281124
157	0xbc7d80ca	-0.0154726
158	0x3db84b5e	0.0899875
159	0x3e3f7f66	0.18700942
160	0xbe4b3f98	-0.19848478
161	0x3d8a9ec6	0.06768565
162	0x3e74d391	0.23908831
163	0x3d51f93c	0.05126308
164	0xbd67b86f	-0.056572374
165	0xbd81b485	-0.063332595
166	0xbe4f9a34	-0.20273668
167	0x3e1777f6	0.14791855
168	0x3dfd74f1	0.123758204
169	0x3d60a5bb	0.054845553
170	0x3e5200d1	0.20508124
171	0xbe20220d	-0.1563799
172	0x3df2a7ca	0.118484095
173	0xbd9a2708	-0.07526976
174	0xbdde75ec	-0.108623356
175	0x3d9d6073	0.07684412
176	0x3da60417	0.08106249
177	0xbe03e9bd	-0.12882133
178	0xbe0e0df7	-0.13872515
179	0xbd52e800	-0.051490784
180	0xbe07e057	-0.13269173
181	0xbcf44241	-0.029816749
182	0x3d224a14	0.039621428
183	0x3d8c2e36	0.068447515
184	0x3e48a928	0.19595778
185	0x3dd47f76	0.10375874
186	0xbe11cd1d	-0.14238401
187	0xbcaf0da9	-0.021368818
188	0x3cd63dd3	0.026152527
189	0x3e308fea	0.17242399
190	0xbcbdda9b	-0.023175528
191	0xbcd9c566	-0.026583385
192	0xbdce7ae3	-0.100820325
193	0xbdfecc50	-0.12441313
194	0xbded577f	-0.11588954
195	0x3d8baf3c	0.06820533
196	0xbd881b67	-0.066458516
197	0x3cbd7a6b	0.023129662
198	0xbde9be6d	-0.11413274
199	0xbdaaa306	-0.083318755
200	0xbd04e804	-0.03244783
201	0xbe4f4a71	-0.20243241
202	0xbdd8ceda	-0.10586329
203	0x3d14c756	0.036322914
204	0x3e20ed04	0.15715414
205	0x3e2d7398	0.16938627
206	0x3e176a62	0.14786676
207	0x3e2fce82	0.1716862
208	0x3bb2b88f	0.00545413
209	0xbddd3d42	-0.108026996
210	0x3d5e2182	0.054231174
211	0x3d3111f5	0.043230016
212	0xbdc31f59	-0.095274635
213	0x3d6e22fe	0.05813884
214	0xbe108658	-0.14113748
215	0x3cbbb41c	0.022913031
216	0x3e00edf8	0.12590778
217	0xbbf3809d	-0.0074311034
218	0xbda0ca22	-0.07851054
219	0xbd3c5e58	-0.04598841
220	0x3e80195a	0.25019342
221	0x3df94b99	0.12172622
222	0x3bb38f52	0.0054797316
223	0xbc3395a2	-0.010960968
224	0x3c41e67b	0.011834736
225	0xbd1f3dfe	-0.03887748
226	0x3b6a3e14	0.0035742568
227	0xbdebd33b	-0.115148984
228	0xbd6ebd59	-0.058286045
229	0x3d9c11f8	0.07620615
230	0x3e064dbc	0.13115591
231	0xbe126a43	-0.14298348
232	0xbdc19ee1	-0.09454132
233	0xbda35640	-0.07975435
234	0x3dfcc022	0.12341334
235	0xbdbfa70a	-0.09358032
236	0xbe1c1509	-0.152424
237	0xbbb59e94	-0.0055425856
238	0xbcbf6941	-0.023365619
239	0x3c0ef43d	0.008725223
240	0x3ca4de6f	0.020125596
241	0xbd2d569e	-0.042318933
242	0x3cdeb6c9	0.027186768
243	0x3e1cfcef	0.15330862
244	0xbcf37d1e	-0.029722746
245	0x3d6280a1	0.05529845
246	0xbd8b0664	-0.06788328
247	0x3e271594	0.16316825
248	0xbe1ab23d	-0.15107055
249	0x3dc63c26	0.09679441
250	0xbd7f8def	-0.062391218
251	0xbe375e86	-0.17907152
252	0xbd55663e	-0.05209946
253	0x3d50a2ab	0.050936382
254	0xbe1fcdaf	-0.15605806
255	0x3e5115d6	0.20418486

weight f4 [3, 1]
0	0xbd4effa6	-0.050536774
1	0xbf815b19	-1.0105926
2	0x3f5b65c1	0.8570214

bias f4 [3]
0	0x3f0aebef	0.54266256
1	0xbf00239a	-0.50054324
2	0x3f346429	0.7046533

weight_ih_l0 f4 [64, 3]
0	0x3dabec5a	0.0839469
1	0xbde67c37	-0.11254161
2	0xbd0d227a	-0.034456708
3	0xbd93d0f3	-0.07217588
4	0x3e035ab2	0.12827566
5	0x3da15198	0.07876891
6	0x3d4b9f73	0.04971261
7	0xbdb0782f	-0.08616673
8	0x3d24cd19	0.04023466
9	0x3dfddde7	0.1239584
10	0x3dfa4c14	0.12221542
11	0xbdb8ac9d	-0.09017298
12	0xbda3a7d9	-0.07990999
13	0xbe1b141a	-0.15144387
14	0xbd88b362	-0.066748396
15	0xbd6e7ff4	-0.058227494
16	0xbe30f489	-0.17280783
17	0xbce427a8	-0.02785094
18	0x3cfa99e9	0.030590968
19	0xbdc7f16d	-0.09762845
20	0xbd5e2ad0	-0.054240048
21	0xbd928d68	-0.07155877
22	0xbcb6651e	-0.022265013
23	0x3e07933c	0.13239759
24	0xbcb77c7a	-0.022398222
25	0x3ca3b83c	0.01998531
26	0xbc23f4e5	-0.010007118
27	0x3d9c3d3c	0.07628867
28	0xbe003efa	-0.12524024
29	0x3ceb8d3c	0.02875387
30	0x3dafcc4e	0.0858389
31	0x3ccb26d9	0.024798797
32	0xbcfd8075	-0.030945042
33	0x3dd805d9	0.1054799
34	0x3df20d47	0.11818939
35	0xbdb1fe94	-0.08691135
36	0xbb96c068	-0.0046005733
37	0x3e2a88ab	0.16653697
38	0xbde42c53	-0.11141267
39	0xbd84a625	-0.06477002
40	0xbe00cd32	-0.12578276
41	0x3dd7a200	0.10528946
42	0xbde31d07	-0.11089521
43	0xbdb70120	-0.089357615
44	0x3d90ac49	0.07064111
45	0x3dc3bc07	0.09557348
46	0x3da834c6	0.08213191
47	0x3cc25377	0.02372144
48	0xbdd5c28b	-0.10437497
49	0x3de1e840	0.11030626
50	0x3d69aca4	0.05704941
51	0x3d9f71a4	0.07785347
52	0x39d263a4	0.0004012856
53	0x3c7f3290	0.01557602
54	0xbd528a7e	-0.051401608
55	0xbe10281a	-0.14077798
56	0x3d9f6367	0.07782631
57	0xbdc78794	-0.09742656
58	0xbd05bfed	-0.032653738
59	0xbd8fe972	-0.07026948
60	0xbd789c3f	-0.060695883
61	0xbd08dc56	-0.033413254
62	0xbd3e086f	-0.04639476
63	0xbdc67c59	-0.09691686
64	0x3df0925e	0.11746667
65	0xbe03909f	-0.12848137
66	0xbcf8f73f	-0.030391334
67	0x3ccc60f9	0.024948584
68	0x3ccc3718	0.024928614
69	0xbe00b4ab	-0.1256892
70	0xbdf5145e	-0.11966775
71	0x3bb1c40b	0.0054249815
72	0x3dca444b	0.09876307
73	0xbd7fea96	-0.062479578
74	0xbdbfb628	-0.093609154
75	0xbce34543	-0.027742987
76	0xbce81195	-0.028328696
77	0x3caa813a	0.020813573
78	0x3d2a5a8d	0.041590262
79	0xbe176d31	-0.14787747
80	0x3d849210	0.06473172
81	0x3d8212e7	0.063512616
82	0xbcdaccab	-0.026708921
83	0x3d51c294	0.051210955
84	0x3c3383ae	0.010956688
85	0x3d240045	0.04003932
86	0x3d8899da	0.0666997
87	0x3d7084f2	0.058720537
88	0x3d19f5f0	0.03758806
89	0xbcc51d59	-0.024061846
90	0xbafcf4ea	-0.0019299064
91	0xbdb52bfe	-0.088462815
92	0x3cbc0f67	0.022956563
93	0xbdcafae3	-0.09911134
94	0x3d80ec03	0.06295016
95	0x3dc2e85b	0.095169745
96	0x3da1755b	0.07883712
97	0xbcf47ffa	-0.02984618
98	0xbd8ed92f	-0.06975018
99	0x3c48d6dc	0.012258258
100	0xba8fab12	-0.0010961017
101	0x3d0e9a9d	0.03481542
102	0x3d0bf9c2	0.034173734
103	0x3e19c7f2	0.1501768
104	0x3daa68b3	0.08320751
105	0xbdbacff8	-0.09121698
106	0xbd33e114	-0.043915823
107	0x3c952016	0.018203776
108	0xbca40fe4	-0.020027108
109	0xbdef13a6	-0.116736695
110	0x3ddf9edc	0.10918972
111	0x3d3f4a84	0.046701923
112	0x3de2b0d5	0.11068884
113	0x3d15d254	0.036577538
114	0xbe00ca38	-0.1257714
115	0xbe033812	-0.12814358
116	0x3dfa60c2	0.12225486
117	0xbdda36af	-0.10654961
118	0x3dd9ecdd	0.10640881
119	0xbda12c1e	-0.07869743
120	0x3d6b7f3b	0.057494383
121	0x3df45e20	0.119320154
122	0xbdc457fd	-0.09587095
123	0x3dc0f20d	0.094211675
124	0x3cd224d1	0.025652321
125	0x3d34f33b	0.044177275
126	0x3dca6136	0.09881823
127	0x3d9dcddd	0.07705281
128	0xbbf29c43	-0.0074038818
129	0x3db61e29	0.08892471
130	0x3c1b1cca	0.009467313
131	0xbcc3945e	-0.023874458
132	0xbd306b38	-0.043071
133	0x3dc5ab49	0.09651811
134	0x3c02efaa	0.007991711
135	0xbcbe9a36	-0.023266893
136	0xbdacbf45	-0.08434919
137	0xbd6ca1fb	-0.057771664
138	0x3c410d85	0.011783008
139	0xbc7a4388	-0.01527489
140	0x3e034481	0.12819101
141	0xbd35470c	-0.04425721
142	0xbd3a3994	-0.045465067
143	0xbd9a59fb	-0.07536694
144	0xbd8ac3dc	-0.067756385
145	0xbe125cb1	-0.14293171
146	0x3dd789b5	0.105243124
147	0x3d3421d6	0.04397758
148	0xbd7a887e	-0.061165325
149	0x3d14828b	0.036257308
150	0xbd5ea3be	-0.054355375
151	0xbd2107df	-0.039314147
152	0xbc93b283	-0.018029457
153	0x3a170bf0	0.00057619717
154	0xbe3217ee	-0.17391941
155	0x3d91b3b6	0.07114355
156	0x3cb3a7a2	0.02193052
157	0xbd94c952	-0.07264961
158	0x3c816bba	0.015798438
159	0x3c951621	0.018199028
160	0xbb4c0a66	-0.0031134128
161	0xbc9ece07	-0.01938535
162	0xbd2c2706	-0.042029403
163	0xbd8215ff	-0.06351852
164	0xbd54ff9a	-0.052001573
165	0xbde8a48e	-0.11359511
166	0xbde39f8d	-0.11114416
167	0xbd93bbe5	-0.072135724
168	0xbcfc6239	-0.030808555
169	0xbd476e19	-0.04868898
170	0x3dbcc26f	0.09216773
171	0x3ccdc80a	0.0251198
172	0xbb00ddf5	-0.0019663547
173	0x3e14cf23	0.14532141
174	0xbdd73bc4	-0.10509446
175	0xbe049db3	-0.12950782
176	0x3cdaa7cf	0.026691345
177	0x3d0794b3	0.033100795
178	0xbdea0bec	-0.11428055
179	0x3cec5273	0.028847909
180	0x3dff9481	0.12479497
181	0x3e2cfa26	0.16892299
182	0x3d38d1c5	0.045121927
183	0xb88b2081	-6.634091e-05
184	0xbe0488a1	-0.12942745
185	0xbbe384e9	-0.0069433344
186	0x3de3ddbc	0.11126277
187	0x3e2a62cd	0.16639252
188	0x3c7352df	0.014851301
189	0xbe03e895	-0.12881692
190	0xbe089a6e	-0.1334016
191	0x3d39d6a1	0.0453707

weight_hh_l0 f4 [64, 64]
0	0x3d88ad8f	0.06673729
1	0x3dd57b51	0.10423911
2	0xbc495796	-0.0122889485
3	0xbd10a611	-0.035314623
4	0x3d8f9a9e	0.07011913
5	0xbd866695	-0.06562535
6	0x3d9226d0	0.07136309
7	0xbd04d194	-0.03242643
8	0x3d0d844c	0.034549996
9	0x3e198ee9	0.14995922
10	0x3c48b6ad	0.012250585
11	0x3d8e73dd	0.06955693
12	0x3c6ba93e	0.014383612
13	0x3d97f9a4	0.07420662
14	0x3dd0190c	0.10161027
15	0x3d4add45	0.049527425
16	0xbda31c62	-0.07964398
17	0xbd9fd57d	-0.078043915
18	0x3a09d4b0	0.0005257828
19	0xbdfd99cf	-0.12382852
20	0x3d22ccc5	0.039746065
21	0xbe0927aa	-0.13394037
22	0xbb39ba84	-0.0028339932
23	0xbd9abbd2	-0.07555355
24	0xbdf8feba	-0.1215796
25	0xbd0fcc2d	-0.035106827
26	0xbd4287ee	-0.047492914
27	0x3dc7b8c2	0.09752037
28	0x3d6b1bd5	0.05739959
29	0xbd582dfc	-0.05277823
30	0x3cf8bdec	0.030364
31	0x3dd66d3f	0.10470056
32	0x3dbfc908	0.093645155
33	0x3cfe5768	0.031047538
34	0x3cacea62	0.021107856
35	0xbdcc5dc8	-0.09978825
36	0x3d8baf29	0.068205185
37	0xbdcf91b4	-0.101352125
38	0x3d5599bc	0.052148566
39	0x3da2b8e5	0.07945422
40	0x3d4a526e	0.049395017
41	0x3cdc9105	0.02692462
42	0xbdbecca3	-0.09316375
43	0x3bc05a6f	0.0058701555
44	0x3d6f4aae	0.05842083
45	0xbd34a31a	-0.04410086
46	0x3c8426cf	0.016131787
47	0x3db8d939	0.09025807
48	0x3d928504	0.07154277
49	0x3d4b2963	0.049600016
50	0xbca97fc0	-0.020690799
51	0x3ca86182	0.020554308
52	0x3cdbbcbf	0.0268234
53	0xbcc35183	-0.023842579
54	0xbdb9ea4c	-0.09077892
55	0x3d4ac9e9	0.049508963
56	0x3dfce5ba	0.12348504
57	0xbda50171	-0.080569156
58	0x3d3d35ab	0.04619376
59	0x3de0b5f1	0.109722026
60	0xbdaf2fc2	-0.08554031
61	0xbc8cdcc2	-0.01719511
62	0x3daf2072	0.0855111
63	0x3dc91373	0.09818163
64	0x3cf0c2c5	0.029389748
65	0x3ce31dd6	0.027724188
66	0x3c734b81	0.0148495445
67	0x3ddba59d	0.107249476
68	0x3dcd241e	0.100166544
69	0x3ddc83ee	0.10767351
70	0xbde50cef	-0.111841075
71	0xbdc174ac	-0.094460815
72	0x3dcecc8e	0.100976095
73	0x3dc122dc	0.09430477
74	0x3b8ea0a0	0.004352644
75	0xbd6ba910	-0.057534277
76	0xbd93d3ac	-0.072181076
77	0xbd8a85e4	-0.06763819
78	0xbd9a70d5	-0.07541052
79	0x3c3a1995	0.011358638
80	0xbe093f3a	-0.13403025
81	0xbd7ce839	-0.061744902
82	0xbc642f96	-0.013927361
83	0x3c77369a	0.015088702
84	0xbd180dc8	-0.037122518
85	0xbd99c403	-0.075080894
86	0x3c0111b1	0.007877753
87	0x3d4eb2cc	0.050463483
88	0x3c1ed2eb	0.009693841
89	0x3dd0f124	0.10202244
90	0x3d6da58a	0.0580192
91	0xbda61368	-0.0810917
92	0xbd7d24fc	-0.06180285
93	0xbdab67da	-0.083694175
94	0xbd1d7f3e	-0.038451426
95	0x3dc59052	0.096466675
96	0x3de4b683	0.11167624
97	0x3cce9d15	0.025221387
98	0xbd72056b	-0.0590872
99	0x3da81f5a	0.08209105
100	0x3d631aee	0.055445604
101	0xbd4b0a94	-0.049570635
102	0xbaa28f36	-0.0012402299
103	0x3d4ee420	0.050510526
104	0xbc90030f	-0.017579583
105	0xbbab4136	-0.0052262796
106	0xbdba2004	-0.09088138
107	0x3ce3ad51	0.027792605
108	0x3d07ce19	0.033155534
109	0xbdf803ca	-0.12110098
110	0x3de4bf5d	0.11169312
111	0x3d239357	0.039935436
112	0xbd900d83	-0.07033827
113	0x3ca403c2	0.020021323
114	0x3d9deb68	0.07710916
115	0x3d6c7cd4	0.057736233
116	0x3da081ea	0.07837279
117	0xbdfc7669	-0.123272724
118	0xbd7d302d	-0.061813522
119	0xbdd1cba9	-0.10243923
120	0xbd99e585	-0.075144805
121	0x3d8b3879	0.06797881
122	0xbdde1ab8	-0.1084494
123	0xbd959b3b	-0.073049985
124	0xbcdbdbc0	-0.026838183
125	0x3ce24476	0.027620535
126	0x3b860f46	0.004091176
127	0x3d5d0764	0.053962126
128	0x3b5d86eb	0.0033802341
129	0xbcad104a	-0.021125931
130	0xbda1ee3a	-0.07906766
131	0xbc18fe71	-0.009338007
132	0xbdddeaf2	-0.10835828
133	0x3c99446f	0.01870939
134	0xbd94c30f	-0.07263767
135	0xbdc9f822	-0.09861781
136	0x3d965e6a	0.07342227
137	0x3d9af1bf	0.07565641
138	0xba37abda	-0.0007006504
139	0x3d9fea89	0.07808406
140	0x3ccb74b0	0.024835914
141	0xbdb0d168	-0.08633691
142	0xbd22b501	-0.0397234
143	0x3ce3bb03	0.027799135
144	0xbb9e1828	-0.004824657
145	0x3cddd299	0.02707796
146	0xbde2d33a	-0.110754445
147	0x3d8392d2	0.06424488
148	0x3d32f55a	0.043691017
149	0xbdfce8ff	-0.12349128
150	0xbd604c77	-0.054760423
151	0xbd8aa06a	-0.06768878
152	0x3d720402	0.059085853
153	0x3da17eb9	0.078854986
154	0xbd9d6564	-0.07685354
155	0x3da09862	0.07841565
156	0xbde3197b	-0.110888444
157	0xbdb032a2	-0.086034074
158	0x3de65ac9	0.11247785
159	0xbdd8f908	-0.10594374
160	0x3cbea8f1	0.023273917
161	0x3d515b6d	0.05111258
162	0xbd894486	-0.06702523
163	0x3cd288b3	0.025699949
164	0x3dd7e9a2	0.10542609
165	0xbca56608	-0.020190254
166	0x3de8470a	0.113416746
167	0x3cf164c8	0.029467002
168	0xbd2e8235	-0.042604644
169	0xbd9108ad	-0.07081733
170	0xbb6c38a5	-0.0036044505
171	0xbc587970	-0.013212547
172	0xbdce6b0d	-0.10079012
173	0x3d4a5c6d	0.04940455
174	0x3d3ac644	0.045599237
175	0xbd1f71d6	-0.03892692
176	0xbd2d4562	-0.042302497
177	0xbdb6663e	-0.0890622
178	0xbdf4c19b	-0.1195099
179	0x3db636b9	0.08897156
180	0x3d3e0b60	0.046397567
181	0x3d44c0b7	0.04803535
182	0xbddb8484	-0.10718635
183	0xbdafcdfb	-0.085842095
184	0xbd3e7fd0	-0.04650861
185	0x3c09b800	0.008405685
186	0xbdb381b0	-0.0876497
187	0x3e046381	0.12928583
188	0xbc3e94fa	-0.0116321985
189	0xbdefeafd	-0.11714742
190	0xbcf2f652	-0.02965847
191	0x3d0b1f4a	0.033965386
192	0x3b54ff9e	0.0032500993
193	0x3d9afea5	0.07568101
194	0xbc587785	-0.013212089
195	0xbd79d3b9	-0.06099293
196	0xbdfb8ca8	-0.122826874
197	0x3c9940fd	0.018707747
198	0x3da5cff2	0.08096303
199	0x3ccf730a	0.02532341
200	0xbb039075	-0.0020075117
201	0x3d1c7e92	0.038206644
202	0xbc95f188	-0.018303648
203	0x3d671535	0.05641671
204	0x3dbe4215	0.09289948
205	0xbcd2af0a	-0.02571823
206	0x3d8a3f95	0.067504086
207	0x3d7e2995	0.062051374
208	0x3e08e089	0.13366903
209	0x3c9f6365	0.019456575
210	0x3d1036a2	0.035208352
211	0xbd0a3863	-0.03374518
212	0x3d0aa5d0	0.033849537
213	0x3ced0f9e	0.02893811
214	0xbbb548ce	-0.0055323606
215	0xbda62b7e	-0.08113764
216	0x3db32348	0.08746964
217	0xbddb47f5	-0.10707084
218	0xbd1e9e03	-0.03872491
219	0xbdf7c8d8	-0.12098855
220	0x3d64521d	0.05574237
221	0xbd70ac1b	-0.058757883
222	0x3bcb9ddc	0.0062138867
223	0xbdb6e0a8	-0.089295685
224	0x3d2ac06b	0.04168741
225	0x3ce26f0b	0.02764084
226	0xbc320590	-0.010865584
227	0xbd9f443b	-0.07776686
228	0x3de5bfc2	0.112182155
229	0x3d0e211f	0.034699555
230	0x3d9b6bf3	0.07588949
231	0x3de16c42	0.11006977
232	0xbc7a4d7c	-0.015277263
233	0xbd82cd5d	-0.06386826
234	0xbd1cd3d3	-0.03828795
235	0x3dfb31f9	0.12265391
236	0x3dde5f55	0.10858027
237	0x3de8731d	0.11350081
238	0xbd1af444	-0.037830606
239	0x3b2806ca	0.0025638812
240	0x3cca4bad	0.024694288
241	0xbd667fab	-0.056274097
242	0xbdb228d6	-0.08699195
243	0x3df30cc7	0.118676715
244	0xbd9a7177	-0.07541173
245	0x3db4f239	0.08835263
246	0xbda49681	-0.08036519
247	0x3cbf09f7	0.023320181
248	0xbdc3c486	-0.09558968
249	0x3c5267ad	0.012842101
250	0x3cbb87f8	0.022891983
251	0x3d979873	0.07402124
252	0x3cc153ea	0.023599584
253	0xbd0d97a4	-0.034568444
254	0x3d982599	0.07429046
255	0x3d36109f	0.044449445

bias_ih_l0 f4 [64]
0	0xbd8f8448	-0.070076525
1	0x3dfcca8b	0.123433195
2	0xbddb9f18	-0.10723704
3	0xbda7e179	-0.08197302
4	0x3c56d618	0.013112567
5	0xbdbaa892	-0.091141835
6	0xbd6d54e0	-0.05794227
7	0xbda2eefb	-0.07955738
8	0xbda69620	-0.08134103
9	0xbdee7689	-0.116437025
10	0x3c62e8a8	0.013849415
11	0xbcd41826	-0.025890421
12	0x3e0cfa0b	0.13767259
13	0xbdd148b1	-0.10218943
14	0x3c7b6499	0.015343809
15	0xbdc8dbc7	-0.09807544
16	0x3cae9c9b	0.02131491
17	0x3db486a7	0.088147454
18	0x3cae0c44	0.021246083
19	0xbcd48fe5	-0.02594752
20	0x3db44ba0	0.08803487
21	0x3da2fefa	0.07958789
22	0xbd4b5aa2	-0.04964698
23	0xbd8b501e	-0.068023905
24	0xbcfa54ad	-0.030557955
25	0xbd83d305	-0.06436733
26	0xbd919d49	-0.07110078
27	0x3b8cb850	0.0042944327
28	0x3d2f432a	0.042788662
29	0xbcc01a02	-0.023449901
30	0xbdbd865c	-0.09254143
31	0x3d95bfac	0.07311949
32	0x3d036d18	0.03208646
33	0xba5ab2f0	-0.0008342704
34	0xbcd364de	-0.025804933
35	0xbd2cad94	-0.042157724
36	0xbdcb92f9	-0.09940142
37	0x3d57a03e	0.052643053
38	0x3daf6a0f	0.08565151
39	0x3db96274	0.090519816
40	0x3bdfebe3	0.00683354
41	0xbde58471	-0.11206902
42	0xbd8dd381	-0.06925107
43	0xbd4caf58	-0.04997191
44	0xbd664e82	-0.056227215
45	0x3db98bb9	0.09059853
46	0xbd317090	-0.04332024
47	0x3d0e0a1a	0.034677602
48	0xbdf30f1d	-0.11868117
49	0xbd005035	-0.03132649
50	0x3dcb1cb5	0.09917585
51	0xbcfdd8c7	-0.030987157
52	0xbba9ab4b	-0.0051778904
53	0xbdb373e9	-0.087623425
54	0xbd6cc351	-0.057803456
55	0xbb929c8a	-0.0044742273
56	0x3da931a2	0.0826142
57	0xbb2da17b	-0.0026493955
58	0x3b50999a	0.0031829835
59	0x3cc4325c	0.023949794
60	0x3dae70a6	0.0851758
61	0xbdd294c7	-0.10282283
62	0x3c8ceaf6	0.017201882
63	0xbdce63b2	-0.10077609

bias_hh_l0 f4 [64]
0	0xbdcc63ca	-0.09979971
1	0xbdc01a46	-0.09380011
2	0xbddd7066	-0.10812454
3	0x3e03e106	0.12878808
4	0xbdd48117	-0.103761844
5	0x3d8f5ddf	0.07000326
6	0xbd820fec	-0.06350693
7	0xbdbd67c7	-0.092483096
8	0x3d8304fa	0.063974336
9	0xbd855a4f	-0.065113656
10	0xbd7da5e7	-0.061925795
11	0x3e0423a9	0.12904228
12	0x3d9931e2	0.074802175
13	0xbddb40ae	-0.10705696
14	0xbdcc5794	-0.09977642
15	0x3d3ad721	0.04561532
16	0x3dc51c51	0.096245416
17	0x3d977b2b	0.07396539
18	0x3d597a36	0.053095065
19	0x3dda6b48	0.106649935
20	0x3b84c0b3	0.004051292
21	0x3d00f179	0.031480286
22	0xbce36ba1	-0.027761282
23	0xbc7520f0	-0.014961466
24	0xbd462342	-0.04837347
25	0xbcf81c01	-0.03028679
26	0xbdf8b6ca	-0.12144239
27	0xbd94c7d6	-0.07264678
28	0xbd00d3c8	-0.03145197
29	0x3cfdf293	0.030999457
30	0x3d4de53e	0.05026745
31	0xbc05f6ba	-0.0081765
32	0xbd8714c1	-0.06595755
33	0xbd906bfe	-0.07051848
34	0x3e04d16d	0.12970515
35	0x3d2fb377	0.04289576
36	0x3d80a449	0.06281335
37	0x3d3b99e8	0.045801073
38	0xbdee0477	-0.11621945
39	0x3d3860a6	0.045014046
40	0xbc8f49d1	-0.017491253
41	0xbcc9baf7	-0.024625285
42	0x3d66469c	0.056219682
43	0x3d65b4e6	0.05608072
44	0x3e01dd57	0.1268209
45	0xbdd7d1c1	-0.10538054
46	0xbd69aebf	-0.057051416
47	0xbd90191a	-0.07036038
48	0xbddbfc0f	-0.10741436
49	0x3cf77491	0.03020695
50	0x3db2da50	0.08733046
51	0x3d6bc5f5	0.057561833
52	0xbd7ece2e	-0.062208347
53	0x3d8d884d	0.06910763
54	0x3dcb1863	0.09916761
55	0xbd027b8c	-0.031856105
56	0x3cb0a3c8	0.021562472
57	0xbde5bdeb	-0.112178646
58	0xbd3132f9	-0.043261502
59	0xbe0698b7	-0.13144194
60	0xbd86343d	-0.065529324
61	0xbdc76e39	-0.0973782
62	0x3de8358f	0.113383405
63	0x3d7ba913	0.06144054

weight f4 [3, 64]
0	0xbcc21e08	-0.02369596
1	0x3d200cc0	0.03907466
2	0x3d1917b9	0.03737614
3	0x3cd1d6a0	0.025615036
4	0x3d6b6018	0.05746469
5	0xbc7030d8	-0.014660083
6	0x3dc7afb5	0.0975031
7	0x3cb36b00	0.021901608
8	0x3db67db6	0.08910696
9	0x3db1048a	0.08643444
10	0xbd10e88f	-0.035378035
11	0x3d518fd2	0.05116255
12	0xbdd8c37a	-0.10584159
13	0xbde7030c	-0.11279878
14	0x3da1a11f	0.078920595
15	0x3e273945	0.1633044
16	0x3c1b131a	0.009465003
17	0x3e0bee70	0.13665175
18	0x3cdef212	0.027215037
19	0x3d91c1c3	0.07117035
20	0xbcd4755d	-0.02593487
21	0xbde39cc6	-0.111138865
22	0xbd274f93	-0.040847372
23	0x3db53613	0.088482045
24	0x3c56db92	0.013113873
25	0x3dc97363	0.098364614
26	0x3d856e70	0.06515205
27	0x3d6911b2	0.05690164
28	0x3b914871	0.0044336845
29	0x3d88503c	0.066559285
30	0x3d851d30	0.06499708
31	0xbdd6fa1a	-0.10496922
32	0x3db86d22	0.090051904
33	0x3ba8a1c2	0.005146236
34	0xbd90dc23	-0.07073238
35	0x3c2d805d	0.010589686
36	0x3d1c571c	0.03816901
37	0xbdbb505a	-0.09146185
38	0x3d1bda4b	0.038049977
39	0x3da08aa0	0.078389406
40	0x3d0664cd	0.032810975
41	0x3ce9433f	0.028474448
42	0xbd07d8a6	-0.033165596
43	0x3dacb6ab	0.08433279
44	0xbab5bba6	-0.0013865128
45	0xbdddcbf2	-0.10829915
46	0xbc9d314f	-0.019188551
47	0x3cb69bef	0.022291152
48	0x3d81a218	0.06329745
49	0x3c569bdf	0.013098686
50	0xbe06524f	-0.13117336
51	0x3d95b072	0.07309045
52	0xbd90fb9e	-0.07079242
53	0x3de1da0f	0.110279195
54	0x3d1ffee9	0.03906146
55	0xbdb4f8ee	-0.08836542
56	0xbdb19742	-0.08671428
57	0x3d9fbb11	0.07799352
58	0x3e071134	0.13190156
59	0x3cc88ecc	0.024482153
60	0x3e02104c	0.1270153
61	0xbd9659d4	-0.07341352
62	0x3ddcadfc	0.107753724
63	0x3d949a9a	0.072560504
64	0xbe1c9e75	-0.15294822
65	0xbd6853d4	-0.05672057
66	0xbd65e3d8	-0.05612549
67	0x3d87f4f1	0.06638516
68	0x3d93914f	0.0720545
69	0xbe16434e	-0.14674112
70	0xbd992c43	-0.074791454
71	0x3e04011c	0.12891048
72	0x3e1cb101	0.15301897
73	0x3dddbca3	0.10826995
74	0x3e2437e4	0.16036946
75	0xbdaf90e9	-0.08572561
76	0xbda5e2e0	-0.080999136
77	0x3db4817e	0.08813761
78	0x391adea8	0.0001476953
79	0x3e364d28	0.1780287
80	0x3e06e3a1	0.13172771
81	0x3e0956c6	0.13412008
82	0x3ded0806	0.11573796
83	0xbd71a7a1	-0.058997754
84	0xbced0885	-0.028934726
85	0x3d472ae4	0.048624888
86	0xbc39aae9	-0.011332252
87	0xbdb9af1b	-0.09066602
88	0xbdf79d6e	-0.12090574
89	0x3b2dc967	0.002651775
90	0xbda96bba	-0.082725
91	0xbdb75611	-0.08951963
92	0xbd16a994	-0.036782816
93	0x3d7ec7d5	0.062202293
94	0x3d57423b	0.052553397
95	0xbde91762	-0.11381413
96	0x3e203388	0.15644658
97	0xbd9d5f9e	-0.07684253
98	0x3dacaee4	0.08431795
99	0x3d578ad1	0.05262262
100	0xbd6a615f	-0.057221767
101	0x3d9b7bc0	0.07591963
102	0x3dd2141c	0.10257742
103	0x3dd61fd5	0.1045529
104	0x3d6129a0	0.054971337
105	0xbd3db2a2	-0.046312936
106	0x3de0763a	0.1096005
107	0xbd0b0949	-0.033944402
108	0xbdc000cb	-0.09375151
109	0xbd719ddd	-0.05898844
110	0xbde245c9	-0.11048467
111	0xbd9e76eb	-0.077375256
112	0x3d86a8d8	0.06575173
113	0x3e03dddd	0.12877603
114	0xbdb0891d	-0.08619902
115	0x3da1fc32	0.079094306
116	0x3d9ba92a	0.07600625
117	0x3d4f2078	0.050568074
118	0xbdeb0800	-0.11476135
119	0xbc4b7b26	-0.012419498
120	0xb8b3257a	-8.542366e-05
121	0xbac541e8	-0.0015049549
122	0x3da512d8	0.08060235
123	0x3ddaa6bd	0.10676334
124	0x3d880cd2	0.0664307
125	0x3cdcc49d	0.026949221
126	0x3d58da41	0.05294252
127	0xbe108271	-0.1411226
128	0xbde83329	-0.11337883
129	0xbd67385e	-0.05645024
130	0xbddadcb4	-0.10686627
131	0xbd76b35e	-0.06022965
132	0xbdc021bc	-0.09381434
133	0xbdffa599	-0.12482757
134	0xbdbdd814	-0.09269729
135	0xbdc100ab	-0.094239555
136	0xbc1402cc	-0.00903387
137	0xbd987a89	-0.07445247
138	0x3d412350	0.047152817
139	0x3dcb1280	0.09915638
140	0x3d773599	0.06035385
141	0x3ae7e42c	0.0017691902
142	0xbdab903c	-0.0837712
143	0x3d66ed85	0.05637886
144	0x3d08da84	0.033411518
145	0x3df80e90	0.121121526
146	0xbe090bfd	-0.1338348
147	0xbd88765b	-0.066631995
148	0xbd1bbea0	-0.03802359
149	0x3dd77d85	0.10521988
150	0x3d095645	0.03352954
151	0xbd025fe9	-0.03182975
152	0x3cdbc670	0.02682802
153	0xbc0fcad7	-0.008776388
154	0xbdff579e	-0.124678835
155	0xbe051598	-0.12996519
156	0x3d723b22	0.059138425
157	0x3dd6d31d	0.104894854
158	0x3d88ee4b	0.06686076
159	0xbdd450d2	-0.10366978
160	0x3d74ae4c	0.059736535
161	0x3d90f15a	0.07077284
162	0x3dbfdfb3	0.09368839
163	0xbd8f26ba	-0.069898084
164	0x3a7c317c	0.0009620411
165	0xbc2c3767	-0.010511256
166	0xbdc9282b	-0.098221146
167	0x3dc3cf3c	0.09561011
168	0x3dbcd3e0	0.092200994
169	0x3d830cfc	0.06398961
170	0x3dd3592d	0.10319743
171	0x3a62060d	0.00086221175
172	0x3c789e27	0.015174425
173	0x3cddab19	0.027059125
174	0xbdef16e3	-0.11674287
175	0x3bf7375b	0.0075444407
176	0xbb3a521a	-0.0028430284
177	0xbcd50079	-0.026001202
178	0xbd8126f5	-0.063062586
179	0xbbdaf1b3	-0.006681645
180	0xbd66ce6b	-0.0563492
181	0xbb8fda1c	-0.0043900143
182	0xbdcf328d	-0.10117064
183	0xbdbe01a7	-0.09277659
184	0xbd5f75b7	-0.05455562
185	0xbd9ab5c5	-0.07554201
186	0xbd571b57	-0.052516308
187	0xbc2219d6	-0.009893855
188	0x3e02db89	0.12779059
189	0xbc9384d5	-0.018007675
190	0x3d810623	0.062999986
191	0xbe167a03	-0.14694981

bias f4 [3]
0	0x3deea889	0.11653239
1	0x3da8cad6	0.08241813
2	0x3df8386e	0.12120138
