model.pt (torch, 282002 bytes, 11 tensors)

weight f4 [256, 3]
00000000: 5110 2fbd adeb efbe ab83 973e 10e5 503d
00000010: 772e ec3d 61ef fa3e df49 9cbe a729 ef3e
00000020: fe2c 003f 7443 f33e ed5b a63e 8379 aebe
00000030: e729 b43e 7c87 b7bc e9bd 193e 0667 7cbd
00000040: 5ada b83e 441a 0bbf 8c08 a73e be6c e0be
00000050: 5312 a93e ed8d 0c3e c0f1 0ebf 7b45 a1be
00000060: dc07 5e3e e3f4 86be 1c7a 0a3f 41ca 10bf
00000070: 37f1 de3e 1eab 0cbf d87d 933d 4a67 6b3c
00000080: b06c d5be 13f0 2c3e 8c21 a1bd 9f27 10bf
00000090: 411f 063f 5316 05be 76e4 003f 7153 c93e
000000a0: 62a0 b8be 01d7 59be 9954 9f3b f782 82be
000000b0: ca22 be3d 3525 d83d a5ae 58be bbbf 003f
000000c0: 8cd3 32be 3315 e73d 2180 903d e243 cdbc
000000d0: f1c7 0bbe 61de d5be 5b28 37bd 475c 113c
000000e0: 2d1d 0dbf cd01 e8be eae3 c6be 6882 83bd
000000f0: 8915 01bf b120 19be 08f4 da3d 8176 083c
00000100: 104b 15bf 204e 943e 6642 a43e 465c e33d
00000110: 1968 103f b4aa e23e ac5e 05bf 0e91 ab3e
00000120: 27a7 16bf 8a00 cabd b7ab 6e3e 3403 e0be
00000130: 70b5 543e b525 863d a5f1 bcbe 35bc 953e
00000140: 2a7a 093f da94 04bf 2a6b 333e 18aa bfbe
00000150: fb75 973e 5826 d2bd 3579 b03e 74c2 88be
00000160: 46c1 f2be df4e c53e c906 a63e 708a 873e
00000170: 88b5 fc3e 8aee 10bf 830a d9be 66be 493e
00000180: 5443 09bf ade4 9bbe 64d9 ea3e 34fa d73c
00000190: cc85 d4bd 7a69 19bf 7001 8dbd b62c 9cbd
000001a0: 7d8a c9be 1b46 f73e bc87 05bf 78a1 9e3d
000001b0: 4714 a93e 293f 2fbd 5242 a9be 090e 5b3d
000001c0: 2482 913e 633d 1bbe 52f1 14be 2552 0fbf
000001d0: 261d ddbd c5ea 7f3e 2be0 4ebe ff34 af3e
000001e0: 45f8 aebe 7515 8a3d 1565 49bd 1c2e babe
000001f0: ec96 62be e218 5b3e 1a90 e93e 02a4 133f
00000200: fa20 0e3f 2b5b da3e ed34 823e f2b1 83be
00000210: 24b8 be3e 59e3 2abd bcd8 77bd d240 0dbf
00000220: 120c 063f ea6b 1bbe 0b22 873d 029a 1b3f
00000230: 31cb ab3e 73a3 183e 9832 603e 933c 07bf
00000240: ed37 15bf 703b 903d 415a b8be dda7 bd3e
00000250: b8b6 d13e 8e62 05be b698 e43e fde3 c13e
00000260: 8aff e5be ec36 e6bd 1130 d93e cd0f e93e
00000270: 30d0 06bc 7b5a 0cbe 457a cd3d eb8e 9ebe
00000280: 4d8f debd fcba f33e 63e8 953e e99c 0abe
00000290: ac63 23be a0e1 9d3e 4277 f93e ff0e e23e
000002a0: 8b41 6bbe 220c 13bf d539 9cbd b2b2 a73e
000002b0: db46 c1be 1751 31bd ed5e bebe d371 c5be
000002c0: 4124 0c3e 5980 84bd 5bda 183f b12a 36bd
000002d0: 37fd a53e 5e96 bdbd e00f 543e 79eb adbd
000002e0: f19a 09bf 4f54 1f3e 8200 0bbf c1bc 02bf
000002f0: 453f d3bd 653e a0be b0b7 8b3e 55f7 7e3d
00000300: 90a5 f63e 1afc 02be 38d0 e0be a7c2 993d
00000310: 9d22 0fbf 3126 573e 880f ba3e 4293 05bf
00000320: 5f95 93be 6ab1 d0be 8e9a cb3c f362 813c
00000330: f05f dfbe dac2 edbe 55ef ecbe 39cd 1abd
00000340: 8fc5 0a3f 2ec2 abbd 6fad e0be 0102 3f3e
00000350: 389e 52bc e7d2 b93e 979f efbe 02d7 653e
00000360: 6567 d9be e6bc 003f 9da2 9fbe 6986 b2be
00000370: e40d 293d 484b a13e ade5 dbbe 8a92 e1be
00000380: 2233 efbe 61b8 703e 6622 babe 015a 06bf
00000390: d51d 7a3e 58b1 ed3c ed72 0f3d f789 bbbe
000003a0: 1a23 26be 5706 993c c7a7 0a3f 651e 5c3e
000003b0: 2422 aabd 4bed a9be d851 f9be e441 8b3e
000003c0: bc4a bc3e 51b5 bf3e db7e 86be f4ed d83e
000003d0: e82e d8be c36f 193e 3962 edbe fa25 ca3e
000003e0: 9ab3 c13e 5bfd 77be bc3e dfbe 35e7 963e
000003f0: 3c95 823d 585a a43e 9ce0 df3e 055f d13e
-0.04274017 -0.46859494 0.29592642 0.0509997 0.115323 0.49010757 -0.3052511 0.46711466
0.5006865 0.475124 0.3249201 -0.3407708 0.3518822 -0.022403471 0.15013851 -0.06162169
0.3610409 -0.54336953 0.32623708 -0.43832964 0.33021793 0.13726015 -0.5583763 -0.31498322
0.21682686 -0.2635871 0.54092574 -0.56558615 0.43543407 -0.54948604 0.07201737 0.014367888
-0.41684484 0.16888456 -0.07867727 -0.56310457 0.5239144 -0.12996797 0.50348604 0.39321473
-0.36059862 -0.21273424 0.0048623797 -0.25490543 0.09283979 0.10553972 -0.21160372 0.5029256
-0.17463511 0.1128334 0.07055689 -0.025056783 -0.1365049 -0.41771224 -0.04471622 0.008872098
-0.55122644 -0.45313874 -0.3884576 -0.064213574 -0.50423485 -0.14953877 0.106910765 0.008329035
-0.5831766 0.28965855 0.32081908 0.11101584 0.5640884 0.4427086 -0.5209758 0.33509105
-0.58848804 -0.09863384 0.23307692 -0.43752444 0.20772338 0.06550161 -0.3690311 0.29245153
0.5370203 -0.5178963 0.17521349 -0.3743446 0.295822 -0.1026122 0.34467474 -0.26710856
-0.4741308 0.38536736 0.32427052 0.26472807 0.49357247 -0.5661398 -0.42390832 0.19701537
-0.5361836 -0.30447903 0.4586898 0.026364423 -0.10377082 -0.5992657 -0.0688504 -0.076257154
-0.3936347 0.48295674 -0.5216024 0.077456415 0.33023283 -0.042784844 -0.3305841 0.05348018
0.28419602 -0.15160136 -0.14545181 -0.5598472 -0.10796575 0.24991901 -0.20202701 0.3422012
-0.3417379 0.06742374 -0.049168665 -0.36363304 -0.22127885 0.21396211 0.45617753 0.5767213
0.5551907 0.4264768 0.25431004 -0.257217 0.37249863 -0.041720722 -0.06050943 -0.5517703
0.5236217 -0.15177885 0.0659829 0.6078187 0.3355346 0.14906101 0.218943 -0.52826804
-0.5828846 0.07042587 -0.36006358 0.37042132 0.40959716 -0.13025877 0.4464776 0.37869254
-0.44921523 -0.11240944 0.42419484 0.45519868 -0.008228347 -0.1370639 0.10033087 -0.30968413
-0.10867176 0.47603595 0.2927886 -0.13536419 -0.1595599 0.308362 0.487238 0.44152066
-0.22974221 -0.5744039 -0.07628218 0.3275352 -0.3774937 -0.043290224 -0.37181798 -0.38563403
0.13685705 -0.06469793 0.59708184 -0.044474307 0.3241975 -0.09257196 0.20709181 -0.084921785
-0.53752047 0.15559505 -0.5429765 -0.51069266 -0.10314802 -0.31297603 0.2728858 0.062247593
0.4817319 -0.12791482 -0.43908858 0.0750783 -0.5591219 0.21010663 0.36339974 -0.5217782
-0.288249 -0.40760356 0.02485397 0.015794253 -0.43627882 -0.46437722 -0.46276346 -0.03779337
0.542077 -0.08386646 -0.4388232 0.18653108 -0.012855105 0.36293718 -0.46801445 0.224453
-0.42461696 0.50288236 -0.31178752 -0.34868172 0.041273013 0.31502748 -0.42948666 -0.44057113
-0.467187 0.23507835 -0.3635437 -0.52481085 0.24425443 0.029015228 0.03502171 -0.36628696
-0.16224328 0.01867978 0.5416226 0.2149597 -0.08307293 -0.33188853 -0.48695254 0.27198708
0.36775768 0.3744302 -0.26268658 0.42369044 -0.42223287 0.1498404 -0.46364 0.394821
0.37832338 -0.24217741 -0.4360255 0.29473272 0.063761204 0.32100177 0.4372605 0.40892807

bias f4 [256]
00000000: 5aa0 053f ac7c 703e 902f 00bf fc5e 0cbe
00000010: a0ba 91be 3749 fc3e 0006 1cbe 2f73 86be
00000020: 8ba3 65be 75f2 13bf 46c6 9f3e a401 d23e
00000030: 9965 18be b1f9 68be 6765 a2be 1561 bdbe
00000040: f54e c23e 6f85 a93e 83e9 883e 4074 003f
00000050: 2628 6a3e 6d02 6f3e cb93 37be eef9 efbe
00000060: b47a 11bf d933 8bbd 6450 aa3d 781f 983e
00000070: 957e 05bf 8419 b5be 8646 95be 2f00 3f3e
00000080: 01f5 47be 9918 7dbe aa75 e53d d82e b83d
00000090: fe05 52be 3054 58be 88d2 8f3d a62e 953e
000000a0: 0cc2 a03e 1eba b53e a76d a23e bd2e dfbe
000000b0: 574c ce3e 8766 7fbe a105 923e 74fb d9be
000000c0: b4dd 70be 1baa 0a3f 253a 103f 99bc 073f
000000d0: 1d58 fd3e ed4e a13e a88d 833e 842e ac3c
000000e0: c9df 39be 45fb c9be 34d2 8a3e 678b 353e
000000f0: aa76 0bbf 3ca5 c7bd 35de 583d b50c e53e
00000100: 9614 ca3e 5f06 2e3e 61f1 00bf e6c6 043d
00000110: 16f2 ca3e 5ad6 2dbb 4ef6 f7bd eaed bb3d
00000120: 798b 063f c256 e93e fdd4 aa3e fab1 a1be
00000130: ec4b 023e 0ab2 a53e ac85 acbe 55bf 9d3e
00000140: 9dae 80be dabb de3d aab2 593d 61e7 a3be
00000150: 3c9e 053f 8345 053f 7891 48be a714 803e
00000160: c7e4 fb3e 7adb 643e 725f 3bbe a1fc 2fbe
00000170: 3ee2 14bf 7137 d93e 26cf ee3e 1f16 adbe
00000180: a72e e9be 3e91 d93c 753b c5be 88d9 0fbf
00000190: 62b0 dfbd 92e2 1d3e 727b 373e e84d 673d
000001a0: 9484 bd3e 9d13 413e 67e5 eabe d77c e9be
000001b0: 2363 043e 54ec 07bf 6e35 47bc cf6f 2ebe
000001c0: 55e5 c83c 7c26 583e aa47 98b6 eb72 27be
000001d0: 5026 55bd 81eb d83e bac3 943e 9e06 6e3e
000001e0: 0405 c83e 7884 b03e b5f6 cebc 809c e2be
000001f0: 627a 863e 5f24 b23e 2aa9 13bf b7bb 053f
00000200: 2fdb 8d3e d454 debe eae5 dd3e b70e 7f3e
00000210: e075 083f 4ed3 f03e 25ae 44bc 76e5 a63e
00000220: 8e42 22be 28f7 4ebe 549e 543e f901 d5bd
00000230: 8946 f4be 9ac0 e1bd e6b0 c43e 0dda 213e
00000240: 75bc be3e c7be d73e ab16 04bf e067 9d3e
00000250: d60a 8d3e e398 593e 9315 bdbe 1e0c 35be
00000260: 2d89 033f 15ab 0abf 312c b23e 392d fabe
00000270: fbe6 e5be 37eb 803e 8fdc 2dbe d6cc 0d3e
00000280: c46b 08bf b5de b9bd b2fd e5be 9a68 583d
00000290: f1a0 4cbd b01e fcbe 14b3 f43d c5f9 09be
000002a0: 172e 8fbe 95b2 93be fe09 91be d1ee f43e
000002b0: a027 c63e bee9 81be e226 a63e 07db ddbd
000002c0: a827 e33d 0a4b 453e b6f6 82bd 1aae e0bd
000002d0: d401 e4be be9e 05be f89c ef3e 7c6d 1cbd
000002e0: bed2 103d 9ad1 e6bd 9d2b 06bf ae29 61be
000002f0: ad2d f1be 6ee7 b43d 07ce e73e bad2 d5be
00000300: 104a 01bf 9660 0ebf 0654 86be 1daa c2be
00000310: 4480 9ebe 39ee b4bd 5fba d23d 0615 b93e
00000320: 309e c0be 6155 03be f671 ac3e 084d f53e
00000330: 6f2b f5be a45b ab3d 6b85 663e 4d6c c63e
00000340: 5e46 dcbe 81d0 79be d080 143f d12e 11bf
00000350: 4ff9 90be 0999 e63c 8892 c23e 76a3 b4be
00000360: 0aa4 8a3e f48c 59be dc3b df3e f950 693d
00000370: 635c a4bc 0e89 c53e 0616 a63e 9bd6 0e3f
00000380: 8eec b3be 7f8e aebd 391f efbe 2592 ac3e
00000390: 471a 093f a5c7 353e 1c5f acbe 0eb9 73be
000003a0: 8aa2 16be a697 cebe cbea 0ebe 839b cbbe
000003b0: 4237 763d b1bf d9be 9d7e 103f 63dc d5be
000003c0: 3aa0 da3e c4d4 1e3c fd5c e13e 5bc7 8c3e
000003d0: 1c78 0abf 408e ae3e 2c93 d33e b71f 13bf
000003e0: 9b70 82be ad7f 14be b32a c03d 5912 a2bd
000003f0: c8e7 dc3e b9b5 043f 8381 1fbe 26c3 d33e
0.521978 0.23485059 -0.50072575 -0.13708109 -0.28462696 0.49274608 -0.15236664 -0.26259753
-0.22425668 -0.57791835 0.31205958 0.41016877 -0.14882506 -0.227515 -0.3171799 -0.3698813
0.37950864 0.33109614 0.26740655 0.50177383 0.22866878 0.23340769 -0.17927472 -0.4687037
-0.56827855 -0.067969985 0.083161145 0.2971151 -0.52146274 -0.3537103 -0.29155368 0.18652414
-0.19527055 -0.24716415 0.11204083 0.0899331 -0.20510098 -0.21125865 0.070225775 0.29137152
0.31398046 0.3549356 0.31724283 -0.43590346 0.40292618 -0.24941455 0.2851992 -0.42574656
-0.23522073 0.5416581 0.5633872 0.5302215 0.49481288 0.31505528 0.25694013 0.021018274
-0.18151774 -0.39449516 0.27113497 0.17728959 -0.5447794 -0.09748313 0.05294629 0.44736257
0.3946883 0.16994618 -0.50368315 0.032416247 0.39637822 -0.0026525469 -0.12107526 0.09176238
0.5255657 0.45574003 0.33365622 -0.31581098 0.12724274 0.32362396 -0.33695734 0.30810037
-0.2513322 0.108756736 0.053148903 -0.32012466 0.5219457 0.5205919 -0.19586742 0.25015756
0.4919798 0.22349349 -0.18298128 -0.17186214 -0.5815772 0.4242511 0.46642417 -0.3380594
-0.45543405 0.026558515 -0.38521925 -0.561913 -0.10922314 0.15418461 0.17918184 0.05647078
0.37015212 0.18855138 -0.45878145 -0.45603058 0.12928443 -0.53094983 -0.012158735 -0.17034839
0.024523417 0.2110843 -4.538296e-06 -0.16352431 -0.05203849 0.42367175 0.29055578 0.23244712
0.39066327 0.34476066 -0.025264123 -0.44260025 0.26265246 0.34793374 -0.5768 0.52239555
0.27706286 -0.43424094 0.43339473 0.24907957 0.5330486 0.47036213 -0.01200441 0.3259694
-0.15845701 -0.2021147 0.20763522 -0.10400767 -0.47710064 -0.11023064 0.38416213 0.15805836
0.37253156 0.4213774 -0.5159709 0.30743313 0.2754733 0.21249728 -0.36930522 -0.17680404
0.5138119 -0.541673 0.3479934 -0.48862627 -0.44902787 0.25179455 -0.16978668 0.1384767
-0.5328944 -0.09075681 -0.44920117 0.05283413 -0.049958173 -0.49242163 0.11948219 -0.13474186
-0.2796485 -0.28847185 -0.28327936 0.47838452 0.38702106 -0.25373644 0.3245154 -0.10832792
0.11091548 0.19266906 -0.063947126 -0.10970707 -0.44532645 -0.13048837 0.46799445 -0.03819035
0.03535723 -0.11270447 -0.524103 -0.21988556 -0.4710516 0.08833204 0.45274374 -0.41762334
-0.50503635 -0.5561613 -0.2623598 -0.3802041 -0.30957234 -0.088345 0.10289454 0.36148852
-0.37620687 -0.12825538 0.33680695 0.47910333 -0.478847 0.083670884 0.22511832 0.38754502
-0.43022436 -0.24395944 0.5800905 -0.5671206 -0.28315207 0.028149145 0.3800242 -0.3528096
0.27078277 -0.21245176 0.43600357 0.056961987 -0.020063585 0.38581127 0.32438678 0.5579621
-0.35141414 -0.08523273 -0.46703508 0.3370525 0.5355572 0.1775194 -0.33666313 -0.23801062
-0.14710441 -0.40350074 -0.13956754 -0.39767084 0.06011129 -0.4252906 0.56443197 -0.41769704
0.42700368 0.009694282 0.44016257 0.27495846 -0.5408952 0.34092903 0.4132322 -0.5747027
-0.25476536 -0.1450183 0.09383144 -0.07913656 0.43145585 0.51839787 -0.15576749 0.41359824

weight f4 [1, 256]
00000000: 0441 2c3d 2489 28bd 4721 b5ba 9bc5 8dbc
00000010: 0210 ce3c bec9 34bd 92e2 6fbd c459 a83d
00000020: 2a72 01bd 564a 703c 4697 2bbd cc9d 6b3c
00000030: 48be 14bd ae7d 2e3d bf79 703c e7ed 3c3d
00000040: 5d0b ce3c 0481 a7bc 31e6 d4bc e987 6a3d
00000050: b518 5fbd 637e 033d c962 46ba 1e17 8a3d
00000060: de3c 863d 5725 a53b fd2c babd 1e7f 013d
00000070: 881c 34bd f2f2 2fbd 596c c83c e15b 40bc
00000080: 18ad 4b3d ca88 833d f8ae 2cbd 7db8 13bc
00000090: b65a 00bb 2d89 55bd a6e1 243d aeeb f13a
000000a0: 0289 be3c e384 c0bc 7d23 9dbd b670 2a3d
000000b0: 4bfb 1ebd 082d 5f3a 44a1 f4bd 7191 a73c
000000c0: 5b5b 2a3e e541 26bd db31 393d b76d 883c
000000d0: 5646 54bd c21b 19bc 67b6 0abd e7e4 2abd
000000e0: f856 9c3d 5c8d 903d 3844 153d 7025 a1bd
000000f0: 69d2 583d 98f0 bb38 893a 8d3d c5b4 4ebd
00000100: eefa 033d 2abd 163c ccb6 4f3d 0314 023d
00000110: 3229 a8bc f775 e9bc 60bf 2bbc 3655 1abc
00000120: dafd 31bd 80aa 8c3c 3a65 88bb 67a5 413c
00000130: c341 8bbd 92f8 103d 5f4e 5abd c8df d93c
00000140: 2e82 5dbd 5891 d9bb 7e0f 653c aebd 953d
00000150: a2db 833b b2f9 9cbd 1a25 5c3d d88c 06bd
00000160: 0eb3 0abd 1e29 19bd a3a3 d33c 145a 283e
00000170: ecd3 083d 8d48 1fbd 1a69 983c 3416 82bc
00000180: 9eaf c23d 5103 15bd c917 2fbb 08c0 5bbd
00000190: 7661 b53d 1489 7ebb 9649 2bbc 9181 f93a
000001a0: 7a35 91bd fb87 4abc 2f60 e5bc 8570 3f3d
000001b0: 4617 023d 2687 803d 872b 223c f404 453d
000001c0: a0a7 0d3d eefb 6a3c 40cd 123d f313 0f3d
000001d0: d3c4 e43c 0025 503c 1ada 44bd a9a0 debc
000001e0: fcd9 4e3d 1bbc b03c 07c9 093b d1e9 4d3c
000001f0: 1a5e abbc fd1e 3bbd c2fa 2c3d 4702 433d
00000200: 228c 63bd 8b23 2fbd 5939 a63c 06be 2ebd
00000210: 117d 52bd 0c9d 3f3d fe4e 3abd 0e70 973b
00000220: 57d0 2a3d db46 853b a6c9 47bd 4582 8bbc
00000230: c2b3 d5bb 10b0 0cbb 0175 5eba e241 363c
00000240: d2ff f4bc 6067 90bc 688f 48bc 8354 363d
00000250: c610 b6bc 8b61 a4bc 9e07 463d a6ea ccbc
00000260: 17cc 663b 458c 2fbd 7e0f 653b c424 623b
00000270: 3b20 b2bb b90c 24be 94df 1fbd 784f c7bd
00000280: ffd6 3fbc e870 683d 2f35 c63c 0e65 c33c
00000290: 93fa 3fbd ad14 fd3c cd50 d9b9 3cb6 f6ba
000002a0: 977c 013d d4c8 443d 4092 863d 27f3 413c
000002b0: 8780 a0bd 1afc 753d 42f2 d4bc 0a93 583d
000002c0: ce3d 07be 076b 89bb 7c2e a53d b7a3 2f3d
000002d0: c168 313c 6383 dbbc 4e56 d83b 4afb 883c
000002e0: ca0d ec3c ff6b 32bd 01be 60bd 9d78 593d
000002f0: 7aae 7e3d bfee cf3c ea40 c33c e148 42bd
00000300: cb9e 10bc 5c64 14bd 8de0 f73c c229 0abd
00000310: 14e0 003d bd9d 993c 93ae 4e3d 2e29 efb9
00000320: 9046 62bd c80f 1bbd 99fd 36bd 13e5 0e3d
00000330: ccb1 533c 322d 7bbd f25e 94bd b99c 0e3d
00000340: 7934 863d eff9 e13b 857d 2fbd 4ada 36bd
00000350: 2610 5d3c 9a6f 323d 5a5b 8cbd a3ec eeba
00000360: 4e60 74bd 08a6 b73b 80f0 253c b469 a3bd
00000370: ff05 16bd 66c3 86bd e482 b2bb e6f4 db3c
00000380: 7370 2c3d f90e 6bbd 0781 89bc 0cff 89bd
00000390: 37cf d5bc f074 f93c 20a1 303d 4c5d 05bd
000003a0: 5110 193d b27d 90ba 800d b4bc 8b21 f53c
000003b0: ad53 19bd 9896 b8bc 6fb9 333b ef6e 6dbd
000003c0: 0315 afbc 5310 f43c a1e4 953c 1e06 f43c
000003d0: f0b9 2dbd b5a6 2fbd d7a0 29bd 5d42 493d
000003e0: 71ee e53d f7b7 acbc 9108 a6bc 4917 973c
000003f0: 6bb7 b5bc 1dbd b8bc ffcf 06bd 38bb 44bd
0.04205419 -0.041146412 -0.0013819122 -0.01730614 0.025154117 -0.04413771 -0.058565684 0.082202464
-0.031603016 0.014666161 -0.041892312 0.014380883 -0.03631428 0.042600326 0.014677464 0.04612532
0.025151903 -0.020447262 -0.02598867 0.05725852 -0.05446692 0.032102954 -0.0007567821 0.067426905
0.06554578 0.0050398516 -0.09090612 0.03161537 -0.043972522 -0.0429563 0.024465727 -0.011740656
0.049725622 0.06422575 -0.04215905 -0.009016153 -0.0019585318 -0.052132774 0.040254258 0.0018457079
0.02325869 -0.023500865 -0.076727845 0.041611396 -0.03881387 0.0008513485 -0.119448215 0.020455094
0.16636412 -0.040590186 0.04521356 0.016653879 -0.05182489 -0.009344997 -0.03386536 -0.041722205
0.076337755 0.07058212 0.03644201 -0.07868469 0.052935038 8.961669e-05 0.0689593 -0.050465364
0.032221727 0.009200374 0.050711438 0.031757366 -0.020527456 -0.028498633 -0.010482639 -0.00941973
-0.043454982 0.017171144 -0.004162458 0.01181922 -0.067996524 0.035393305 -0.053297397 0.026595965
-0.054079227 -0.006639641 0.013980744 0.07311569 0.004023985 -0.07664813 0.05374632 -0.032849163
-0.033862166 -0.037392728 0.025834864 0.16440612 0.03340523 -0.03888755 0.018604804 -0.015879728
0.095061526 -0.036380116 -0.0026717058 -0.053649932 0.0885648 -0.003883903 -0.010454556 0.0019035806
-0.07090278 -0.012361522 -0.027999965 0.046738166 0.031760477 0.062757775 0.009898073 0.048100427
0.034583688 0.014342291 0.035840273 0.034931134 0.027925884 0.012704134 -0.04805956 -0.027176218
0.050500855 0.02157407 0.0021024363 0.012567953 -0.020918895 -0.04568385 0.04223133 0.047609594
-0.055553563 -0.042758506 0.020291017 -0.04266169 -0.051388804 0.04678063 -0.04548549 0.0046215123
0.041702595 0.0040672845 -0.04877629 -0.01702989 -0.006521673 -0.0021467246 -0.0008486063 0.011124106
-0.02990714 -0.017627418 -0.012241222 0.04451419 -0.022224795 -0.020066043 0.048347108 -0.025014233
0.0035216862 -0.04285838 0.003495186 0.0034506777 -0.005435971 -0.16020478 -0.03903158 -0.09731954
-0.011708974 0.0567483 0.024195282 0.023851898 -0.046869826 0.030893648 -0.00041449667 -0.0018822621
0.03161296 0.048043087 0.06570864 0.011837757 -0.07837015 0.060054876 -0.025994424 0.052874602
-0.1320717 -0.004193667 0.08065507 0.04288074 0.010828198 -0.026796049 0.006602085 0.016721386
0.028815169 -0.043560024 -0.0548687 0.05309354 0.062178113 0.025382398 0.023834664 -0.047432784
-0.008826922 -0.036228523 0.030258441 -0.03373123 0.031463698 0.018751973 0.050459456 -0.00045616314
-0.055243075 -0.037856847 -0.044675443 0.03488643 0.012920808 -0.0613224 -0.07244672 0.03481743
0.06552977 0.0068962495 -0.042844314 -0.04464177 0.01349262 0.043563463 -0.068533614 -0.0018228482
-0.059662156 0.0056045093 0.01012814 -0.07979146 -0.036626812 -0.06580238 -0.0054477323 0.026850175
0.042099427 -0.057387326 -0.016785158 -0.067380995 -0.026099784 0.030451268 0.04312241 -0.032559678
0.037369076 -0.0011023788 -0.021979094 0.029923221 -0.037433315 -0.022532746 0.002742376 -0.057967123
-0.021372324 0.02979294 0.018297495 0.029788073 -0.042413652 -0.042883594 -0.041413154 0.049135555
0.1122712 -0.021083815 -0.020267757 0.01844372 -0.022182187 -0.022551114 -0.032913204 -0.04803011

weight f4 [3, 1]
00000000: 18fb e53e 9d42 fdbe 2877 913d
0.44918132 -0.49464884 0.071028054

bias f4 [3]
00000000: d9d9 2e3e fd7b 28bf ea34 a0bd
0.1707529 -0.6581419 -0.078225926

weight_ih_l0 f4 [256, 3]
00000000: 139e 5abd c583 c6bb aa2b c5bc 2039 a9bc
00000010: 489f 5e3d 73d7 5abd 2ebc 923d 82a1 92bd
00000020: 0665 853d 4159 3b3d a07c 45bd 8108 c4bc
00000030: ba43 86bd a41a 4e3d 3643 2ebc 85b5 3d3c
00000040: b477 053d 94c2 0cbd 42ba 61bd de22 2abd
00000050: acb6 63bd c9b7 24bd 8a7e 66bc 062a 9dbc
00000060: 8259 423d 6188 62bd 5d6d 58bc 3e10 43bd
00000070: 3efd 113c 864b 0d3a d935 3fbc 1b4a 8c3c
00000080: fa57 c6bc 8ada 213d ee26 1ebc a36e 81bc
00000090: c6cb 06bc 7a68 16bd f2b3 f03c fcf1 0cbb
000000a0: 8c12 edbc 7328 5bbc f811 043d 3d5c 093d
000000b0: 0d75 f43c d54b 4f3d 67e7 3f3d 9698 7f3d
000000c0: 2633 ffbc 86f7 7e3d db75 783c 3609 603c
000000d0: e020 5a3c 1a81 4a3d 0163 4b3c 85a7 843d
000000e0: f81d ccba 2e3d a3bc 2d5f 933d 7bbc 973c
000000f0: 64f9 75bc e684 2cbd d67c c63c 46b9 5d3d
00000100: e2e4 8dbc 2c98 1ebc faf0 ecbc 0cc6 c33c
00000110: e427 ffbc 04de c53c e51b 443d 949f 003d
00000120: 45f6 943c 1f72 37bd ec0f edbc bc76 94bd
00000130: 77d9 593d b760 18bb d0eb dfbc 0c69 5f3d
00000140: 0cd5 9abd 6255 3abd 71d0 6e3d d113 6abc
00000150: 395f 133d 5280 743b 313e 97bc cd40 1d3d
00000160: 4017 413c b474 e2bc d05e bebb 761d 98bb
00000170: 6cd2 9f3c 79ca 5ebd 4be0 583d d638 ae3c
00000180: 6e5f 73bd 048d 1b3d 658d 753c 2883 93bd
00000190: 9f6b 13bd dd80 79bc 637f a13b 25e0 083d
000001a0: d26b 003c 32e8 4c3c 940e febc 09ba 03bc
000001b0: f313 973c 04d1 1a3d 58a1 723d 12f8 68bc
000001c0: 231c 393d b41d 1c3d 1468 14bc cffd 953c
000001d0: fd33 b0bb e1bd 323d d8dc cb3c fc5c 543d
000001e0: a40b a5bd ea50 0fba cf30 08bd 45b2 d13c
000001f0: e7c3 e63c 6835 b13c 0084 95bd 15ac 04bd
00000200: 8782 63bd 38fd d7bb 8f0d 053d 7992 44bd
00000210: 0b4f 52bc 45b1 ee3b 3bf4 56bd b70c 343c
00000220: 6587 163d 8757 3cbd ba49 a73d 61d8 c33c
00000230: bb12 be3c 86a3 543d 4294 5fbd d3a7 733c
00000240: 3524 803c 001c 5b3d f77a 433d 6318 08ba
00000250: 65e3 2b3a 49cf 59bd ecfe 003b 067e 413d
00000260: e522 59bd c24e 8c3d a0a7 5b3c b7c0 353d
00000270: 8b8a b6bc 0a29 fc3c e7c4 55bd 0095 8fbd
00000280: 1cfe 883d 51a3 71bb f755 4c3c de1c d1bc
00000290: 8542 5a3d a0d7 593d c270 a2bb 1b88 3dbd
000002a0: 0c86 393d 9ec9 68bd cc9f abbc 7509 0c3d
000002b0: 6751 3dbd 1f07 803d 74f8 b1bb edcd 55bd
000002c0: 0b53 15bd 5e50 2a3d e43e fe3c b9f4 afbb
000002d0: 7afc 7cbd 5275 7e3d 8383 6fbd 6fa8 623d
000002e0: 37d5 14bd 0027 2bbc 7091 ee3c 1c29 0b3d
000002f0: bdb1 593d a6a5 84bd 972f f6bc 77c9 7cbd
00000300: b4bd 863d fedb 673b e026 00bd 93f4 51bd
00000310: d9ef d8bb f1ef 7fbd 7927 673d 0d32 c03c
00000320: b174 183c 43d9 2bbc d638 22bd e270 78bd
00000330: 3076 4c3d 732b debc 2c76 8a3d 9449 53bd
00000340: 44c3 753c 0a12 67bd 76da 9a3d ac77 f7bc
00000350: 4f65 e6bc 925e ea3c 8627 8cbd a1de 32bd
00000360: 826d 60bd d41f 19bd 414a 8dbd 4d14 4b3d
00000370: a888 5dbd f933 6d3d 7744 a73c 26f5 62bd
00000380: 5e4c fc3c afe3 743d 99a0 643c 3c16 5d3d
00000390: 4b72 483d 7e80 aebc 47c4 45bc 5b1f 323d
000003a0: 1c08 603c c1ad 49bc 19ce 1bbd a556 b63c
000003b0: a8d6 71bc 8eb9 04bd b6d1 81bd 45fb d43c
000003c0: f229 8c3d 8118 97bb a6e5 10bd 580e 18ba
000003d0: 07d7 763d 4e8a 73bd a9a8 6e3d 78fb 5d3c
000003e0: 74ce 53bc f087 89bd 961d 203d bdf9 5cbd
000003f0: 4529 033d 4c7b 89bd 283c 993c 495a d7bb
-0.053373408 -0.0060581886 -0.024068672 -0.020657122 0.05435112 -0.053428125 0.07164799 -0.071597114
0.06513409 0.045739416 -0.048214555 -0.023929836 -0.065558866 0.050318375 -0.0106361415 0.011578922
0.03258486 -0.03436525 -0.05510927 -0.04153716 -0.05559413 -0.040214334 -0.014068255 -0.019185077
0.047448643 -0.055305842 -0.013209668 -0.04762291 0.008910475 0.0005389977 -0.011670553 0.01712518
-0.024211872 0.039515056 -0.009652836 -0.015799826 -0.008227294 -0.03672073 0.02938268 -0.0021506539
-0.028939508 -0.013376343 0.0322437 0.03353523 0.02984097 0.05060943 0.04685154 0.062401377
-0.03115232 0.062247775 0.015164818 0.013674071 0.013313502 0.049439527 0.012413741 0.06477264
-0.0015572896 -0.019926634 0.07195888 0.018522492 -0.015013073 -0.04211893 0.024229448 0.05413177
-0.017321054 -0.009679835 -0.0289235 0.023898147 -0.031146951 0.024153717 0.047878165 0.031402186
0.018183837 -0.04478657 -0.028938256 -0.07249209 0.053185906 -0.0023251006 -0.027334124 0.05454354
-0.07560167 -0.045491584 0.058304254 -0.014286951 0.035979483 0.003730793 -0.018462272 0.038391877
0.011785328 -0.027643539 -0.0058096424 -0.004642184 0.019509517 -0.05439231 0.052948277 0.021267336
-0.05941718 0.03797628 0.014987324 -0.072027504 -0.035991307 -0.015228477 0.0049285158 0.033416886
0.007838206 0.012506532 -0.03101281 -0.00803996 0.01844213 0.03779699 0.0592359 -0.014219301
0.04519285 0.038114265 -0.009058017 0.018309502 -0.0053772912 0.043638114 0.02488558 0.05184649
-0.08058861 -0.0005467074 -0.033249673 0.0255977 0.028169585 0.021631911 -0.073005676 -0.032390673
-0.055544402 -0.0065914653 0.032483634 -0.04799125 -0.012836228 0.007284316 -0.05247901 0.01098936
0.036750216 -0.04598191 0.08168359 0.023906888 0.02320229 0.05191376 -0.05458475 0.014871555
0.015642265 0.0534935 0.04772469 -0.0005191622 0.0006557017 -0.0531762 0.0019683195 0.047239326
-0.053011794 0.06850959 0.013406664 0.04437324 -0.02228286 0.030781288 -0.052189734 -0.07010841
0.066890925 -0.0036871026 0.0124716675 -0.02552646 0.053286094 0.05318415 -0.0049572894 -0.04627238
0.045293853 -0.056832902 -0.02095022 0.034188706 -0.04622021 0.06251358 -0.0054312292 -0.05219834
-0.03645615 0.04158055 0.031035848 -0.0053697494 -0.061764218 0.062123604 -0.05847503 0.055336412
-0.03633615 -0.01044631 0.029122084 0.03397475 0.05314802 -0.064769074 -0.03005199 -0.06171557
0.06579152 0.0035378928 -0.031287074 -0.051258635 -0.006620389 -0.062484685 0.05643413 0.023461366
0.009305165 -0.010488811 -0.039604984 -0.06065453 0.0499174 -0.027120328 0.06760821 -0.05158384
0.015000168 -0.056413688 0.07561199 -0.030208431 -0.02812448 0.028609548 -0.06843476 -0.043669347
-0.054791935 -0.03738387 -0.068989284 0.049579907 -0.054085404 0.057910893 0.020418389 -0.055409573
0.030798133 0.05978745 0.013954305 0.053976282 0.048937123 -0.021301504 -0.012070722 0.043486934
0.013673808 -0.012309493 -0.038038347 0.022258112 -0.014760651 -0.03240352 -0.06338827 0.02599872
0.06843938 -0.0046110754 -0.03537526 -0.0005800477 0.06026366 -0.05945807 0.058266316 0.013548724
-0.01292764 -0.06715381 0.039090715 -0.053949106 0.03202178 -0.0671297 0.018705443 -0.006572042

weight_hh_l0 f4 [256, 256]
00000000: ed36 003d 0140 5dbc 6db3 27ba a5a8 33bd
00000010: 7981 8e3b fd10 2f3c aeb8 f03c ea57 d33c
00000020: d219 63bd 87d4 333d 7b3b 49bd 1cb2 973c
00000030: de14 6fbd 46bc 47bd d7aa b43c 2c85 4dbd
00000040: 41af 873c 4d66 ae3c e6bd 2cbd 759e df3c
00000050: 8287 113d ec85 bfbc 8917 6fbd a8fa 5abd
00000060: b0ee cbbc 45de 6cbc 4639 e73c 70b5 91bc
00000070: 050c 2c3c 3aaf 18bc da16 92bd bd8e 38bd
00000080: 19c1 893d c187 e8bc 9f38 93bb f4ad 06bc
00000090: 2057 153d 2bc6 e7bc a65a 43bd 891e 783d
000000a0: df38 4a3d bff1 20bd ea65 58bd bea3 dbba
000000b0: e9a7 42bd 5628 fa3c b26d 053d d210 e43c
000000c0: 706b cabc 222e 93bc 6254 493d 34f3 823b
000000d0: 5533 fabc c1ce 19bc fff2 b23c c84c 97bc
000000e0: 3c3e 5fbd 1e67 e9ba b1a1 913c 82f4 66bd
000000f0: 27a2 b7bc b6cd 13bc 2e9d 633c 01aa 973c
00000100: c524 8139 e451 193d 9cc4 aebc e12a e5bc
00000110: e28e e23a 7c78 1abd ecdc 86bd 03fc 4bbc
00000120: 4490 d23b 9959 463d 3b4a 68bc 37fa ac3c
00000130: 56af 84bd d187 68bd bb1b ddbc 5802 43bb
00000140: c3ae c4bc 789a 32bd 484a 5ebd b594 023c
00000150: ee8d c7bc d931 9f3c f84b 8c3c 1a5a 1ebd
00000160: 3b81 60bd 31e0 2a3c 83ec 18bd d758 9bba
00000170: 4a62 85bd 5c20 fdbc 5b78 0d3c 7d5c 5e3d
00000180: ac33 4b3d 5394 2c3d df8d 60bd 8b9b 89bc
00000190: 427a 263d 3920 233d 0fbd 763c d603 18bc
000001a0: 8670 703d aaa6 413d 6396 1f3d 6ea5 19bd
000001b0: 3124 1fbd c72b ddbc 9b7d 9bbc 612b b4bc
000001c0: 97ed 213d 3c3e c5bc 589b 013d 8830 17bc
000001d0: 72ba 803d 2280 8d3d e3dd 8c3c de07 20bd
000001e0: 456b e6bc c65c 643d 4fad 043d 2a6e 8c3d
000001f0: 61c3 033d 470a e5bc 55a1 473d 5abb f5bb
00000200: fef0 473d 39e3 2d3d b758 b2bc 1f2f 8cbd
00000210: 7002 eebc d441 0bbd 6ff7 b2bc 5707 623d
00000220: 78a5 13bd 13aa 04bd afe6 c63c fdee 373d
00000230: 0d5d b2bc 6ff8 1c3d b01d 64bd e2f8 6ebc
00000240: 5766 06bd 77dd 20bd 62c2 7d3d e394 05bd
00000250: ad6a bfbc 3580 f4bb 438a 13bd 0163 123d
00000260: 6115 9bbc ed19 6b3d 2608 c4bc 512d eebc
00000270: ecc1 333d e354 89bd 396f 803c bfa5 be3c
00000280: 4283 123c dd48 82bd db1d 113d e229 ce3c
00000290: 01bd c5bc 6e8b e03b aea7 643c f52d 2d3d
000002a0: d85c fe3b e4a3 20bc f2dc 6c3d 8767 3b3d
000002b0: 3e8e 583d d757 4cbd 7e32 bfbb f547 b93b
000002c0: 9fc4 1b3d 0692 9c3c 6793 8a3d a7f2 a6bc
000002d0: 5a8d b4bb d43a a5bc 0adc 583d 527c 003d
000002e0: 5dc7 6fbd 77ab 3fbd 5647 b23c 0df1 f1ba
000002f0: 7ad9 20bd d943 db3c 946e 343d ca08 57bd
00000300: 6b4e 393d 6a55 ecbc f5bf a83c ab9c f13b
00000310: dbb1 68bc 541a 47bd 71f5 36bd f3d1 51bd
00000320: 6848 09bd cf7e e6ba 1b73 cb3b 291a 7b3d
00000330: 4d4e 54ba f73f 863a 1bb0 8ebd ec83 61bd
00000340: 66c7 0239 d235 2bbd 2f4c 73bd bc53 49bd
00000350: ee10 0c3c a321 343d 1acd f53c 6a2c 5abd
00000360: ab7b 2e3c a713 8fbc 577c 15bc 850e b33c
00000370: a88e 273d cd26 003d 13a9 433d 0d6a 45bd
00000380: 2bdb e63c 03b2 71bd 476b 0ebd 0bb6 cfbc
00000390: fc30 2ebd 8704 773d d11f 3bbb 56db c3bc
000003a0: 2449 e03c 1999 febc cf1f b3bc ca26 a7bb
000003b0: 9721 063d b141 c43c 7a40 85bd e6d1 6b3d
000003c0: 4a59 063d e255 cebc 3de1 943c f7ab 703c
000003d0: 04a5 043c 85e8 99bc c0b7 3d3d 364b 83bd
000003e0: 8f70 463d 9f00 b03c 8586 d8bc 2263 0abd
000003f0: bba0 d23c 6876 cb3b 496c 8abc 7476 5bbd
0.03130238 -0.013504029 -0.0006397281 -0.043862004 0.0043489304 0.010685203 0.029384937 0.025798757
-0.055444546 0.043903854 -0.04912899 0.018517546 -0.05836951 -0.048763536 0.022054119 -0.05017583
0.01656306 0.021289015 -0.04217329 0.027297238 0.03552962 -0.023379289 -0.058372054 -0.0534617
-0.024894089 -0.01445729 0.028225552 -0.017786711 0.010500913 -0.009319121 -0.07133265 -0.045058
0.067262836 -0.028385045 -0.0044928337 -0.008220185 0.036460042 -0.028292736 -0.04769387 0.060575996
0.049370643 -0.039293047 -0.052831568 -0.0016757173 -0.047523413 0.030536812 0.032575317 0.027840052
-0.024709433 -0.017966334 0.04915274 0.003996277 -0.030542055 -0.009387673 0.021844385 -0.01846923
-0.05450271 -0.001780722 0.017777296 -0.056385525 -0.022416187 -0.009021213 0.013892455 0.018513681
0.00024632193 0.037431613 -0.021333985 -0.027974548 0.0017285014 -0.03771256 -0.06585106 -0.012450221
0.006425889 0.04842529 -0.014177854 0.021115405 -0.06478755 -0.05677015 -0.026990762 -0.0029756036
-0.024009114 -0.043604344 -0.05427006 0.007970025 -0.02435967 0.019432949 0.017126068 -0.038660146
-0.054810744 0.010429428 -0.03733493 -0.0011852038 -0.06512888 -0.03089922 0.008634652 0.054287422
0.049609825 0.04213364 -0.0548228 -0.016797801 0.040643938 0.03982565 0.0150597235 -0.009278258
0.05870106 0.047278084 0.03896178 -0.03751128 -0.038852874 -0.026998414 -0.018980792 -0.02199334
0.039533224 -0.024077527 0.031642288 -0.009227879 0.062855616 0.06909205 0.017195648 -0.039070003
-0.028127322 0.05575254 0.032391842 0.068569496 0.03216875 -0.027959002 0.048737843 -0.0074991407
0.048813812 0.042453025 -0.021770818 -0.06844925 -0.029053897 -0.033998325 -0.021846501 0.05518278
-0.036046475 -0.032388758 0.02427992 0.04490565 -0.021772886 0.038322862 -0.055692375 -0.0145857055
-0.032812443 -0.039273705 0.061952956 -0.032612693 -0.023366297 -0.0074615725 -0.03602053 0.03573895
-0.018931093 0.05739777 -0.023929667 -0.029074343 0.04388611 -0.06705644 0.015678035 0.023272393
0.008942427 -0.06361554 0.035428863 0.025166456 -0.024137976 0.006852559 0.013955994 0.042280156
0.0077625327 -0.0098047 0.057827897 0.04575303 0.052870028 -0.049888458 -0.0058348766 0.00565433
0.03802931 0.019112598 0.06766396 -0.020379378 -0.0055100145 -0.020169653 0.05294422 0.03136856
-0.058539737 -0.04679438 0.021762531 -0.001845868 -0.0392699 0.02676575 0.044050768 -0.052498616
0.0452408 -0.028849322 0.020599345 0.0073734126 -0.01420256 -0.048609093 -0.044667665 -0.051225614
-0.033516318 -0.0017585399 0.00620879 0.061304245 -0.0008098826 0.0010242452 -0.06967183 -0.05505745
0.00012472048 -0.041799374 -0.059398826 -0.04915212 0.008548958 0.04397739 0.030005027 -0.053265013
0.010649602 -0.017465426 -0.009123883 0.02185751 0.040907532 0.031287003 0.047768664 -0.04819684
0.02818068 -0.059007656 -0.034770276 -0.02535536 -0.042527184 0.060307052 -0.00285529 -0.023908298
0.027378626 -0.031078862 -0.021865753 -0.0051010596 0.032746878 0.023957105 -0.065064386 0.05757322
0.032799996 -0.025187436 0.018173808 0.014689437 0.008095983 -0.018787632 0.046317816 -0.0641083
0.048447188 0.021484671 -0.026431331 -0.033785947 0.025711408 0.0062091835 -0.016897338 -0.053579763

bias_ih_l0 f4 [256]
00000000: cb97 97bc ee57 373d ec29 583c 31d8 103d
00000010: 7dbf e53c a4ee a9bc ee67 133d cf46 01bd
00000020: 910f 233d 3fc4 70bd 93e2 9dbb 9935 42bd
00000030: a3f2 25bd 3046 3f3d ed42 e43c fbde 773c
00000040: 4111 23ba b570 84bc 6eb7 0a3d 2cb4 823c
00000050: ab56 d83c eb3e f43c b130 503d 0cff fa3c
00000060: 8fb4 833d 8f77 7a3c 2125 3fbc 208a 58bd
00000070: d1e8 18bd 3ab1 5fbd 336e fb3c 99de 8d3b
00000080: 794f 07bd 3310 44bc 889d 5e3c 6adc f53c
00000090: e5ef 553d bdff 083c 1d63 b33c 3623 893b
000000a0: 49d3 98bc 7feb 75bd 56e7 43bc b48a 9bbc
000000b0: 0397 403d 7c6f a7bc ca1c 13bd 7e5b 1ebd
000000c0: 3c5b 483d 6c97 fa3c d0d2 35bd c1b2 783b
000000d0: cab3 cd3c 5068 123d 2333 ff3b 19e8 67bd
000000e0: c152 353d 530c 53bd 914c 4bbd 1e54 873a
000000f0: eff1 f3bb 39c5 10bd c184 dfbb 12de 52bd
00000100: 6111 783d f418 fdbc e787 923b 52ee 4fbd
00000110: dceb 1e3d aad5 b7bc c640 2b3b 25d2 803d
00000120: 7805 20bd 6f78 853c 6507 dc3c a638 383d
00000130: cd26 333d 1fa9 82bd d893 813c 0b98 e8bc
00000140: cb8e 2b3d 8640 713d 7966 8a3a 5197 4d3d
00000150: aff1 383d ed8e 46bd 3641 dc3c 4dab 7f3d
00000160: d805 1d3d 6d9f d9bc dda8 15bd 8cd3 263d
00000170: d4f2 12bd 6b7d a0bc 48e5 2cbd e8b7 15bc
00000180: a785 65bd 647d 64bd ce9e 0b3d 2e70 c1bc
00000190: 4b85 d93c 33c8 f23b 7c38 713d 88d8 113d
000001a0: ca75 fc3c ef0c cabc 8905 7f3c 9451 3e3d
000001b0: 80a0 d53c 3305 bf3c ae59 57bd 5509 94bc
000001c0: 7ff0 db3c 9d56 e73c 91dc d73c c1f7 21bd
000001d0: 576c 25bc 88f0 ef3b 689e fd3c 03fe 453d
000001e0: 3530 53bd 787f d1ba c047 5abd 7e6d 43bd
000001f0: 10a5 ecbc 46f2 323d 5c7b 3d3c 64c1 3a3d
00000200: d1bb dbbc f586 e9bb 15b4 843c 9526 14bd
00000210: d016 833b 8eb6 7d3c e4a8 6fbd cc19 5fbc
00000220: 2892 00bc 63d0 28bd 19ca 043d 8fee 1bbd
00000230: a77e 0c3c 32bb e0bc 20c5 003d e5db 1f3d
00000240: 9804 39bd e673 fb3c 8a31 4fbd 9cea 9dbc
00000250: 77e0 7abd 8a17 4f3d c15b 013d 0a9a ae3c
00000260: 7ea4 08bb e4f7 d9bb daa7 e6bc dcd3 06bc
00000270: 900f 5d3c 924f 613b ad00 083d 1718 6dbd
00000280: e9dc 713d eaab 8dbc 5848 3d3d 47e3 4a3c
00000290: 6429 603d bece f6bb fb84 4ebd 1e40 2d3d
000002a0: 630f a7bc a529 0f3d 7f0c 22bd 07d4 b739
000002b0: 545c 4dbd d83e 3f3c b8b4 6a3b 5e05 60bd
000002c0: 0bb6 503d b0e7 2ebd 7123 6dbd d4c2 1d3d
000002d0: b89d 443c 2633 69bb 39c4 303d e8a0 47bd
000002e0: 26af 5dbd 30cd 3fbd 0fa6 11bd 5c15 5dba
000002f0: 7b83 683d 4b0d eb3b 469e 503d eefa 363d
00000300: 4e2f 08bd c076 823d 1b12 72bd 742b 7cbd
00000310: af7f 8e3c 01ac 423d 8e8c 29bd ab89 21bc
00000320: ca2b f1bc a077 46bd 710d 623d 26f4 32b7
00000330: c682 65bd 5cf1 40bd f1f6 c63c 97e8 45bd
00000340: 4d48 623c f023 12bd d85f a53c 3d13 0dbb
00000350: 8aa7 8f3c 11c3 3b3d dd50 72bc 6f0f 5bbc
00000360: 0ab4 5dbd d2c4 84bd 3fe6 773c 07d3 7d3c
00000370: 9401 3a3c 030f ce3c cca1 1dbd 0719 d33c
00000380: e1e7 213d dce4 bdbb 4c29 76bd 33bb c3bc
00000390: d259 783d f625 77bd b40d 6b3d dc16 3dbd
000003a0: 891a 293a 1898 65bb ad98 48bc 62d0 3b3d
000003b0: c0c6 b9bc 3ac5 f93c fa3b 593d b6ac 25bd
000003c0: 9839 763d b1ba 0dbd 5fbf 81bd 9ac6 49bd
000003d0: 8db3 44bd a539 f23c 1ec7 4cbd c6fd 80bc
000003e0: b408 ac3c ad62 6e3c 18c9 233d df80 043d
000003f0: b6ec 70bb 83c7 56bd 638d fb3c c8fb 673d
-0.018504998 0.04476159 0.013193589 0.035362426 0.02804541 -0.020743676 0.035987787 -0.03156167
0.039809767 -0.058780905 -0.0048182695 -0.047414396 -0.0405146 0.046697795 0.027863944 0.015128846
-0.00062205276 -0.016167024 0.03386634 0.015955053 0.026408514 0.029815158 0.050827686 0.030639194
0.06430923 0.015287294 -0.011666567 -0.0528661 -0.037331406 -0.054612376 0.030692196 0.004329514
-0.033034775 -0.011966753 0.013587363 0.030012328 0.052230734 0.008361754 0.021897847 0.0041851057
-0.018655436 -0.06003904 -0.01195701 -0.018987037 0.047019016 -0.020438902 -0.035916127 -0.038661472
0.048915133 0.030589782 -0.0443905 0.0037948343 0.025110144 0.03574401 0.0077880784 -0.05661783
0.044268373 -0.051525425 -0.049633566 0.0010324751 -0.007444612 -0.035344336 -0.0068212454 -0.051481314
0.06056345 -0.030895688 0.004471767 -0.05076439 0.03879915 -0.02244075 0.0026131137 0.06290082
-0.039067715 0.016292779 0.026858995 0.0449759 0.043738175 -0.063799135 0.015817568 -0.028392812
0.041884225 0.058899425 0.0010559104 0.050193135 0.045152362 -0.04847615 0.026886564 0.062419225
0.03833565 -0.026565278 -0.036537994 0.04072909 -0.03587611 -0.019591054 -0.042210847 -0.009138085
-0.056035664 -0.055783644 0.034086995 -0.023613062 0.026552817 0.0074091195 0.05889176 0.03560689
0.030817885 -0.02466437 0.0155652845 0.046464518 0.026077509 0.023317909 -0.05257576 -0.018070856
0.026848076 0.028239543 0.026350291 -0.039542917 -0.010096631 0.0073223747 0.030959323 0.048337948
-0.051559646 -0.0015983423 -0.053291082 -0.04771184 -0.028887302 0.04368808 0.011565056 0.045594588
-0.026822956 -0.007126684 0.016199151 -0.036169607 0.004000522 0.015485419 -0.058510676 -0.01361699
-0.007847346 -0.041214358 0.032419298 -0.038069304 0.008575118 -0.027433012 0.031437993 0.039028067
-0.045170397 0.030694913 -0.050584354 -0.01927691 -0.061249223 0.050559558 0.031581644 0.021313686
-0.0020849998 -0.0066518653 -0.02815621 -0.008229222 0.01349248 0.0034379703 0.03320377 -0.057884302
0.059048567 -0.01729389 0.04621157 0.012383289 0.054726973 -0.00753197 -0.05041979 0.042297475
-0.02039308 0.034951825 -0.0395627 0.00035062453 -0.05013688 0.011672698 0.0035813283 -0.05469262
0.05095486 -0.042701423 -0.057895128 0.03851588 0.012000494 -0.0035583465 0.043155883 -0.048737437
-0.054122113 -0.04682654 -0.035558756 -0.0008433664 0.056766015 0.0071732155 0.05093219 0.0446729
-0.03324824 0.06370306 -0.059099298 -0.061564878 0.017394869 0.047527317 -0.04139381 -0.009859483
-0.029439826 -0.048453927 0.0551886 -1.0666472e-05 -0.05603292 -0.04710518 0.024287673 -0.048317518
0.013811183 -0.035678804 0.020187303 -0.002152636 0.017535944 0.045840327 -0.014789787 -0.013370379
-0.054126777 -0.06482853 0.015130579 0.015492207 0.011352915 0.025153643 -0.03848438 0.02576877
0.039527778 -0.0057951044 -0.060097978 -0.023892974 0.060632534 -0.060338937 0.057386115 -0.04616438
0.00064507924 -0.0035033282 -0.012243432 0.045853026 -0.02267778 0.030489553 0.053035714 -0.040447913
0.06011352 -0.03460187 -0.06335329 -0.049261667 -0.048022795 0.029568503 -0.04999458 -0.015746009
0.021000244 0.014549893 0.0399867 0.032349464 -0.0036762184 -0.052436363 0.030707067 0.0566366

bias_hh_l0 f4 [256]
00000000: 12f1 2f3c c53a 873c c92f 64bd 22d6 883a
00000010: c13f 67bd b40e 4a3c 50e0 27bd 5653 73bd
00000020: 2547 26bd 4015 683d d6e7 cabc 0ca0 c03c
00000030: fb77 bebc 6a25 62bd 3c0e 45bd 30b1 96bc
00000040: b538 b5bc bd8d 333d bd38 9dba 71c0 773c
00000050: b899 9a3c 9cc5 703c ba49 18bd 41ab cbbc
00000060: 8e09 75bc a8f6 543d 9833 6e3d a74d b63b
00000070: 53c9 7c3d fe61 d53c adbf abbc 345a 49bb
00000080: dc98 3ebd 1bea 3cbd f5cd 79bb dbfb de3b
00000090: 7b5a 7e3d f303 5dbb eb50 663c 876c 2ebd
000000a0: 88ff ff3c ddb6 f7bc a1eb fabc b2a7 cc3b
000000b0: bd8f 2c3d 7ad8 4fbd a0ff 3a3d 2a0c c5bb
000000c0: 4d0b d53c 2fc7 043d 59f4 313d 93a6 d93c
000000d0: d610 91bc d243 78bd 581c 323d 20d0 2bbd
000000e0: 09b3 59bd 8859 c03c a8f9 4f3d 2028 52bd
000000f0: b14d 18bd 518a 2abb b68b ef3c d8cb 583c
00000100: 833e c5bc 7737 e9bc 2b41 003d 81d1 29bd
00000110: e3e3 bbbc 450b 5b3d 7df3 79bc 322c 743d
00000120: 5349 1cbd eebe 223c a0c3 00bb 1811 053c
00000130: 5d74 1b3d 8a35 93bc e13b f239 4e41 85bc
00000140: 38c4 323c 0536 333d 7dd0 4cbd a4cb e03c
00000150: eb67 0a3d 0376 28bd d4d7 a0ba 4ca7 e93a
00000160: 012a 49bd 9d07 b73c f239 8cb9 ddd8 15bd
00000170: e620 6c3d ad86 c63a 8974 9bbb 418d ac3c
00000180: 91bb 3cbd 631e 35bc 1f48 143d 85f8 bfbc
00000190: 2be6 593c a504 09bb 07a5 153d 87bd 08bc
000001a0: 6ed7 1b3c 2b29 f43c a3a1 6bbd c5d5 4bbc
000001b0: 518c 1b3d cdb7 7f3d 4e28 403d ab37 18bd
000001c0: 4595 1f3d 89ab bf3c 2cbe 2f3d e39b 27b8
000001d0: 83ff 60bd 18b2 a9bc 85e7 743d d493 4abd
000001e0: 0edd 483d 3e35 d0bc e4a5 7e3c a420 8cbb
000001f0: 1e2d 4e3d 7c76 98bb 4270 0f3d fd35 893c
00000200: 6ffc 31bc daed 243d dcc9 d43c bb1d e23c
00000210: 0225 73ba 0aae fd3c 8987 3dbb 9fbe 4cbc
00000220: 03c2 193d 7997 30bd 3370 7e3c 6ee1 893c
00000230: e3ff 07bd b61f 3ebd 49f7 bdbc 175d 94bc
00000240: 44ab 013d 385d 133c 3506 43bb 4c92 0e3d
00000250: 2015 293d 9dfa fd3c 81ba 54bd 599b 453d
00000260: e0b6 233d 8720 ab3c 84bb 5a3d fa85 17bd
00000270: 1b8e 823c ac23 5b3b 0b75 0fbd 6297 7bbd
00000280: 166c b7bc 5f33 353d 3442 56bd 7d39 043d
00000290: 06f5 583d 1299 05bb a355 acbb 0460 3dbd
000002a0: cdee 02bd 6121 5a3d a506 1f3d ee6c 6038
000002b0: e8fc 01bb 5904 c23c f2ed 023d 83f8 2b3d
000002c0: ed5d 493d 0188 16bd afca 6abd 2548 463d
000002d0: c475 ec3c 7da1 16bd ee71 493d f52e 453d
000002e0: 2dde abbc 25a8 c13b 6cc7 fbbc 803e 55bd
000002f0: 4dbc f8bc 06f8 5a3d 4ec5 6ebd 9fb3 2dbd
00000300: ac15 06bd d8f3 7c3c 1a1a 313c 6d2c 2c3d
00000310: 9b57 ec3c 2fdd bbbc 6eb9 37b9 6c39 bb3b
00000320: 8fa1 9fbc 0716 1fbb 0fdf 12bd e8eb 813c
00000330: d93b 36bd c144 9a3c b121 d6bc c8f3 593c
00000340: 892f 823b a0fd 4c3d eb8a 67bd e1b8 dcbc
00000350: e5a5 1abd bfa0 b3bc dd7f 303d f116 073d
00000360: 0489 1dbd 82b3 673d a222 7f3c 2096 823d
00000370: 2991 d03a 41db 97bc 21ea e43c bed9 143d
00000380: 3bf7 5b3d f879 e23c b057 80bd cad2 ed3c
00000390: cb92 1ebd 0ff0 89bc 3244 33bd ff3a b6bb
000003a0: 89b4 a7bc 896b 0bbd d714 633d b573 e33b
000003b0: ec71 0f3d 0283 84bc 14e6 b93c f0c5 a93c
000003c0: 8809 d3bb fa24 65bc ee44 913c 21e0 00bb
000003d0: 7bc2 a1bc cd83 bdbc 01e1 64bd 6ecc 0c3c
000003e0: 72b4 5ebc e6df a3bc 1b7a 683d 50fd 903b
000003f0: bc25 7d3d 7ae4 0abd 90cf 60bd 95b5 5abc
0.010738628 0.016507516 -0.055709634 0.0010439793 -0.056457285 0.012332607 -0.040985405 -0.059405647
-0.040595192 0.05666089 -0.024768751 0.023513816 -0.02325057 -0.055211462 -0.048109278 -0.018395036
-0.022121767 0.043836344 -0.0011995059 0.015121565 0.018872127 0.014695551 -0.037179686 -0.024861934
-0.014955891 0.051993042 0.058154672 0.005563456 0.061715435 0.026047703 -0.020965422 -0.0030723931
-0.046532497 -0.046121698 -0.0038117145 0.006804926 0.062098008 -0.0033724278 0.014057378 -0.04258397
0.031249776 -0.030238563 -0.030629935 0.006245577 0.042129267 -0.050743558 0.04565394 -0.006013413
0.026006365 0.03241652 0.04344592 0.026568687 -0.017708223 -0.060611553 0.043484062 -0.04194653
-0.053149257 0.023480192 0.0507752 -0.051307797 -0.037183467 -0.0026022384 0.029241424 0.013232194
-0.02407766 -0.02846883 0.03131215 -0.041459564 -0.022935813 0.053477544 -0.015255806 0.05961246
-0.038155865 0.0099332165 -0.0019647852 0.008121751 0.03795277 -0.017969865 0.0004620245 -0.016266491
0.01091104 0.04375269 -0.050003517 0.027440853 0.03379051 -0.04112817 -0.0012271353 0.0017826348
-0.049112324 0.022342497 -0.00026746053 -0.03658377 0.057648562 0.0015146338 -0.0047441167 0.021063449
-0.046077315 -0.011054608 0.036201593 -0.023433933 0.013299505 -0.002090731 0.036534335 -0.008345968
0.009511812 0.029804787 -0.057527196 -0.012441103 0.037975613 0.062431145 0.046913438 -0.037162464
0.038960714 0.023397224 0.04290597 -3.9961084e-05 -0.054931175 -0.020714805 0.059791107 -0.049457386
0.04903894 -0.025416013 0.015542481 -0.004276352 0.050335996 -0.0046527963 0.035019167 0.016749376
-0.0108634075 0.040265895 0.02597516 0.027602067 -0.0009275229 0.030966777 -0.0028919897 -0.0124966195
0.03753854 -0.043113206 0.01552968 0.016831126 -0.033203017 -0.04641696 -0.023189204 -0.018110795
0.031657472 0.008994393 -0.0029758338 0.03480749 0.041279912 0.03100329 -0.051935676 0.048243854
0.039969325 0.020889534 0.053401485 -0.036993004 0.015936902 0.003343801 -0.03502373 -0.061423667
-0.022390407 0.044238444 -0.05230923 0.032281388 0.052968048 -0.0020385426 -0.005259232 -0.046234146
-0.03196602 0.05325449 0.038824696 5.350721e-05 -0.0019834582 0.023683714 0.031965204 0.041985046
0.04916184 -0.036750797 -0.0573222 0.048408646 0.028864749 -0.0367751 0.049180917 0.048140485
-0.020979965 0.005909937 -0.03073474 -0.052061558 -0.030363226 0.05345919 -0.058293633 -0.04240763
-0.03273551 0.015438996 0.010809446 0.042034555 0.028850367 -0.022932617 -0.00017521318 0.0057136323
-0.019486217 -0.0024274604 -0.035857257 0.01585956 -0.04449067 0.018831613 -0.026139112 0.013302751
0.003972952 0.050046563 -0.056528967 -0.026943626 -0.037755866 -0.021927236 0.04309069 0.032980863
-0.038460746 0.056567676 0.015572222 0.0637629 0.0015912402 -0.018537166 0.027943673 0.036340468
0.053702574 0.02764605 -0.06266725 0.029031176 -0.03871421 -0.016838102 -0.043766208 -0.005561232
-0.020471828 -0.0340381 0.055439796 0.0069412836 0.035020754 -0.01617575 0.022692718 0.020724267
-0.006440345 -0.013985867 0.017733064 -0.0019664841 -0.019746056 -0.023134137 -0.055878643 0.008593662
-0.013592826 -0.020004224 0.056757074 0.0044247285 0.061803564 -0.0339093 -0.054885447 -0.013348957
