model.pt (torch, 282002 bytes, 11 tensors)

weight f4 [256, 3]
0.49336278 -0.4500352 -0.2965222 -0.2554592 0.03705346 -0.45376632 -0.095588796 -0.022605523
-0.2902663 0.5863043 -0.40411526 -0.12423106 0.4052952 0.31112957 -0.4789622 -0.108311564
-0.5991681 0.09440269 -0.03341086 0.3567486 -0.031881187 0.39652422 -0.23573616 -0.2495212
-0.16659684 0.2682109 0.10339556 -0.41372392 0.2757191 -0.29025418 -0.43903524 -0.13918418
-0.4050302 -0.022719713 0.018688533 0.6156379 -0.38995212 -0.57007307 0.08798556 -0.08185212
-0.16855614 -0.34431708 -0.13333203 -0.29699016 0.13806343 0.3270458 0.13794537 0.2625452
0.28545907 0.48750857 -0.051733997 0.6035745 0.12117105 -0.27528012 -0.072517656 -0.4918099
-0.2694078 0.40382612 0.02884995 0.064536184 -0.5376923 -0.317023 0.15666218 -0.4552729
0.14643258 0.42310563 -0.021131674 0.030619377 -0.46151352 -0.34374464 -0.39640892 -0.39248747
0.09506967 0.4931401 0.5297711 -0.11986372 0.19285968 0.1375298 -0.14603266 0.19921485
-0.40291902 0.24496391 -0.18016197 -0.39073345 0.20361573 -0.057489686 -0.011909695 0.20785688
-0.4618544 -0.51172656 -0.03310101 -0.14664546 0.13879883 0.4706494 0.23070766 -0.17283091
0.44992843 -0.3550608 -0.1742572 0.52535826 0.42040873 0.28753385 0.58357 0.026335511
-0.3448732 0.35272875 0.55189174 0.2906145 0.2603414 -0.4148833 -0.32443574 0.55004823
-0.1282994 -0.12944523 0.43248895 -0.2535537 -0.08903406 -0.51889247 -0.23903795 0.5426407
-0.40281376 -0.55808955 0.0022966554 -0.15509453 0.07957132 0.6072091 -0.3269935 0.41040334
0.09402093 -0.07723416 -0.04567881 -0.009490398 0.51194566 -0.1638791 -0.27039102 0.25397328
-0.27362868 0.20179138 0.015191477 0.36406514 0.43949893 -0.12487944 -0.0010240447 0.14576747
0.13832925 -0.52836066 0.36839074 -0.45323443 -0.46902934 0.018127643 -0.41057777 0.105285965
-0.116601735 -0.05957651 -0.3481392 0.11499948 0.0006528852 -0.14165092 0.55785626 0.13780226
-0.51684964 -0.2172532 -0.53018576 0.43199995 -0.39695895 0.12099841 -0.04891045 -0.16735232
-0.039456382 -0.110683784 0.045352012 -0.33774427 -0.447688 0.2823787 -0.4639104 -0.080352895
-0.37362722 0.10363792 -0.2180046 0.35409737 0.46946976 -0.42193 0.35195392 -0.14282884
0.12097018 -0.46442276 0.07191073 -0.42561388 -0.32166535 0.52597094 -0.18547608 0.5076932
0.17844701 0.25103495 0.24775301 -0.43688717 0.43890625 -0.5511627 -0.5916175 -0.262473
0.16666389 0.4072188 -0.4986194 0.3196781 0.12598889 -0.14684562 -0.09903659 0.51156765
0.22648908 -0.22084723 0.1750232 0.2247442 -0.51158786 -0.3363808 0.3337056 0.4304301
0.33254775 0.2933987 0.22233917 0.40865627 0.07186633 0.40889445 -0.17598978 0.22518528
-0.25211346 0.13216975 -0.5329659 0.21103454 -0.434402 0.27200595 -0.49939016 0.30598852
-0.38664564 0.60288763 0.102183506 0.33948225 0.26833782 0.22169898 -0.44935933 -0.006910546
0.058527354 0.14939764 -0.5237052 -0.42851812 -0.49636394 0.2592301 0.18962051 -0.4927254
-0.08102654 0.39248478 0.06371892 0.09119708 0.0042355903 0.29998446 0.012955689 0.029062383
00000000: 0c9a fc3e 046b e6be c2d1 97be 8ccb 82be
00000010: 5ec5 173d 0f54 e8be 0fc4 c3bd 382f b9bc
00000020: c99d 94be 0a18 163f 32e8 cebe db6c febd
00000030: da82 cf3e 604c 9f3e 893a f5be 74d2 ddbd
00000040: 1563 19bf 3356 c13d d3d9 08bd c1a7 b63e
00000050: d995 02bd 3905 cb3e d264 71be 7c82 7fbe
00000060: 5d98 2abe f052 893e 0dc1 d33d 9fd3 d3be
00000070: 0e2b 8d3e 329c 94be 3ac9 e0be 4c86 0ebe
00000080: 1e60 cfbe b11e babc b218 993c 729a 1d3f
00000090: cea7 c7be 4ff0 11bf c631 b43d 16a2 a7bd
000000a0: fb99 2cbe 544a b0be 3188 08be 180f 98be
000000b0: 8060 0d3e 8c72 a73e 8d41 0d3e 536c 863e
000000c0: b127 923e b99a f93e 07e7 53bd dc83 1a3f
000000d0: 8728 f83d 84f1 8cbe 2384 94bd 82ce fbbe
000000e0: d2ef 89be 4cc2 ce3e bb56 ec3c 8c2b 843d
000000f0: 34a6 09bf d750 a2be 0d6c 203e 8819 e9be
00000100: 6cf2 153e 4da1 d83e 551c adbc 7dd5 fa3c
00000110: 804b ecbe 4cff afbe 1cf6 cabe 1ef4 c8be
00000120: e3b3 c23d dc7c fc3e 149f 073f 1c7b f5bd
00000130: 027d 453e 9dd4 0c3e 9689 15be fafe 4b3e
00000140: 674b cebe d2d7 7a3e 617c 38be 370e c8be
00000150: a480 503e 4e7a 6bbd e220 43bc 6fd8 543e
00000160: 2e78 ecbe 8300 03bf ed94 07bd 3a2a 16be
00000170: 4821 0e3e f5f8 f03e a13e 6c3e 96fa 30be
00000180: 055d e63e 87ca b5be 7b70 32be e17d 063f
00000190: d03f d73e a337 933e d864 153f 92bd d73c
000001a0: 3893 b0be dd98 b43e c748 0d3f 6ccb 943e
000001b0: 784b 853e 956b d4be 711c a6be f6cf 0c3f
000001c0: eb60 03be 4a8d 04be 316f dd3e cad1 81be
000001d0: 7d57 b6bd 23d6 04bf 5dc6 74be 80ea 0a3f
000001e0: 9b3d cebe f5de 0ebf 7c83 163b 1ad1 1ebe
000001f0: 4af6 a23d 0e72 1b3f b16b a7be 6320 d23e
00000200: 0c8e c03d f12c 9ebd b419 3bbd 9d7d 1bbc
00000210: df0e 033f eccf 27be b170 8abe c908 823e
00000220: 0f19 8cbe 66a2 4e3e ace5 783c bf66 ba3e
00000230: 0106 e13e cbc0 ffbd 3d39 86ba 1144 153e
00000240: 2fa6 0d3e a542 07bf b69d bc3e 580e e8be
00000250: 9d24 f0be 6c80 943c 4037 d2be 2ba0 d73d
00000260: e4cc eebd 8006 74bd 4d3f b2be d984 eb3d
00000270: 6226 2b3a f00c 11be abcf 0e3f 091c 0d3e
00000280: 4250 04bf 9f77 5ebe 41ba 07bf 192f dd3e
00000290: 343e cbbe 04ce f73d 5356 48bd 685e 2bbe
000002a0: 049d 21bd 2eae e2bd 08c3 393d d1ec acbe
000002b0: 5d37 e5be f193 903e aa85 edbe 0f90 a4bd
000002c0: 114c bfbe 1e40 d43d 993c 5fbe 404c b53e
000002d0: 575e f03e 3507 d8be 4e33 b43e b941 12be
000002e0: 37bf f73d d2c8 edbe ef45 933d 10ea d9be
000002f0: 52b1 a4be 08a6 063f 71ed 3dbe 2ef8 013f
00000300: d0ba 363e a787 803e f7b2 7d3e adaf dfbe
00000310: 52b8 e03e 0019 0dbf 3f74 17bf dc62 86be
00000320: f0a9 2a3e fc7e d03e 0b4b ffbe d9ac a33e
00000330: 3b03 013e b35e 16be b2d3 cabd 19f6 023f
00000340: c1ec 673e c725 62be 4839 333e 5823 663e
00000350: 6cf7 02bf 1b3a acbe 76db aa3e 5661 dc3e
00000360: b343 aa3e 5b38 963e e1ac 633e 653b d13e
00000370: a82e 933d 9d5a d13e aa36 34be f896 663e
00000380: 0415 81be 8257 073e 7470 08bf 7019 583e
00000390: f069 debe 5d44 8b3e 11b0 ffbe 87aa 9c3e
000003a0: 6bf6 c5be d856 1a3f 9645 d13d 9ed0 ad3e
000003b0: 9363 893e 0f05 633e 6d12 e6be dd71 e2bb
000003c0: 61ba 6f3d b2fb 183e 8b11 06bf ba66 dbbe
000003d0: 6a23 febe cfb9 843e e12b 423e 8146 fcbe
000003e0: 3ef1 a5bd c4f3 c83e 117f 823d 89c5 ba3d
000003f0: b5ca 8a3b 9097 993e 1944 543c 3c14 ee3c

bias f4 [256]
0.07861079 -0.19085187 0.00079734664 0.23429206 -0.13735564 -0.0058728606 0.041814536 0.14334925
0.34421983 0.13880697 0.1594338 -0.4897102 0.45883662 0.37220564 0.07159824 0.3848943
0.388654 0.09613153 0.041302033 -0.272961 -0.43852276 -0.11409538 0.086205356 -0.34129828
0.38685042 0.28721377 0.20014302 -0.3171153 0.53562874 -0.39287165 -0.30684015 -0.13406837
-0.4809713 -0.54403335 -0.1986043 0.4043722 0.009609786 0.16917747 0.51085395 -0.19484708
0.04245181 -0.010104711 -0.23896842 0.32126683 0.2800505 0.2365402 0.17784381 -0.35330057
0.086982265 0.2798757 -0.071743466 0.490128 -0.34809884 -0.33316016 0.5506326 -0.5151868
0.3688063 -0.32170275 0.5268983 -0.08775069 -0.008596134 -0.38082 0.26980215 0.46281803
-0.22468857 -0.36850888 0.17850725 0.38441113 -0.16231792 -0.43560216 0.42558095 -0.3966166
-0.22923261 -0.52867746 -0.5520854 -0.19788812 0.39545983 -0.025466772 0.29445732 0.25431487
0.25654566 -0.40857568 -0.2895456 0.27542758 0.22723833 0.2993153 0.30798563 -0.34055623
-0.08803408 -0.14203157 0.030535087 -0.19189458 0.43616724 -0.3616414 0.15463103 -0.09801924
0.3693021 0.19624542 -0.22232889 0.08146512 -0.26415202 -0.52549547 -0.40095106 0.12006311
-0.3087473 -0.261535 -0.5710336 -0.31457874 -0.29416296 0.05676811 -0.36930305 -0.5500245
-0.26487494 0.2687316 -0.12828845 0.47851846 0.51591283 -0.39495715 0.17797025 0.38358465
0.12623295 -0.36586148 0.047579672 -0.30339488 -0.38871384 0.33228427 -0.2761044 -0.026601316
-0.39789537 0.27969816 -0.33589447 0.34336698 -0.023586016 0.116958 -0.50144696 -0.27389914
-0.05677038 0.27022263 0.39055663 0.0094043715 -0.16417573 -0.09730239 0.023694089 -0.534626
-0.32153016 -0.03546753 0.47016737 -0.09184132 -0.34527245 0.37878639 -0.2891758 0.5103394
0.34306014 -0.30878246 0.5242612 -0.25562683 0.30243286 -0.399193 0.5719227 -0.5048227
-0.4271474 -0.3123143 0.5309174 0.5594635 0.19122787 -0.03597164 -0.568126 -0.33437064
-0.25951296 0.24636962 -0.15008213 -0.032931317 0.10673836 -0.056334514 0.38065282 0.23457542
0.3537124 0.11755396 -0.5728982 -0.2566942 0.15772514 -0.13065378 0.21701378 -0.34126943
0.56936514 0.5221042 -0.07534547 -0.070351385 0.040187933 0.09734054 0.45138434 0.36292076
-0.1113099 -0.07551093 -0.051981743 0.502297 -0.31582096 0.46300218 -0.20212813 0.2520607
0.3928079 0.18982501 0.22486292 -0.018581998 0.42454728 -0.13987872 0.39985046 -0.032365847
0.42725807 -0.27485877 0.38558897 -0.3524776 -0.55094725 -0.06459473 0.36192548 -0.40776724
-0.19325 0.26178128 0.009678352 -0.08130479 -0.01930416 0.012787855 -0.4915333 0.026592731
0.48793945 -0.35603994 -0.52610636 -0.38399258 -0.46139428 0.5165304 -0.17361607 0.018997299
-0.27432773 0.15437774 -0.42755607 -0.4176693 -0.3247449 -0.5562259 -0.44704524 -0.14236127
-0.40920553 0.3535525 0.32866952 -0.1369113 -0.50940645 -0.30776706 -0.44798642 -0.42786008
0.27113783 -0.30781558 -0.33860254 0.015262762 0.360162 -0.28701305 -0.3400944 0.110084474
00000000: b2fe a03d ac6e 43be 0705 513a 42ea 6f3e
00000010: f5a6 0cbe 2071 c0bb b845 2b3d 25ca 123e
00000020: 953d b03e 6a23 0e3e 9d42 233e 4cbb fabe
00000030: a2ec ea3e bd91 be3e 19a2 923d de10 c53e
00000040: a8fd c63e 9ce0 c43d 522c 293d 8bc1 8bbe
00000050: 0e86 e0be d7aa e9bd 6f8c b03d a6be aebe
00000060: 4211 c63e af0d 933e 4bf2 4c3e f05c a2be
00000070: f71e 093f 7926 c9be 271a 9dbe 3849 09be
00000080: df41 f6be c545 0bbf ed5e 4bbe df09 cf3e
00000090: 5d72 1d3c dc3c 2d3e 53c7 023f fe85 47be
000000a0: f3e1 2d3d 3b8e 25bc 23b4 74be 167d a43e
000000b0: c762 8f3e 9837 723e b01c 363e d0e3 b4be
000000c0: c223 b23d de4b 8f3e 3dee 92bd 0ff2 fa3e
000000d0: 033a b2be f893 aabe 42f6 0c3f 48e3 03bf
000000e0: 2ed4 bc3e 39b6 a4be cfe2 063f a2b6 b3bd
000000f0: cdd6 0cbc d7fa c2be 8223 8a3e 7cf6 ec3e
00000100: c314 66be 32ad bcbe 9bca 363e 89d1 c43e
00000110: ab36 26be 3f07 dfbe bfe5 d93e 5511 cbbe
00000120: f4bb 6abe 6857 07bf 7855 0dbf 2fa3 4abe
00000130: b679 ca3e b19f d0bc 1cc3 963e 8f35 823e
00000140: f459 833e d530 d1be 523f 94be d804 8d3e
00000150: 2ab1 683e db3f 993e 4bb0 9d3e 635d aebe
00000160: 364b b4bd b970 11be b824 fa3c 0380 44be
00000170: 5051 df3e 1029 b9be 9957 1e3e 50be c8bd
00000180: 2a15 bd3e 8ff4 483e 2faa 63be 2fd7 a63d
00000190: ef3e 87be df86 06bf 7549 cdbe a6e3 f53d
000001a0: 2014 9ebe eae7 85be 422f 12bf 7710 a1be
000001b0: 879c 96be ad85 683d 4a15 bdbe 68ce 0cbf
000001c0: b09d 87be 3097 893e 0c5e 03be 5f00 f53e
000001d0: dd12 043f d337 cabe d53d 363e 3565 c43e
000001e0: 3643 013e 3252 bbbe e7e2 423d 9356 9bbe
000001f0: 8005 c7be 2a21 aa3e 8e5d 8dbe 01eb d9bc
00000200: f1b8 cbbe 9934 8f3e 5cfa abbe cccd af3e
00000210: 7637 c1bc ad87 ef3d d45e 00bf 823c 8cbe
00000220: 0f88 68bd 9f5a 8a3e 0af7 c73e cb14 1a3c
00000230: af1d 28be 7a46 c7bd 1b1a c23c 40dd 08bf
00000240: 9a9f a4be 6746 11bd c7b9 f03e 4d17 bcbd
00000250: 8dc7 b0be 4af0 c13e da0e 94be 9aa5 023f
00000260: 94a5 af3e bc18 9ebe fb35 063f 85e1 82be
00000270: 7bd8 9a3e 0663 ccbe 8769 123f 0f3c 01bf
00000280: 10b3 dabe a9e7 9fbe 34ea 073f 0039 0f3f
00000290: 3dd1 433e 0057 13bd b570 11bf a132 abbe
000002a0: e2de 84be 5148 7c3e 21af 19be fde2 06bd
000002b0: a499 da3d 05bf 66bd ede4 c23e 8a34 703e
000002c0: cb19 b53e 21c0 f03d 75a9 12bf 6c6d 83be
000002d0: b382 213e 1bca 05be dc38 5e3e deba aebe
000002e0: eac1 113f 9fa8 053f ba4e 9abd 6314 90bd
000002f0: 1a9c 243d 7a5a c73d d91b e73e c0d0 b93e
00000300: 72f6 e3bd 79a5 9abd cfea 54bd 8996 003f
00000310: 49b3 a1be 9f0e ed3e adfa 4ebe 1a0e 813e
00000320: 1e1e c93e 7d61 423e 7742 663e 4639 98bc
00000330: 435e d93e 5e3c 0fbe 33b9 cc3e 0d92 04bd
00000340: 92c1 da3e 4aba 8cbe eb6b c53e f277 b4be
00000350: e10a 0dbf 3e4a 84bd 4c4e b93e dec6 d0be
00000360: 54e3 45be 3208 863e f391 1e3c 2083 a6bd
00000370: c223 9ebc 2784 513c 41aa fbbe 00d9 d93c
00000380: 33d3 f93e de4a b6be e8ae 06bf ad9a c4be
00000390: df3b ecbe 563b 043f 69c8 31be 39a0 9b3c
000003a0: af74 8cbe 3315 1e3e a1e8 dabe c0d8 d5be
000003b0: f744 a6be d264 0ebf 1de3 e4be 27c7 11be
000003c0: 6383 d1be d504 b53e 5f47 a83e 7a32 0cbe
000003d0: 7668 02bf a593 9dbe 7a5e e5be 7a10 dbbe
000003e0: 94d2 8a3e 019a 9dbe 505d adbe aa10 7a3c
000003f0: 2767 b83e 60f3 92be da20 aebe f873 e13d

weight f4 [1, 256]
0.06847804 -0.012607546 0.004344024 -0.019137224 -0.0027407184 0.062331114 -0.006427129 -0.033963863
-0.043185346 0.02631099 -0.027926913 -0.0066666524 0.022505136 0.023377595 -0.027087158 0.003296743
-0.06102584 -0.041797426 0.049589142 0.010594051 0.063447386 -0.00906714 0.040092487 0.050510548
-0.029971862 0.012675784 0.059408206 0.014496501 0.009954546 -0.051104076 0.03226124 -0.06715294
-0.004465633 -0.02060613 -0.063367985 -0.017150713 0.048397705 -0.037908494 0.053778533 -0.0354418
0.05548887 -0.03859586 0.018136851 0.029470483 0.045105234 -0.04805028 -0.05427149 0.0019499365
0.050537758 -0.008452527 -0.00031224857 0.05929256 -0.045447376 0.06045317 0.017065266 0.0025055448
-0.024568535 0.038830582 0.011438631 0.030600308 -0.090875976 -0.00882049 0.04811813 0.014712522
-0.043968033 0.058632217 0.050664175 0.036451943 0.0072450875 0.053189844 -0.0041396054 -0.061853003
0.0104119005 -0.04167777 -0.054368258 0.06332353 -0.022437355 -0.06797029 -0.013568139 0.018342579
-0.02899653 0.0055073686 0.06409115 -0.053259235 -0.063895345 -0.07292566 0.053354945 0.012205136
0.040223494 -0.06776939 -0.038015362 -0.039610773 -0.05843737 0.033394966 0.059948172 -0.024857778
0.01873471 -0.024579655 -0.012108364 0.071233 -0.0516397 -0.029658025 -0.020063587 0.026119445
-0.029176198 -0.013806671 0.004006902 0.047220774 0.049380176 -0.02448796 -0.070411146 0.029921418
0.0030851047 -0.027724653 -0.031598035 -0.021686943 0.01608556 -0.03099766 0.020118043 0.03071078
0.04993463 -0.004064918 -0.029329885 -0.016835378 0.0056008683 0.04370992 0.06271082 -0.020097498
0.05225782 0.014705664 0.065495424 -0.031553928 -0.06944288 -0.07816091 0.008567076 0.033719297
0.08437382 -0.021137279 0.05469861 0.0856489 -0.029819751 0.015835717 0.08863009 0.01943906
-0.02116171 0.048993383 -0.022139832 -0.064724706 -0.05103114 -0.003632843 -0.041382987 0.042829383
0.0083197905 -0.04985094 -0.0021828886 0.0074294577 -0.03787427 -0.058638565 -0.053399578 0.03275964
-0.047157407 0.030094791 0.04768039 -0.021034956 -0.017953603 0.017189624 -0.05550341 -0.03106991
-0.029604292 -0.052912306 0.06714798 0.066007115 0.02902428 0.028997466 0.042977948 -0.037259586
-0.035676397 -0.03556916 0.002007212 -0.034835603 0.0417424 -0.013410734 -0.047023993 -0.06273581
0.027306776 -0.028764931 0.07254331 -0.05649436 0.012263844 0.047231186 -0.0019936822 -0.07017957
0.05413172 0.030820405 0.0038532729 -0.05213216 -0.034449577 -0.055403102 0.0022662107 -0.045480642
-0.037161965 0.04595393 -0.030649731 -0.09155253 0.04164336 0.038473815 0.06129338 0.03624682
-0.013810879 0.007642792 0.034332313 -0.015369938 0.058559343 0.014689236 -0.04780174 -0.04784452
0.018687677 -0.021855019 -0.099029444 -0.05434701 0.071800634 -0.066895194 0.049535275 -0.0051906426
0.02207492 0.014074432 0.030012181 0.055897962 0.047895193 0.05029202 -0.026660165 -0.040521067
-0.042794008 0.06755638 0.05491464 0.029709945 0.012732585 0.05843027 0.06285648 -0.016892621
-0.03133469 -0.00952039 -0.06400426 0.0014534924 -0.05736905 -0.010991417 -0.03675994 -0.034395088
-0.06614143 0.0072183 0.029912386 0.03543752 0.01271949 0.04445511 0.032464094 0.00053408416
00000000: 373e 8c3d e18f 4ebc 5158 8e3b abc5 9cbc
00000010: a09d 33bb e94e 7f3d aa9a d2bb b11d 0bbd
00000020: 1ee3 30bd 258a d73c fbc6 e4bc ef73 dabb
00000030: b15c b83c 5f82 bf3c e3e5 ddbc 2b0e 583b
00000040: 3bf6 79bd c733 2bbd fc1d 4b3d ac92 2d3c
00000050: b4f0 813d 578e 14bc 0538 243d 26e4 4e3d
00000060: 8d87 f5bc 17ae 4f3c 0556 733d bb82 6d3c
00000070: 6418 233c 8252 51bd 5d24 043d 7b87 89bd
00000080: 7254 92bb 30ce a8bc 13c7 81bd a77f 8cbc
00000090: ac3c 463d f045 1bbd e146 5c3d 6c2b 11bd
000000a0: 4c48 633d b116 1ebd bc93 943c 156c f13c
000000b0: 44c0 383d 5fd0 44bd c84b 5ebd 0395 ff3a
000000c0: ae00 4f3d 787c 0abc 4bb5 a3b9 c1dc 723d
000000d0: 0727 3abd be9d 773d 75cc 8b3c 1134 243b
000000e0: f443 c9bc d10c 1f3d 1969 3b3c 7fad fa3c
000000f0: 2f1d babd d183 10bc 8417 453d ca0c 713c
00000100: d317 34bd 5628 703d 3d85 4f3d a24e 153d
00000110: 3368 ed3b 98dd 593d 87a5 87bb 9359 7dbd
00000120: ad96 2a3c 4fb6 2abd 40b1 5ebd c4af 813d
00000130: 8bce b7bc 0234 8bbd e64c 5ebc 2d43 963c
00000140: 228a edbc 2877 b43b 3942 833d 5b26 5abd
00000150: 90db 82bd 0c5a 95bd b78a 5a3d 0df8 473c
00000160: 64c1 243d aeca 8abd ffb5 1bbd e83e 22bd
00000170: 065c 6fbd 29c9 083d 378c 753d 8aa2 cbbc
00000180: 8979 993c 465b c9bc 2962 46bc 9be2 913d
00000190: 2684 53bd 63f5 f2bc 645c a4bc 72f8 d53c
000001a0: ec02 efbc 6035 62bc 554c 833b 926a 413d
000001b0: de42 4a3d f99a c8bc b833 90bd c31d f53c
000001c0: 782f 4a3b d01e e3bc f16c 01bd d1a8 b1bc
000001d0: ddc5 833c ceee fdbc 98ce a43c 2c95 fb3c
000001e0: 4188 4c3d 0133 85bb 3a45 f0bc 59ea 89bc
000001f0: 7d87 b73b 2c09 333d 886e 803d 82a3 a4bc
00000200: 4c0c 563d 06f0 703c 7722 863d b13e 01bd
00000210: 1238 8ebd d412 a0bd ec5c 0c3c 3f1d 0a3d
00000220: 2ecc ac3d 1628 adbc a60b 603d b168 af3d
00000230: 8d48 f4bc e8b9 813c b183 b53d aa3e 9f3c
00000240: 535b adbc 49ad 483d 985e b5bc 638e 84bd
00000250: 0706 51bd fe14 6ebb 3581 29bd dd6d 2f3d
00000260: bb4f 083c 8030 4cbd cb0e 0fbb cf72 f33b
00000270: 0d22 1bbd fe2e 70bd 84b9 5abd f92e 063d
00000280: 2028 41bd 5a89 f63c 834c 433d 8051 acbc
00000290: 6f13 93bc 41d1 8c3c 8b57 63bd 5386 febc
000002a0: b384 f2bc 93ba 58bd e184 893d bd2e 873d
000002b0: 54c4 ed3c 188c ed3c a509 303d 829d 18bd
000002c0: 6a21 12bd f8b0 11bd 6e8b 033b c7af 0ebd
000002d0: 14fa 2a3d b2b8 5bbc 3b9c 40bd a27b 80bd
000002e0: 76b2 df3c 6fa4 ebbc 9691 943d a166 67bd
000002f0: 4aee 483c 7d75 413d 70a8 02bb 4eba 8fbd
00000300: 39b9 5d3d 137b fc3c 3187 7c3b 8888 55bd
00000310: 001b 0dbd 5dee 62bd b584 143b e949 3abd
00000320: 2537 18bd 303a 3c3d 2515 fbbc e57f bbbd
00000330: 3a92 2a3d b896 1d3d c40e 7b3d 8c77 143d
00000340: 0647 62bc 6370 fa3b 0aa0 0c3d 31d2 7bbc
00000350: ecdb 6f3d 1fab 703c c2cb 43bd 9ef8 43bd
00000360: e616 993c 4c09 b3bc f3cf cabd f89a 5ebd
00000370: 360c 933d 5900 89bd 80e5 4a3d 4416 aabb
00000380: 76d6 b43c 7298 663c 1bdc f53c 43f5 643d
00000390: c02d 443d 01ff 4d3d 6b66 dabc 6bf9 25bd
000003a0: c548 2fbd 005b 8a3d 2cee 603d 4562 f33c
000003b0: 559c 503c 9454 6f3d e6ba 803d 6562 8abc
000003c0: ce58 00bd 69fb 1bbc aa14 83bd 1d83 be3a
000003d0: cffb 6abd 5815 34bc 9791 16bd dde1 0cbd
000003e0: 2875 87bd 7d87 ec3b d20a f53c ef26 113d
000003f0: 6865 503c 9016 363d 12f9 043d c801 0c3a

weight f4 [3, 1]
0.91129273 -0.10651801 -0.8004173
00000000: 7b4a 693f 1d26 dabd 26e8 4cbf

bias f4 [3]
0.30526954 -0.19646089 0.6757113
00000000: 4a4c 9c3e 0b2d 49be 6afb 2c3f

weight_ih_l0 f4 [256, 3]
-0.055331133 -0.030798007 0.025266841 0.022781176 -0.041321818 -0.042634904 0.007889172 0.025575168
0.06447008 -0.04272038 0.021905709 0.020700214 -0.017346067 0.017543074 -0.05476959 0.053146962
-0.007525798 0.019289318 0.03662019 -0.018236756 -0.041044176 -0.068634905 -0.0006899939 0.057259616
-0.060360044 -0.026855662 0.0032799796 0.039579824 0.011496511 -0.0028036009 0.06450196 -0.044776004
0.034228936 -0.0051510986 0.04413503 -0.061449215 -0.03072587 -0.064927496 -0.010979293 0.0070765438
0.058561616 -0.01790785 -0.073174745 -0.053457882 0.026176967 -0.070241 -0.046289902 0.046247043
0.052194748 0.027225506 -0.03330035 -0.048975177 0.047231976 0.027118696 0.027510125 0.013132144
-0.018701583 -0.06580072 -0.0017729034 -0.021974964 0.014120779 0.02737206 0.020567045 -0.040945295
-0.013633951 0.003651702 -0.016969288 -0.016511474 -0.04973839 0.06012377 -0.054278847 0.043501455
0.039110307 -0.039601818 -0.006507242 -0.05198295 -0.0049958886 0.029674357 -0.014072463 -0.039288487
-0.047915153 0.002781704 0.04196904 0.033590786 0.003579361 -0.023403978 -0.028382884 0.019182447
0.049528766 -0.004086534 0.05220631 -0.019721195 0.0011909474 0.019323867 -0.014772235 0.04974086
0.033406496 0.010041376 0.018075207 -0.0021057106 0.017129749 -0.03606784 -0.058786295 0.018433651
-0.053293224 0.020025004 -0.031333108 0.0137368245 -0.012107231 -0.0048460267 0.05232897 -0.049102936
-0.03125298 -0.008167104 -0.016528776 -0.030244071 0.038366925 -0.029043978 -0.04666957 0.038183015
-0.06686593 -0.018361853 0.06119502 0.019976713 0.003511485 0.0079332525 -0.021894913 0.010922713
-0.0037235033 0.030402116 0.028504958 0.005274978 0.07583425 0.0069116275 0.029690849 0.07064302
-0.024132103 -0.013585014 -0.0129602365 -0.0117051 0.03392997 -0.03403402 -0.028452605 -0.019842193
0.052933514 -0.062523134 -0.05191133 0.05267271 0.022522345 -0.06325001 0.04689429 -0.0011073687
-0.023150003 -0.044466943 -0.048066568 -0.057630725 0.029516889 0.027362818 -0.021313174 0.02073493
0.019748911 -0.042125236 0.061803963 -0.057052057 0.012645988 0.03870073 -0.025589371 -0.018621895
-0.04977685 -0.017257133 0.047544017 0.042410467 0.0022492763 -0.008270548 -0.008704338 -0.060065083
-0.0007690847 -0.033228587 0.0041284272 0.02128062 0.05126274 0.024997385 -0.043819517 -0.019573811
-0.047463562 -0.030331278 -0.04546156 -0.004113357 -0.041843932 0.049880493 0.0013703053 -0.023597585
-0.033408713 0.0010273642 0.038241457 0.036783066 -0.03780124 0.0027897418 -0.0043189796 -0.05099131
-0.043102063 0.05326563 0.06254319 -0.03752976 0.04750558 -0.008858396 0.052315067 -0.008472345
-0.02599994 -0.02162329 0.04675969 0.008073513 -0.037173014 0.048446503 -0.028546011 0.026196025
0.025331473 0.031571716 -0.011876646 0.03202185 0.0336469 -0.009644859 -0.07595349 -0.044634297
0.04386353 0.02666907 -0.035671595 0.04213349 0.037150975 -0.00933256 0.0030145822 -0.0678669
-0.011449273 0.004112968 0.06554988 0.017226662 0.017344328 0.0057122977 0.03041558 -0.03855059
-0.00031556786 0.03539542 0.043062538 -0.03590449 -0.013286849 -0.051975425 -0.06158403 -0.05202971
0.05420663 -0.022781305 0.0033092631 -0.022648 -0.053577114 0.008867104 -0.025552044 0.04649973
00000000: e6a2 62bd 1a4c fcbc 68fc ce3c 979f ba3c
00000010: 1141 29bd f0a1 2ebd 9641 013c 0483 d13c
00000020: e408 843d 91fb 2ebd 9a73 b33c 7f93 a93c
00000030: 5719 8ebc 7eb6 8f3c 1456 60bd a1b0 593d
00000040: f89a f6bb a204 9e3c 0dff 153d 4065 95bc
00000050: f01d 28bd 7590 8cbd b5e0 34ba 0f89 6a3d
00000060: 183c 77bd 6800 dcbc edf4 563b 741e 223d
00000070: dd5b 3c3c 9ebc 37bb 9b19 843d 0b67 37bd
00000080: a433 0c3d 8cca a8bb efc6 343d 2cb2 7bbd
00000090: d2b4 fbbc b5f8 84bd 7ee2 33bc 5ae2 e73b
000000a0: 4ede 6f3d 7cb3 92bc a4dc 95bd a7f6 5abd
000000b0: 1471 d63c 83da 8fbd 7b9a 3dbd 8a6d 3d3d
000000c0: 29ca 553d 0608 df3c f365 08bd 329a 48bd
000000d0: 5176 413d 0728 de3c ea5c e13c 3428 573c
000000e0: 1034 99bc 87c2 86bd c460 e8ba d704 b4bc
000000f0: d75a 673c 5f3b e03c 387c a83c 41b6 27bd
00000100: ef60 5fbc 6551 6f3b 2d03 8bbc 1243 87bc
00000110: 7bba 4bbd 5844 763d 7f53 5ebd 952e 323d
00000120: 2132 203d 8435 22bd b43a d5bb 13ec 54bd
00000130: 8db4 a3bb a317 f33c 3090 66bc f7ec 20bd
00000140: ae42 44bd 404d 363b bae7 2b3d 7e96 093d
00000150: b693 6a3b b3b9 bfbc 3983 e8bc 8224 9d3c
00000160: adde 4a3d 55e8 85bb 49d6 553d 588e a1bc
00000170: 9019 9c3a 164d 9e3c 3f07 72bc 12bd 4b3d
00000180: 40d5 083d 9584 243c 7512 943c f6ff 09bb
00000190: b053 8c3c dfbb 13bd e6c9 70bd 2b02 973c
000001a0: ff49 5abd 7a0b a43c 2557 00bd 6b10 613c
000001b0: 685d 46bc 6bcb 9ebb e756 563d 2920 49bd
000001c0: 2003 00bd 51cf 05bc 5b67 87bc 6ac2 f7bc
000001d0: a326 1d3d a3ed edbc 9728 3fbd cb65 1c3d
000001e0: 01f1 88bd 996b 96bc a1a7 7a3d 34a6 a33c
000001f0: f120 663b 79fa 013c f65c b3bc 2ef5 323c
00000200: 0506 74bb dc0d f93c 3b83 e93c b9d9 ac3b
00000210: fd4e 9b3d ef7a e23b 393a f33c 4aad 903d
00000220: b0b0 c5bc ae93 5ebc 2c57 54bc bfc6 3fbc
00000230: 27fa 0a3d 4267 0bbd 7015 e9bc 188c a2bc
00000240: d0d0 583d 210c 80bd faa0 54bd 57bf 573d
00000250: c880 b83c 3989 81bd 3a14 403d 2125 91ba
00000260: 13a5 bdbc f822 36bd 73e1 44bd 320e 6cbd
00000270: 67cd f13c fd27 e03c f798 aebc 4ddc a93c
00000280: 78c8 a13c 838b 2cbd 2726 7d3d 6baf 69bd
00000290: 1e31 4f3c a884 1e3d cda0 d1bc f28c 98bc
000002a0: cfe2 4bbd d55e 8dbc 84bd 423d 99b6 2d3d
000002b0: 9868 133b 3181 07bc a49c 0ebc ce06 76bd
000002c0: 679c 49ba b31a 08bd c247 873b b254 ae3c
000002d0: e1f8 513d 51c7 cc3c 187c 33bd 4259 a0bc
000002e0: 2769 42bd 4d79 f8bc e735 3abd 57c9 86bb
000002f0: 8b64 2bbd 7d4f 4c3d d19b b33a b94f c1bc
00000300: 93d7 08bd 9fa8 863a 13a3 1c3d d7a9 163d
00000310: 79d5 1abd 1ad4 363b 3a86 8dbb 44dc 50bd
00000320: ca8b 30bd 102d 5a3d a516 803d ceb8 19bd
00000330: 3695 423d ce22 11bc 5348 563d 97cf 0abc
00000340: d3fd d4bc 5323 b1bc 1787 3f3d c546 043c
00000350: bb42 18bd d76f 463d 53d9 e9bc 0c99 d63c
00000360: f383 cf3c 5851 013d 4496 42bc 5829 033d
00000370: 55d1 093d 7805 1ebc 818d 9bbd 74d2 36bd
00000380: 3faa 333d 1879 da3c 611c 12bd 2b94 2c3d
00000390: 9f2b 183d 98e7 18bc 4c90 453b cdfd 8abd
000003a0: bb95 3bbc 14c6 863b 043f 863d ee1e 8d3c
000003b0: b115 8e3c 3a2e bb3b 182a f93c 39e7 1dbd
000003c0: cd72 a5b9 cafa 103d 5862 303d 9610 13bd
000003d0: 15b1 59bc 2fe4 54bd 893f 7cbd 1b1d 55bd
000003e0: c507 5e3d dc9f babc 39e0 583b 4c88 b9bc
000003f0: ad73 5bbd 5447 113c 8552 d1bc 8076 3e3d

weight_hh_l0 f4 [256, 256]
-0.00872003 -0.011103518 -0.01544762 -0.027178338 0.014174935 0.054257773 0.017365988 -0.048408452
-0.028998489 -0.0017846401 0.015417956 -0.058186695 0.04677188 -0.024740033 -0.00056511123 -0.05525063
-0.05385628 -0.023931 0.044537105 0.04758673 -0.042682275 -0.005035368 -0.025786286 0.03613974
-0.040390126 -0.017673075 -0.02726665 0.05044522 0.004303493 0.0062325094 0.007197835 -0.03209676
0.04444237 0.04172743 0.058202527 0.02847311 0.026674364 -0.00851358 -0.03698993 0.036334112
0.01358076 0.0006556068 -0.0384924 -0.046237968 -0.038447414 0.028128613 -0.048909113 -0.036576208
0.02637084 0.049983557 -0.06325875 -0.01987398 0.0492205 -0.007704169 -0.029963812 0.022873545
0.06528306 -0.02526765 -0.034591466 0.06334961 -0.00046956548 0.03649842 0.057940125 0.05700448
0.012831701 0.027795574 -0.062035006 -0.023675255 0.06322755 -0.016504167 -0.034578636 -0.040768143
0.025912974 -0.009583625 0.034970995 0.05899021 0.058775473 -0.0027395564 -0.054796062 0.021223946
0.040101793 -0.014747664 -0.006066476 -0.036863893 0.040271793 -0.0135793965 -0.049925882 0.03604262
0.0077954163 0.032213576 -0.02115431 0.03369418 0.053622358 0.009325047 0.05730107 0.033602223
0.05659833 -0.0066014887 0.04837712 0.029777717 -0.022607762 0.016357392 -0.02160053 0.040807545
-0.04613965 0.012506486 8.9003e-05 0.0079582175 -0.020682361 -0.0063387537 -0.037143435 -0.035205185
0.03462582 -0.025569443 -0.0042375764 0.043749344 0.018305104 0.056772422 0.025825076 -0.016956504
0.04748821 0.0514865 0.043982927 -0.020996343 0.028143784 0.023564443 -0.023101997 -0.023596328
-0.022898981 0.02071696 -0.027885374 -0.04920177 -0.015884086 0.023456978 0.0005844233 0.020291043
-0.027421555 0.025272487 -0.038929287 0.026631689 -0.03294999 -0.03268115 -0.0012148141 0.056537233
-0.027565248 -0.040359534 -0.03418073 0.02829866 -0.03914276 -0.04171523 -0.0453771 -0.033523556
-0.050914664 -0.00055679993 0.0037004026 0.007660811 0.041142397 -0.028104302 -0.009367478 -0.0024406428
-0.02253462 -0.0064530857 0.013171555 -0.038048737 -0.049651533 0.054011825 -0.04554638 -0.041986965
0.0018870733 -0.01454189 0.026767325 -0.028182482 0.031957693 -0.04246672 -0.0011884368 0.04525885
-0.04955343 -0.05029925 0.058738258 -0.008001644 -0.009179326 0.029085236 0.024564197 0.006728393
0.042001233 -0.04969119 -0.013889935 -0.017590992 -0.032672655 -0.0015670342 0.0364846 -0.046980973
-0.05361257 0.034484614 -0.04160372 0.024989221 -0.057515033 0.018048974 -0.06695666 0.016760435
0.016463587 -0.016593182 -0.048448246 0.05014169 0.0015712176 -0.037169445 0.014081649 0.02286157
-0.020229606 -0.036293592 0.00941841 0.017754829 0.052213877 0.013965967 0.052730594 0.02925796
0.05932016 0.03416575 0.012101204 0.064168334 -0.061373774 -0.010091092 -0.014184642 0.06399878
0.05347865 -0.017993437 0.042190865 -0.056152586 -0.062923715 -0.017857462 0.011756133 0.05881333
-0.037910998 0.04384926 -0.04856977 8.288067e-05 0.019801984 0.044677008 -0.0024848229 0.054049097
0.0072679245 -0.057495315 0.034944303 -0.040425565 -0.016182283 -0.015008399 -0.05943336 -0.049330644
0.02606838 -0.041564018 -0.026225066 -0.033059567 -0.011212711 -0.0119684655 -0.052241318 0.053534742
00000000: 75de 0ebc 88eb 35bc 0418 7dbc 1ba5 debc
00000010: fd3d 683c 663d 5e3d 1e43 8e3c f147 46bd
00000020: 3d8e edbc 96ea e9ba 989b 7c3c 2c55 6ebd
00000030: df93 3f3d 9cab cabc f923 14ba 7c4e 62bd
00000040: 6798 5cbd f20a c4bc 8a6c 363d 4eea 423d
00000050: 9cd3 2ebd baff a4bb c33d d3bc 4407 143d
00000060: 1e70 25bd 20c7 90bc 4f5e dfbc a69f 4e3d
00000070: 5104 8d3b 143a cc3b d1db eb3b e477 03bd
00000080: 3409 363d 62ea 2a3d c665 6e3d 7140 e93c
00000090: 3284 da3c 8b7c 0bbc c182 17bd 14d3 143d
000000a0: d681 5e3c 07dd 2b3a 35aa 1dbd 0664 3dbd
000000b0: 097b 1dbd fa6d e63c ec54 48bd efd0 15bd
000000c0: a907 d83c 8fbb 4c3d ce8d 81bd c2ce a2bc
000000d0: 6f9b 493d 4173 fcbb ab76 f5bc 4d61 bb3c
000000e0: 20b3 853d 1afe cebc c8af 0dbd 71bd 813d
000000f0: 0330 f6b9 5e7f 153d a052 6d3d 887d 693d
00000100: 0e3c 523c 8bb3 e33c 6b18 7ebd 9cf2 c1bc
00000110: 727d 813d bf33 87bc 54a2 0dbd 7ffc 26bd
00000120: 7247 d43c a304 1dbc bf3d 0f3d b89f 713d
00000130: 8dbe 703d 218a 33bb d671 60bd d7dd ad3c
00000140: c741 243d 30a0 71bc 4ac9 c6bb 98fe 16bd
00000150: 09f4 243d 1e7c 5ebc 157f 4cbd 6da1 133d
00000160: b170 ff3b 62f2 033d ce4b adbc e902 0a3d
00000170: 1ea3 5b3d 15c8 183c 87b4 6a3d 7ca2 093d
00000180: a7d3 673d 4d51 d8bb 1627 463d 66f0 f33c
00000190: ea33 b9bc f0ff 853c 98f3 b0bc d025 273d
000001a0: eefc 3cbd 01e8 4c3c 1fa7 ba38 2f63 023c
000001b0: 0e6e a9bc 52b5 cfbb b723 18bd 5033 10bd
000001c0: ced3 0d3d 0277 d1bc 5edb 8abb 8332 333d
000001d0: 96f4 953c 338a 683d 1c8f d33c 5ee8 8abc
000001e0: ff82 423d 82e3 523d 7127 343d 8600 acbc
000001f0: cb8d e63c 380a c13c 6640 bdbc 164d c1bc
00000200: a596 bbbc 9db6 a93c de6f e4bc cc87 49bd
00000210: 581f 82bc d928 c03c fc33 193a 6739 a63c
00000220: 2ba3 e0bc 3f08 cf3c 5174 1fbd b32a da3c
00000230: 92f6 06bd abdc 05bd 663a 9fba 9693 673d
00000240: 84d0 e1bc 0a50 25bd 1801 0cbd 97d2 e73c
00000250: 2954 20bd 97dd 2abd 57dd 39bd ff4f 09bd
00000260: e58b 50bd 36f6 11ba 7482 723b 8a07 fb3b
00000270: ee84 283d fe3a e6bc 0d7a 19bc 31f3 1fbb
00000280: 869a b8bc 6874 d3bb 81cd 573c fed8 1bbd
00000290: 685f 4bbd 813b 5d3d d78e 3abd 86fa 2bbd
000002a0: ac57 f73a 1b41 6ebc 2647 db3c f3de e6bc
000002b0: 12e6 023d 95f1 2dbd 52c5 9bba 5861 393d
000002c0: 8af8 4abd 9606 4ebd 8797 703d 5419 03bc
000002d0: e264 16bc 2944 ee3c db3a c93c da79 dc3b
000002e0: 7c09 2c3d fd88 4bbd 9c92 63bc fc1a 90bc
000002f0: c3d3 05bd f164 cdba e070 153d 1f6f 40bd
00000300: db98 5bbd bd3f 0d3d aa68 2abd 32b6 cc3c
00000310: e294 6bbd 71db 933c 9320 89bd 2e4d 893c
00000320: a5de 863c 6dee 87bc ab71 46bd 5f61 4d3d
00000330: 50f1 cd3a fd3e 18bd b7b6 663c 3048 bb3c
00000340: 8fb8 a5bc 97a8 14bd ad4f 1a3c 9372 913c
00000350: 38de 553d 83d1 643c 09fc 573d 64ae ef3c
00000360: b2f9 723d 63f1 0b3d 2144 463c b06a 833d
00000370: 1163 7bbd 1c55 25bc b366 68bc cb11 833d
00000380: 6e0c 5b3d f966 93bc 54d0 2c3d 4100 66bd
00000390: 26de 80bd d049 92bc cc9c 403c 3fe6 703d
000003a0: 9048 1bbd 489b 333d 18f1 46bd 39d0 ad38
000003b0: c537 a23c 3dff 363d 69d8 22bb 9662 5d3d
000003c0: c527 ee3b 3580 6bbd c221 0f3d 4795 25bd
000003d0: b590 84bc cae5 75bc 6570 73bd ee0e 4abd
000003e0: 5b8d d53c 083f 2abd f3d5 d6bc 7869 07bd
000003f0: 85b5 37bc 6217 44bc fefa 55bd 3f47 5b3d

bias_ih_l0 f4 [256]
0.0340634 0.002744681 -0.057813764 0.018748319 0.044415157 0.00839445 -0.061452236 -0.052697983
-0.056739688 0.016661432 -0.04443491 -0.054941095 -0.009317658 0.054155614 -0.025348488 -0.056119986
0.032305565 -0.019211465 -0.037432205 -0.0075225905 0.036391806 0.04384608 -0.01522022 0.051955525
0.04287333 -0.016108293 -0.049671426 0.0026276882 0.0115573285 0.048993524 -0.03234409 -0.02286939
0.013903243 -0.019242743 -0.012887127 0.03957847 0.05253335 0.013217043 0.057482537 0.0023299002
0.00154306 -0.06377923 0.039952315 -0.0025234304 -0.021958591 -0.015882524 0.0020932371 0.020896416
-0.0035052162 0.056054123 -0.057595514 0.04271206 -0.001615025 -0.012947435 -0.0018991302 0.0387715
0.03764809 0.0453486 0.03885762 0.023417741 0.05420779 0.05198348 0.009465557 -0.04425304
-0.017394127 -0.03061675 0.014190737 0.034109768 0.03835808 -0.038879912 0.048831195 -0.0049140947
-0.02924584 -0.023020891 -0.057199176 0.037714683 -0.035606388 0.020181412 0.048365474 0.05395223
-0.037588116 0.039613772 0.05997936 0.058004275 0.035259787 0.05946872 0.0461398 -0.042564746
-0.026281178 0.003339034 -0.05394841 0.034967203 0.0247974 -0.030585889 -0.003684486 -0.015235886
0.052518 -0.055477653 0.018338315 -0.060769368 -0.012894486 0.027437901 -0.046715684 -0.024740117
0.058233984 0.057600856 -0.020509185 -0.045133606 0.033403095 -0.006850447 -0.037793417 0.030763155
0.037877873 0.058596395 -0.060326237 -0.027895283 0.055627175 0.0067114187 0.042199157 0.035910174
-0.029150203 0.03199316 -0.030448876 0.043053996 0.02658378 0.059123036 0.041785933 0.00794645
-0.04296789 0.0060768393 -0.010079651 -0.025721362 0.007601661 0.008582298 -0.03197552 0.026321353
0.038895514 -0.054184366 -0.045726765 0.0017230831 -0.007929116 0.05661453 0.046763472 0.012522723
-0.051006176 -0.047403965 0.045488436 0.023747254 0.049883336 -0.00077303895 0.0603846 0.0023491383
0.05589061 -0.059047002 -0.029073812 -0.022868432 0.001293986 -0.027047863 0.0027989561 -0.056330286
-0.0015369689 0.05870394 0.04800262 -0.0026528395 0.021710731 -0.028933138 -0.028860878 0.026559422
0.00228092 -0.0021194154 0.0026741761 0.004944213 -0.05785535 0.0019116233 -0.048317254 0.01076965
0.053495403 0.051187463 0.056610957 -0.044951513 0.056639973 0.018179607 -0.01590085 0.02200217
-0.01578311 0.017312791 0.060897224 -0.054855015 -0.005804332 -0.049718183 -0.03203362 -0.010792469
0.054290023 -0.049927227 -0.0596263 -0.017244954 0.008131968 -0.04191699 -0.04057949 -0.023858802
-0.0159089 0.0035679084 -0.03975735 -0.0058785174 -0.01743813 0.018542022 -0.05713699 -0.0060005873
-0.010130658 0.03189325 -0.041948225 -0.015654465 -0.020100178 0.031468198 -0.031942256 0.041956652
-0.06167251 -0.00028285678 0.047163785 -0.04064606 0.012278649 -0.044703018 -0.017926589 -0.0064474815
-0.016940102 -0.0076954844 -0.029353624 0.0005006735 -0.00039516483 0.021395983 -0.013682503 -0.0047596567
-0.018034544 0.043950226 0.0027946923 0.02715653 0.030986784 -0.00928193 0.024740301 -0.011898747
0.0089814095 -0.023204962 0.019624902 -0.017130367 0.017563116 0.0055831065 0.011262127 0.00643096
0.043543365 0.034462698 0.004530525 -0.009713934 0.03454391 -0.032349538 -0.035909954 -0.058682695
00000000: 1086 0b3d 1be0 333b 20ce 6cbd 1396 993c
00000010: abec 353d e088 093c 57b5 7bbd d7d9 57bd
00000020: e067 68bd 8e7d 883c 6101 36bd ea09 61bd
00000030: 17a9 18bc 47d2 5d3d a2a7 cfbc 12de 65bd
00000040: d752 043d 5d61 9dbc 8352 19bd 1080 f6bb
00000050: 930f 153d f297 333d 3b5e 79bc 51cf 543d
00000060: f29b 2f3d 8af5 83bc 4474 4bbd 4b35 2c3b
00000070: f35a 3d3c 6fad 483d 3d7b 04bd 9658 bbbc
00000080: 6dca 633c f5a2 9dbc 8724 53bc 091d 223d
00000090: 362d 573d 4c8c 583c cf72 6b3d 3db1 183b
000000a0: 8040 ca3a af9e 82bd 0aa5 233d 2360 25bb
000000b0: 81e2 b3bc 111c 82bc b12e 093b f62e ab3c
000000c0: c5b7 65bb 0299 653d 46e9 6bbd d7f2 2e3d
000000d0: 3faf d3ba 7a21 54bc 3cec f8ba ddce 1e3d
000000e0: e234 1a3d 74bf 393d 2b29 1f3d 90d6 bf3c
000000f0: fd08 5e3d a1ec 543d 6c15 1b3c ad42 35bd
00000100: 217e 8ebc facf fabc 4480 683c afb6 0b3d
00000110: 5d1d 1d3d 8b40 1fbd 3803 483d 6a06 a1bb
00000120: f994 efbc 4f96 bcbc af49 6abd b67a 1a3d
00000130: 01d8 11bd 7d53 a53c e01a 463d 03fd 5c3d
00000140: fff5 19bd 0d42 223d ebac 753d e495 6d3d
00000150: 916c 103d 7995 733d 16fd 3c3d 5f58 2ebd
00000160: a04b d7bc b2d3 5a3b 02f9 5cbd c539 0f3d
00000170: eb23 cb3c 428f fabc 6b77 71bb f09f 79bc
00000180: 1d1d 573d 893c 63bd 3c3a 963c 4de9 78bd
00000190: 6543 53bc 73c5 e03c f258 3fbd c9ab cabc
000001a0: c286 6e3d e0ee 6b3d e102 a8bc 04de 38bd
000001b0: afd1 083d b779 e0bb 45cd 1abd 0303 fc3c
000001c0: d425 1b3d c602 703d a518 77bd a684 e4bc
000001d0: 52d9 633d 76eb db3b 06d9 2c3d 8c16 133d
000001e0: 68cc eebc 420b 033d ec6f f9bc 6359 303d
000001f0: 3ac6 d93c ff2a 723d ba27 2b3d d431 023c
00000200: 19ff 2fbd 3920 c73b 1f25 25bc 9bb5 d2bc
00000210: 5b17 f93b c49c 0c3c c3f8 02bd e19f d73c
00000220: e750 1f3d 6df0 5dbd fd4b 3bbd 13d9 e13a
00000230: 1fe9 01bc a3e4 673d 0e8b 3f3d 1b2c 4d3c
00000240: daeb 50bd a92a 42bd 1552 3a3d 9a89 c23c
00000250: 7852 4c3d c4a5 4aba d855 773d 00f4 193b
00000260: 8ded 643d 45db 71bd 342c eebc 9456 bbbc
00000270: f79a a93a 7b93 ddbc b16e 373b 96ba 66bd
00000280: 1e74 c9ba 8b73 703d 659e 443d 43db 2dbb
00000290: b4da b13c 3005 edbc a66d ecbc 2593 d93c
000002a0: 7d7b 153b e4e5 0abb 3b41 2f3b 1103 a23b
000002b0: bbf9 6cbd 6f8f fa3a 50e8 45bd 3073 303c
000002c0: ff1d 5b3d f2a9 513d e4e0 673d 141f 38bd
000002d0: 51ff 673d 66ed 943c 8042 82bc e53d b43c
000002e0: 954b 81bc 8ed3 8d3c 5e6f 793d a7af 60bd
000002f0: 4432 bebb 4ba5 4bbd af35 03bd e5d2 30bc
00000300: 375f 5e3d 7e80 4cbd b53a 74bd 4a45 8dbc
00000310: f23b 053c 26b1 2bbd ae36 26bd 8973 c3bc
00000320: 6253 82bc 92d3 693b 9ad8 22bd 94a0 c0bb
00000330: 69da 8ebc 70e5 973c 7a08 6abd 93a0 c4bb
00000340: 0ffb 25bc 7fa2 023d e7d1 2bbd cb3d 80bc
00000350: 21a9 a4bc cce4 003d e2d5 02bd bdda 2b3d
00000360: 509c 7cbd 654c 94b9 d02e 413d 7c7c 26bd
00000370: 632c 493c 831a 37bd c8da 92bc 6545 d3bb
00000380: f8c5 8abc 672a fcbb 0377 f0bc a13f 033a
00000390: 202e cfb9 a146 af3c 942c 60bc e5f6 9bbb
000003a0: 2ebd 93bc 2705 343d 2827 373b 5f77 de3c
000003b0: ffd7 fd3c 3c13 18bc 2cac ca3c f6f2 42bc
000003c0: c326 133c 5518 bebc 67c4 a03c fc54 8cbc
000003d0: 86e0 8f3c 7ef2 b63b c984 383c cdba d23b
000003e0: 875a 323d c228 0d3d cc74 943b 3127 1fbc
000003f0: ea7d 0d3d f380 04bd 5116 13bd 445d 70bd

bias_hh_l0 f4 [256]
-0.035590746 0.056472663 -0.027015662 -0.04319311 -0.04523404 0.0029951485 0.036374282 -0.018260375
-0.011718491 6.608162e-05 -0.050352287 0.040870354 -0.050224356 -0.011984899 -0.01855227 0.039717194
-0.05430203 0.06151707 0.049964577 -0.006562289 -0.0018739062 -0.057593137 -0.045562815 0.017732836
0.0507153 -0.03103596 -0.028045997 -0.04502367 -0.044440143 -0.047073722 -0.047386963 -0.02012625
0.032626133 0.014986686 0.040771674 -0.05522529 0.007993109 -0.04388654 0.0329726 0.053734984
-0.026632015 0.018249992 0.027037485 0.023590567 0.047567096 -0.005288065 0.035477974 -0.04241655
0.0461594 0.03488744 -0.015331291 0.03571043 0.030917667 -0.0065812245 -0.03927598 -0.04126711
0.047913857 0.026357727 0.058295935 0.031121906 5.3827094e-05 -0.011410936 0.012116731 -0.005617076
0.010867525 -0.027803581 -0.019157285 -0.0087668365 0.04468607 0.0013736859 -0.0045625204 -0.0489822
-0.009351267 -0.03754901 -0.0319596 -0.012313699 0.04368025 0.04132787 -0.020148586 -0.015830373
0.007593102 -0.05426746 0.0020619445 0.013601756 0.028882718 0.030533288 0.03754608 -0.042452972
-0.036789663 -0.05602315 -0.0116915 0.04006143 -0.019226251 0.017715657 0.01109939 -0.02507095
0.009874791 0.038833242 -0.050401896 -0.012699952 -0.049595393 -0.047278073 -0.030830456 -0.019625818
0.0229549 0.049455527 0.038120322 -0.049605325 0.020450199 -0.050447784 -0.028511908 0.03466678
0.05052376 -0.002505707 -0.031113 0.029337594 -0.023600679 0.034551464 0.05522735 0.024201998
0.010182832 -0.049389448 0.028826237 -0.0062965318 0.05515129 0.018522995 -0.059555452 -0.01307226
-0.043360315 -0.039715473 -0.041344967 -0.029850608 -0.019142205 0.016343663 -0.00066768186 -0.040539972
-0.0107366955 0.03447839 -0.043883696 -0.034609854 -0.014744829 -0.026846264 -0.05462939 -0.042429756
0.0042961314 0.02746141 0.0108550005 -0.024227316 -0.017820787 -0.037470497 0.05562872 -0.05791113
-0.0038122952 -0.0118497815 -0.021029562 -0.055553284 0.00074450555 -0.044005398 -0.059482723 0.04518109
0.039227325 -0.060642455 0.049782816 -0.006011691 -0.0064672306 0.041001808 -0.03165161 -0.00790012
0.041305713 0.019785326 0.016760794 0.048974298 0.034190215 -0.041993275 0.01914234 -0.04997367
-0.02790781 -0.04758435 -0.03314301 0.060601708 0.007108417 0.00901726 -0.044604413 0.025274258
0.0042900313 -0.04458196 -0.056936543 -0.0093129985 -0.019398756 -0.058979586 0.017023968 -0.028457684
0.023514086 -0.017032538 0.020891605 0.024031097 0.044096418 0.008670263 0.022142507 0.037156038
0.017142508 0.032645274 0.05150157 0.0269563 0.019605102 -0.06056286 -0.045842197 0.0060308655
0.047662012 0.019895734 -0.046801947 0.05141294 -0.050160583 -0.039334875 0.043774664 -0.0025451889
0.005896305 -0.029126426 0.025061423 0.04430309 -0.022188772 -0.012924425 -0.017500676 0.039901335
0.024467885 0.036515005 -0.03681172 -0.012254457 -0.057419173 0.031902038 -0.047886133 -0.009169708
0.039693262 -0.005809246 0.03548373 0.022813773 -0.043351907 0.05193949 0.0027222035 0.056479186
-0.06426032 -0.048540458 0.0148245385 -0.01658723 0.004608682 0.0005300598 0.026948698 0.03268964
-0.04222041 0.056215636 -0.031003185 0.04200931 0.048406336 -0.04137711 -0.051009804 0.05862091
00000000: 9ac7 11bd e14f 673d f34f ddbc 42eb 30bd
00000010: 5447 39bd 414a 443b 33fd 143d c896 95bc
00000020: eafe 3fbc 4d95 8a38 333e 4ebd ac67 273d
00000030: 0eb8 4dbd 4f5c 44bc eefa 97bc 7fae 223d
00000040: ce6b 5ebd 53f9 7b3d a8a7 4c3d 7808 d7bb
00000050: dc9d f5ba c8e6 6bbd 13a0 3abd 7444 913c
00000060: d9ba 4f3d 203f febc b8c0 e5bc bd6a 38bd
00000070: de06 36bd 60d0 40bd d518 42bd cedf a4bc
00000080: fba2 053d b88a 753c 3300 273d ea33 62bd
00000090: 87f5 023c 5fc2 33bd 470e 073d 3719 5c3d
000000a0: 622b dabc 0281 953c b77d dd3c 0141 c13c
000000b0: b7d5 423d 8147 adbb 5a51 113d fabc 2dbd
000000c0: a411 3d3d 22e6 0e3d 1830 7bbc 1a45 123d
000000d0: 0c47 fd3c 50a7 d7bb dadf 20bd b307 29bd
000000e0: 5241 443d 29ec d73c b8c7 6e3d 5ef3 fe3c
000000f0: 67c4 6138 eff4 3abc 4185 463c 730f b8bb
00000100: b40d 323c 56c4 e3bc bdef 9cbc c7a2 0fbc
00000110: be08 373d 400d b43a 3281 95bb 8fa1 48bd
00000120: 0e36 19bc fecc 19bd 12e8 02bd 66bf 49bc
00000130: 10ea 323d 6a47 293d a60e a5bc b3ae 81bc
00000140: 8ecf f83b 8e47 5ebd b021 073b e6d9 5e3c
00000150: 739b ec3c f220 fa3c ebc9 193d 2be3 2dbd
00000160: c2b0 16bd 8878 65bd b58d 3fbc 7417 243d
00000170: 5f80 9dbc 6d20 913c 37da 353c 9861 cdbc
00000180: e0c9 213c 9b0f 1f3d 3872 4ebd 7613 50bc
00000190: 8a24 4bbd a7a6 41bd 2790 fcbc 53c6 a0bc
000001a0: ea0b bc3c e191 4a3d 0e24 1c3d f42e 4bbd
000001b0: 2d87 a73c 56a2 4ebd ce91 e9bc c1fe 0d3d
000001c0: 01f2 4e3d ca36 24bb b1e0 febc 6555 f03c
000001d0: 3656 c1bc d685 0d3d 1336 623d 4543 c63c
000001e0: e5d5 263c 974c 4abd 0025 ec3c 2353 cebb
000001f0: 52e6 613d 89bd 973c 6bf0 73bd 082d 56bc
00000200: 969a 31bd b1ac 22bd 5759 29bd 4389 f4bc
00000210: 1dd0 9cbc 25e3 853c 5f07 2fba 3e0d 26bd
00000220: f7e8 2fbc 3639 0d3d 64bf 33bd 10c3 0dbd
00000230: 4c94 71bc b2ec dbbc 11c3 5fbd d3ca 2dbd
00000240: 90c6 8c3b c0f6 e03c 2cd9 313c 5d78 c6bc
00000250: e6fc 91bc aa7a 19bd f1da 633d 3934 6dbd
00000260: b3d7 79bb 9625 42bc 3046 acbc d78b 63bd
00000270: ec2a 433a 013f 34bd 28a4 73bd ce0f 393d
00000280: d5ac 203d 3964 78bd 11e9 4b3d b8fd c4bb
00000290: 10eb d3bb 83f1 273d 1ea5 01bd 816f 01bc
000002a0: 2e30 293d d614 a23c ef4d 893c 4699 483d
000002b0: 0a0b 0c3d 2401 2cbd 66d0 9c3c 31b1 4cbd
000002c0: eb9e e4bc cfe7 42bd f7c0 07bd 7f39 783d
000002d0: b9ed e83b 21bd 133c 1eb3 36bd f60b cf3c
000002e0: 6493 8c3b 939b 36bd 4b36 69bd 8c95 18bc
000002f0: 24ea 9ebc 9494 71bd d975 8b3c 1720 e9bc
00000300: 9da0 c03c d287 8bbc df24 ab3c dddc c43c
00000310: 729e 343d b80d 0e3c 3464 b53c ee30 183d
00000320: 726e 8c3c 0db7 053d 4ff3 523d 75d3 dc3c
00000330: e19a a03c c310 78bd 07c5 3bbd 919e c53b
00000340: 3e39 433d 61fc a23c 66b3 3fbd 6096 523d
00000350: 2f75 4dbd 9b1d 21bd 104d 333d 2fcd 26bb
00000360: cb35 c13b 8b9a eebc 9d4d cd3c 2877 353d
00000370: 3ac5 b5bc f8c0 53bc 945d 8fbc 956f 233d
00000380: e070 c83c c290 153d e3c7 16bd ebc6 48bc
00000390: 5e30 6bbd b6ab 023d 4024 44bd 8b3c 16bc
000003a0: 6795 223d 7d5b bebb 6357 113d f3e3 ba3c
000003b0: c591 31bd 81be 543d ff66 323b b856 673d
000003c0: ea9a 83bd 5cd2 46bd 9fe2 723c f1e1 87bc
000003d0: 6d04 973b b6f3 0a3a 84c3 dc3c 92e5 053d
000003e0: 4fef 2cbd 5e42 663d 64fa fdbc f411 2c3d
000003f0: b945 463d 0b7b 29bd a8ef 50bd 7b1c 703d
